save/models/server/testmodel.pth (torch, 92399 bytes, 8 tensors)

conv1.weight f4 [10, 3, 5, 5]
0	0x3d388bc8	0.04505518
1	0x3dda6cf6	0.10665314
2	0x3dd96238	0.10614437
3	0x3ced73d8	0.028985903
4	0xbd94663d	-0.07246063
5	0xbd0b280a	-0.03397373
6	0x3cd96510	0.026537448
7	0x3ccaaab0	0.024739593
8	0xbdbcc46f	-0.09217154
9	0xbd1fedc4	-0.03904511
10	0xbccc8114	-0.024963893
11	0x3dabee20	0.08395028
12	0xbd65274a	-0.055945672
13	0xbdac2e90	-0.084073186
14	0x3dd35ba4	0.103202134
15	0xbcc34b78	-0.023839697
16	0xbc8987b0	-0.016788334
17	0xbdc39aa4	-0.0955098
18	0x3c545020	0.012958556
19	0x3de92792	0.113845006
20	0xbd3d373e	-0.04619526
21	0xbadb7a40	-0.0016744807
22	0x3d8d53c0	0.0690074
23	0x3c6b86d0	0.0143754035
24	0x3d3ef584	0.04662086
25	0x3de974a0	0.113991976
26	0xbdd64add	-0.10463498
27	0x3d131024	0.035904065
28	0xbde15fcf	-0.11004602
29	0xbddedc3e	-0.108818516
30	0xbdbdf604	-0.092754394
31	0x3ba0e140	0.0049096644
32	0x3daa8e00	0.083278656
33	0xbd9abda4	-0.07555702
34	0xbd96a5f9	-0.073558755
35	0x3d717448	0.058948785
36	0xbd4b35d4	-0.04961188
37	0xbcd49770	-0.025951117
38	0x3d000d08	0.031262428
39	0x3ce28908	0.027653232
40	0x3dbad3cc	0.09122428
41	0xbdceb076	-0.10092251
42	0x3d67ccf4	0.056591943
43	0xbd17e35c	-0.03708206
44	0x3dae29c2	0.085040584
45	0x3d48bbe0	0.049007297
46	0x3cb0cc78	0.021581873
47	0x3c762d00	0.015025377
48	0xbd179782	-0.037009723
49	0xbd82d77d	-0.063887574
50	0x3c521070	0.012821302
51	0xbd193e8c	-0.037413165
52	0xbd2b863a	-0.041876055
53	0xbd6369c3	-0.055520784
54	0xbd44edfa	-0.048078515
55	0x3c320900	0.010866404
56	0x3d58fa80	0.05297327
57	0x3dbfcfde	0.093658194
58	0x3c729400	0.014805794
59	0xbdd4e6bb	-0.10395571
60	0x3da1a1c8	0.078921854
61	0x3d595618	0.05306062
62	0x3da8301a	0.082123
63	0x3de7a710	0.113111615
64	0x3dbd3738	0.09239048
65	0x3c967cb8	0.018370017
66	0x3dcfba76	0.101429865
67	0xbd582abc	-0.05277513
68	0xbde9e9e7	-0.114215665
69	0x3dcb5632	0.0992855
70	0x3d0375cc	0.03209476
71	0xbdc1620c	-0.09442529
72	0xbdd8520d	-0.10562525
73	0xbcd146fc	-0.025546543
74	0xbd8b9962	-0.06816365
75	0x3db3db64	0.0878208
76	0xbd80a657	-0.06281727
77	0x3da0583a	0.07829328
78	0xbdd37bfb	-0.10326382
79	0xbdcffb7e	-0.1015539
80	0xbd63e160	-0.055634856
81	0xbdcab924	-0.09898594
82	0xbdb3d0be	-0.08780049
83	0xbd87b410	-0.06626141
84	0xbde95f85	-0.11395172
85	0x3de87de4	0.11352137
86	0xbdc08dc3	-0.09402039
87	0x3d193c9c	0.037411317
88	0x3ce77e08	0.028258339
89	0x3d9cace6	0.07650165
90	0x3d82874e	0.063734636
91	0xbdcf2218	-0.10113925
92	0x3d34a6e8	0.044104487
93	0x3d9fe8e8	0.07808095
94	0x3da1e770	0.07905471
95	0xbd3aa00e	-0.045562796
96	0xbdcbb287	-0.09946161
97	0x3d5ea13c	0.054352984
98	0x3dd5eef2	0.10445966
99	0x3d8c539e	0.06851886
100	0xbd5243ae	-0.051334076
101	0xbddd983c	-0.10820052
102	0x3c7db7f0	0.015485749
103	0xbdacdedf	-0.08440947
104	0xbda00a8e	-0.07814513
105	0xbd94eebc	-0.072720975
106	0xbdd8e738	-0.105909765
107	0xbd3fdf32	-0.046843715
108	0xbda8710b	-0.08224686
109	0x3c8ee978	0.017445311
110	0x3cff9710	0.031199962
111	0x3db176d8	0.08665246
112	0xbd14cf34	-0.036330417
113	0xbd3d294c	-0.046181962
114	0x3d642464	0.055698767
115	0xbdbf033a	-0.09326787
116	0x3d943332	0.07236327
117	0xbdbed2fc	-0.09317586
118	0xbdbb24e4	-0.09137896
119	0x3dcce82c	0.10005221
120	0x3d57e930	0.05271262
121	0xbc8e8814	-0.017398871
122	0x3dbadb04	0.09123805
123	0x3db84b08	0.08998686
124	0xbd894354	-0.06702295
125	0x3d40aa24	0.04703726
126	0xbd924de5	-0.071437635
127	0xbde3bcba	-0.11119981
128	0x3d8a4c62	0.0675285
129	0x3d95666c	0.07294926
130	0x3da66b36	0.081259176
131	0xbc0f0e60	-0.008731455
132	0x3ca5de60	0.020247638
133	0x3dca351c	0.09873411
134	0xbda6fe34	-0.08153954
135	0xbdb0d750	-0.086348176
136	0xbd4fdd8c	-0.050748393
137	0x3d9aed5a	0.075648025
138	0x3d8fb1a4	0.07016304
139	0xbd871a8b	-0.065968595
140	0xbcd08988	-0.025456205
141	0x3beaa5a0	0.0071608573
142	0xbd72060a	-0.05908779
143	0xbd083924	-0.03325762
144	0x3da6c06a	0.08142169
145	0xbd67adb8	-0.056562155
146	0x3d86f720	0.06590104
147	0x3cea7598	0.028620526
148	0xbd812ce0	-0.06307387
149	0xbd550d9a	-0.052014925
150	0xbdbc3dac	-0.091914505
151	0x3da63a04	0.08116534
152	0x3d286174	0.041108564
153	0x3d9fafba	0.07797189
154	0xbde45e15	-0.11150757
155	0xbb640400	-0.0034792423
156	0xbd15abc0	-0.036540747
157	0xbd1628ac	-0.03665988
158	0x3d143478	0.03618285
159	0xbddb17ff	-0.10697936
160	0x3dc8b19e	0.09799503
161	0x3dd20c52	0.10256256
162	0x3dcb4152	0.09924568
163	0x3ce014e8	0.027353719
164	0xbd72a392	-0.059238024
165	0xbdd75848	-0.10514885
166	0x3d0ef958	0.03490576
167	0x3dc4d624	0.096111566
168	0xbd16e76e	-0.036841802
169	0x3d4ca2f0	0.049960077
170	0xbd0b32ae	-0.03398388
171	0x3bcb59a0	0.0062057525
172	0xbd69a867	-0.057045367
173	0x3dd51bcc	0.104056925
174	0xbd0d428a	-0.034487285
175	0x3db7ff76	0.08984272
176	0x3d3af96c	0.045648023
177	0xbdb1bbee	-0.08678423
178	0x3dce4ab6	0.10072844
179	0x3da01ad8	0.0781762
180	0x3cdee3a0	0.02720815
181	0xbd2aadc4	-0.041669622
182	0x3b5f8d00	0.0034111142
183	0x3d931128	0.07181007
184	0xbddbde39	-0.10735745
185	0xbd92fc7e	-0.07177065
186	0xbd87bac8	-0.066274226
187	0xbb6e31a0	-0.0036345497
188	0x3ddfb5a4	0.10923317
189	0x3d1e432c	0.03863828
190	0x3d13bcb8	0.036068648
191	0xbd9bdc84	-0.076104194
192	0xbd3bb66c	-0.045828268
193	0xbd6ca229	-0.057771835
194	0x3cc95968	0.024578765
195	0x3de5c592	0.11219324
196	0x3d9ad5f8	0.075603426
197	0xbcf43a3c	-0.029812925
198	0x3d0c8b64	0.03431262
199	0x3d818976	0.06325047
200	0xbda9dc52	-0.08293976
201	0x3d65de30	0.056120098
202	0x3db5bd7a	0.088740304
203	0xbca82d34	-0.020529367
204	0x3d12db44	0.03585364
205	0x3c1d8340	0.009613812
206	0xbde1db18	-0.11028117
207	0x3db72cea	0.089441136
208	0x3da3d99a	0.080004886
209	0x3d43bdc4	0.047788396
210	0xbdc855a6	-0.09781961
211	0x3c962588	0.018328443
212	0xbd14f35c	-0.036364898
213	0xbdb0b26b	-0.086277805
214	0x3d8e32f0	0.06943309
215	0x3db701c2	0.08935882
216	0xbd0cee54	-0.034406975
217	0x3d707ca4	0.058712617
218	0xbd21e94a	-0.039529122
219	0xbd8f4aac	-0.069966644
220	0xbdc97241	-0.09836245
221	0xbdbe73e1	-0.09299446
222	0xbc529870	-0.012853727
223	0x3d920b8c	0.07131109
224	0xbddcc5b1	-0.10779894
225	0xbcb8915c	-0.02253025
226	0x3ceaa258	0.028641865
227	0x3de9bcb4	0.114129454
228	0xbdc946ec	-0.098279804
229	0x3c903ee0	0.017608106
230	0xbd02da5a	-0.031946518
231	0x3d4348d4	0.047676876
232	0x3d076ee8	0.033064753
233	0xba7c3900	-0.0009621531
234	0x3ddacb98	0.10683364
235	0x3c24a840	0.01004988
236	0x3c8874d0	0.016657263
237	0x3ccfc0f8	0.02536057
238	0x3d8a6b18	0.06758708
239	0xbd8fab6f	-0.0701512
240	0xbcccf580	-0.025019407
241	0x3d6a4864	0.057197943
242	0xbc003518	-0.007825159
243	0x3d5c02e8	0.05371371
244	0xbcb84320	-0.022492945
245	0xbdd0829a	-0.1018116
246	0x3d3b5de0	0.045743823
247	0xbc6e63d0	-0.014550164
248	0xbd1ef5ba	-0.03880856
249	0x3dbbf69a	0.09177895
250	0x3d731484	0.059345737
251	0x3d720640	0.05908799
252	0x3d7ee38c	0.062228724
253	0xbd2e96e0	-0.042624354
254	0x3d9a4894	0.075333744
255	0xbd912ca6	-0.07088594

conv1.bias f4 [10]
0	0x3cc5f850	0.024166256
1	0x3d9c4dae	0.07632004
2	0x3cc4c8b8	0.024021491
3	0x3d92c92e	0.07167278
4	0xbdd13fb4	-0.102172285
5	0xbde02f58	-0.1094653
6	0xbdbee72d	-0.09321437
7	0x3dcf04c4	0.10108331
8	0xbd572548	-0.05252579
9	0xbde73b76	-0.11290638

conv2.weight f4 [20, 10, 5, 5]
0	0x3d6a94b0	0.057270706
1	0x3cc37edc	0.023864202
2	0xbd5feee0	-0.05467117
3	0xbbd5f6e0	-0.006529674
4	0xbcd642ae	-0.026154842
5	0xbd0adb6c	-0.033900663
6	0xbd0560af	-0.032562908
7	0x3c067b90	0.0082081705
8	0xbc001ad0	-0.007818893
9	0x3d464740	0.048407793
10	0x3cbf2b6c	0.023336135
11	0xbd5e48c6	-0.05426862
12	0x3d4303f2	0.047611184
13	0xbd0f7377	-0.035022225
14	0x3cd47a4c	0.025937222
15	0xbd5dd3cb	-0.05415706
16	0x3d565d2c	0.05233495
17	0x3d498b4c	0.04920511
18	0xbb94b3a0	-0.0045380145
19	0xbd691e21	-0.0569135
20	0x3ce20628	0.027590826
21	0xbd494dd4	-0.04914649
22	0xb9e7ab00	-0.00044187158
23	0xbd26d02c	-0.040725872
24	0xbcf0edf2	-0.029410336
25	0xbc4081f8	-0.011749737
26	0x3c84d3c8	0.016214266
27	0x3d75ec4e	0.06003981
28	0xb998b100	-0.00029123574
29	0xbd064603	-0.032781612
30	0xbcc64aba	-0.024205554
31	0xbd4da1b9	-0.05020306
32	0x3d80135a	0.06253691
33	0x3d7cd216	0.06172379
34	0x3c592c18	0.013255142
35	0xbca47e1e	-0.020079669
36	0xbd4141ce	-0.047181897
37	0xbb183060	-0.0023222193
38	0x3cec4744	0.028842576
39	0x3d7c17b8	0.061546057
40	0x3d5218ac	0.05129306
41	0xbd58d318	-0.05293569
42	0xbcbd11e2	-0.023079816
43	0xbc2fe870	-0.01073657
44	0x3be4a8c0	0.0069781244
45	0x3ca9716c	0.020683967
46	0xbd36c7d1	-0.044624154
47	0xbd235d96	-0.039884172
48	0x3beadf80	0.0071677566
49	0xbca26c48	-0.019827023
50	0x3ce456ac	0.02787336
51	0xbd3d8510	-0.046269476
52	0xbd53713a	-0.051621653
53	0xbd78529c	-0.060625657
54	0x3ce458e4	0.027874418
55	0xbd0fe3a4	-0.035129204
56	0x3c59c278	0.013290994
57	0x3cb67aa4	0.022275276
58	0x3cdc5614	0.026896514
59	0x3aa36b40	0.0012467876
60	0x3d0a32be	0.033739798
61	0xbc88a54e	-0.016680386
62	0xbd206a80	-0.039164066
63	0x3b571be0	0.0032823011
64	0xbcb830f0	-0.022484273
65	0x3d1a2188	0.037629634
66	0x3c9fdec0	0.019515395
67	0xbcc72806	-0.024311077
68	0xbd33af5a	-0.0438684
69	0x3c21c3c8	0.009873338
70	0x3d532d26	0.05155673
71	0xbd66aa3e	-0.0563147
72	0xbc8f3adc	-0.017484121
73	0xbd357808	-0.044303924
74	0xbd609871	-0.05483288
75	0xbc596b60	-0.013270229
76	0x3c8d2054	0.01722733
77	0xbce1d3dc	-0.027566843
78	0x3d590b56	0.052989326
79	0xbd57cd07	-0.052685764
80	0xbd18fd50	-0.037350953
81	0xbd727502	-0.05919362
82	0xbcbb3928	-0.022854403
83	0x3aeeb080	0.001821056
84	0xbcbcc2fc	-0.023042195
85	0x3d3d49ca	0.04621295
86	0xbc2dfcc4	-0.010619346
87	0xbd1f4e5a	-0.03889308
88	0xbd0088f4	-0.03138061
89	0x3d211d8c	0.03933482
90	0x3c784450	0.015153006
91	0xbbcfb358	-0.006338518
92	0xbb74c3e0	-0.0037348196
93	0x3bfdd420	0.0077462345
94	0x3bc37eb0	0.00596603
95	0xbca3f7ce	-0.020015623
96	0x3d6317b0	0.055442512
97	0xbd113522	-0.035451062
98	0x3d15a6fc	0.0365362
99	0x3d44a0ee	0.048005037
100	0xbc194bac	-0.0093564205
101	0xbcb24c58	-0.02176492
102	0x3c7e32e0	0.015515059
103	0x3d2b10b4	0.041763976
104	0xbcc0e052	-0.023544464
105	0x3c3bd820	0.011465102
106	0xbd6e4a1f	-0.058176156
107	0xbd547676	-0.051870786
108	0xbd3acdfa	-0.04560659
109	0xbd6d877b	-0.057990532
110	0xbd27ced6	-0.04096874
111	0x3cd026b4	0.02540908
112	0xbd5ca44f	-0.053867634
113	0x3d593070	0.05302471
114	0x3c66b810	0.01408197
115	0xbd2e613b	-0.042573195
116	0xbad3a700	-0.0016147792
117	0xbcde47de	-0.027133878
118	0x3c968684	0.018374689
119	0xbc4cd4ec	-0.012501936
120	0x3d7b49de	0.061349742
121	0xbd250382	-0.04028655
122	0xbd3ef375	-0.046618897
123	0xbc1ed4a8	-0.009694256
124	0xbd7037c8	-0.058646947
125	0x3d8092ee	0.062780246
126	0xbcbb1c8e	-0.022840764
127	0x3cd5463c	0.026034467
128	0x3c96bc30	0.018400282
129	0x3d44bb24	0.048030034
130	0x3ba9b3c0	0.0051788986
131	0x3bb9b280	0.005667031
132	0x3ca646d4	0.020297445
133	0x3ce701fc	0.028199188
134	0xb7b5a000	-2.1651387e-05
135	0xbc891646	-0.016734254
136	0x3cbea294	0.023270883
137	0x3a98bf40	0.0011653677
138	0xbd082b2d	-0.0332443
139	0x3cbb0374	0.022828795
140	0xbd3d77f2	-0.046256967
141	0xbd80e02d	-0.06292758
142	0xbbc24198	-0.0059282295
143	0x3d4f5b24	0.050624028
144	0x3d77699c	0.06040345
145	0x3c8e3108	0.017357364
146	0xbcabaf8c	-0.02095773
147	0xbbe76560	-0.0070616454
148	0xbce9d99c	-0.028546147
149	0x3d01f4f0	0.03172773
150	0xbbd36a90	-0.006451912
151	0x3d0afd9e	0.033933274
152	0x3d1ab314	0.03776844
153	0x3be94930	0.0071193203
154	0xbbc7b418	-0.006094467
155	0x3d24c06c	0.04022257
156	0xbd653f94	-0.055968836
157	0xbd48752e	-0.048939876
158	0xbd59b68e	-0.053152613
159	0xbd537dea	-0.051633753
160	0x3cc41aa8	0.023938492
161	0xbd34d18e	-0.04414516
162	0x3d17e1ae	0.03708046
163	0x3d26d5f0	0.04073137
164	0x3bb29990	0.005450435
165	0xbc01c44c	-0.007920336
166	0x3d4b9122	0.049698956
167	0x3d7d910c	0.061905906
168	0x3d4077ca	0.04698924
169	0xbd3192cc	-0.043352887
170	0xbcbf04cc	-0.023317717
171	0xbd223641	-0.03960252
172	0xbc8269c6	-0.015919577
173	0x3d572fbc	0.052535757
174	0x3d00717c	0.031358227
175	0x3c9dd724	0.019267626
176	0x3b9349f0	0.004494898
177	0xbd1795e8	-0.037008196
178	0x3d164d2c	0.03669469
179	0xbd7c9434	-0.061664775
180	0xbc5179a8	-0.012785353
181	0xbcde11bc	-0.027108066
182	0x3d50013e	0.050782435
183	0x3c3e3c08	0.011610992
184	0x3d361efe	0.04446315
185	0x39f73400	0.00047150254
186	0xbcb5850e	-0.022158172
187	0xbd541862	-0.051781066
188	0xbc92fc8a	-0.017942686
189	0xbc8950e8	-0.016762212
190	0x3ccca7b4	0.02498231
191	0xbcba674a	-0.02275433
192	0xbce44266	-0.027863692
193	0x3bbe8180	0.0058137774
194	0xbc2fe210	-0.01073505
195	0xbccfca54	-0.025365032
196	0xbd781c9f	-0.06057417
197	0xbcc5a470	-0.024126261
198	0xbc312be0	-0.010813683
199	0x3d016b0e	0.031596236
200	0xbac27300	-0.0014835298
201	0xbd1a60eb	-0.037690084
202	0x3c524118	0.012832902
203	0xbd7a0e36	-0.06104871
204	0x3c9dac54	0.019247212
205	0x3d61ae8a	0.055098094
206	0x3ce82830	0.028339475
207	0x3d085ff2	0.033294626
208	0xbd50708a	-0.050888576
209	0xbbdc8aa8	-0.0067303963
210	0x3cc65748	0.02421154
211	0x3ba6a910	0.005086072
212	0x3cb5f4bc	0.022211425
213	0xbd442e84	-0.047895923
214	0x3d284196	0.041078173
215	0x3d317a3e	0.04332947
216	0x3bb80070	0.0056152865
217	0x3d3aa9cc	0.045572087
218	0x3c954af4	0.018224217
219	0xbd4166d8	-0.04721722
220	0x3d10a26c	0.035311148
221	0x3be761e0	0.007061228
222	0xbd23fb26	-0.040034436
223	0xbd5dbdca	-0.054136075
224	0xbcc7ac4a	-0.024374146
225	0x3bfc6a70	0.007703118
226	0xbd145c11	-0.036220614
227	0xbd48686d	-0.048927713
228	0x3c9e04d0	0.019289404
229	0xbd50a50e	-0.05093866
230	0xbcc9130c	-0.024545215
231	0x3d04944e	0.032367997
232	0xbd7e5003	-0.062088024
233	0x3d252b94	0.040324762
234	0x3c5f8288	0.013641961
235	0xbd4162c8	-0.047213346
236	0xbcc36c12	-0.023855243
237	0xbb486e80	-0.0030583441
238	0x3d6b4df6	0.057447396
239	0x3d4ea9a6	0.050454758
240	0x3d7de1c4	0.061982885
241	0x3d62288c	0.05521445
242	0xbc9cc996	-0.019139092
243	0x3d09d500	0.0336504
244	0xbd493683	-0.049124252
245	0x3d4a5afe	0.049403183
246	0xbd091a8a	-0.033472575
247	0x3ca555f8	0.020182595
248	0x3c9c5550	0.019083649
249	0xbd4b1077	-0.04957625
250	0x3d076fde	0.03306567
251	0xbcc1e6b6	-0.023669582
252	0x3cdbc638	0.026827917
253	0xbcfd3cea	-0.030912835
254	0xbca8ea30	-0.020619482
255	0xbd1c2608	-0.038122207

conv2.bias f4 [20]
0	0xbd3732e2	-0.04472626
1	0xbd25c0b2	-0.04046697
2	0x3d1fca30	0.03901118
3	0xbcf5cc88	-0.030004755
4	0x3d67c2f0	0.05658239
5	0xbd7c61be	-0.06161665
6	0xbd31a38b	-0.043368857
7	0x3d7af730	0.061270893
8	0xbd70cc95	-0.058788855
9	0x3b509140	0.0031824857
10	0xbbd05708	-0.006358031
11	0x3aef3b00	0.0018251836
12	0x3d1346e2	0.03595627
13	0x3c8c5088	0.017128244
14	0x3d24c626	0.04022803
15	0x3ca60d68	0.020270064
16	0xbd23281a	-0.039833166
17	0xbbb34738	-0.0054711364
18	0xbc125b7c	-0.008932944
19	0x3d4ddc12	0.050258704

fc1.weight f4 [50, 320]
0	0x3cd53314	0.026025333
1	0x3d538e18	0.051649183
2	0x3ce0947c	0.027414553
3	0xbb7c3d50	-0.0038488694
4	0xbcf54b78	-0.029943213
5	0x3b4eae30	0.003153693
6	0xbd32faae	-0.043696098
7	0x3c712270	0.014717683
8	0x3cbbcdb4	0.022925235
9	0x3d2f8a36	0.042856418
10	0x3ca1ebe8	0.01976581
11	0x3c83aed8	0.016074583
12	0x3c9a7770	0.01885578
13	0x3cc5a1cc	0.024125002
14	0x3cfc91c4	0.030831225
15	0xbd3139ce	-0.043268017
16	0xbb357c00	-0.0027692318
17	0xbc831b0e	-0.016004112
18	0x3b3c97d0	0.002877701
19	0xbc736e94	-0.014857907
20	0xbd3fa727	-0.04679027
21	0x3c23c538	0.009995751
22	0xbc02dc70	-0.007987127
23	0x3c9d15c8	0.019175425
24	0x3d5a8ce4	0.05335702
25	0xbd26468f	-0.040594634
26	0xbb8c8d48	-0.004289303
27	0xbce68b07	-0.028142465
28	0x3ce09c68	0.02741833
29	0x3d5a6c4e	0.053325944
30	0x3cada9ec	0.02119919
31	0x3c789668	0.015172578
32	0x3cbef798	0.023311421
33	0xbb3da6a0	-0.0028938428
34	0x3d3f556a	0.046712317
35	0x3d2b676e	0.041846685
36	0xbcc3dc0a	-0.023908634
37	0x3c538758	0.012910686
38	0xbcc16b3c	-0.023610704
39	0xbb627bb0	-0.0034558587
40	0xbd431fc2	-0.04763771
41	0xbc1f57f0	-0.009725556
42	0xbd5f590c	-0.05452828
43	0x3d25a850	0.04044372
44	0xbd17aa84	-0.03702785
45	0xbd01d5d1	-0.03169805
46	0xbd297270	-0.0413689
47	0x3ce3495c	0.027744941
48	0x3caacc50	0.020849377
49	0x3cdfb21c	0.027306609
50	0x3c4b5de0	0.012412518
51	0xbca352e8	-0.019936994
52	0x3d181f5c	0.03713928
53	0x3c660f78	0.014041774
54	0x3cfb536c	0.030679427
55	0x3d3c7c56	0.046017013
56	0xbcd828e5	-0.026386688
57	0x3c602d10	0.013682619
58	0x3d56bab8	0.052424163
59	0x3d417bb6	0.04723712
60	0x3cbe4020	0.023223937
61	0x3cbdcd78	0.023169264
62	0x3d0fa708	0.035071403
63	0xbc476208	-0.012169369
64	0x3c774b08	0.015093572
65	0xbd173195	-0.03691252
66	0xbd37ba9d	-0.044855703
67	0xbb972070	-0.004612021
68	0xbd321a4b	-0.043482106
69	0x3d325e9c	0.043547258
70	0xbc3095e4	-0.010777924
71	0xbbfe7c80	-0.0077663064
72	0x3d5cbd06	0.053891204
73	0xbc7e24e8	-0.015511729
74	0xbd488a45	-0.04895999
75	0x3ca469a0	0.020069897
76	0xbccb259a	-0.024798203
77	0x3c0c6fd0	0.00857158
78	0xbc9d63d2	-0.019212637
79	0xbb3d4f50	-0.0028886385
80	0x3ad5f280	0.0016322881
81	0x3c11b648	0.008893557
82	0x3cb53b2c	0.022122942
83	0xbc041270	-0.0080610365
84	0x3d04c7f8	0.032417268
85	0xbc0264e4	-0.0079586245
86	0xbbf754c8	-0.0075479485
87	0x3c39be30	0.011336848
88	0x3d4aaaca	0.049479283
89	0x3d3475d6	0.04405769
90	0xbbdbf4f0	-0.0067125484
91	0xbc12a170	-0.0089496225
92	0x3d2fd1aa	0.04292456
93	0xbd47c20b	-0.04876904
94	0xbd2aa4b1	-0.04166097
95	0x3d55f2e4	0.05223359
96	0x3b991178	0.004671272
97	0x3bffbb60	0.0078043193
98	0x3ce2980c	0.027660392
99	0xbd1a3194	-0.037644938
100	0xbd21e13c	-0.03952144
101	0x3cdba3f4	0.026811577
102	0x3d3204f8	0.04346177
103	0xbc176e18	-0.009242557
104	0xbd2ac265	-0.041689295
105	0xbd2fe516	-0.042943083
106	0xbd5a8ce8	-0.053357035
107	0xbd3f98c9	-0.046776567
108	0xbd25f6d0	-0.040518582
109	0x3d1fecb0	0.039044082
110	0xbd5323a0	-0.051547647
111	0x3c724e20	0.014789134
112	0x3b9f2ad0	0.0048573986
113	0xbd2ef538	-0.042714328
114	0xbcb6f62c	-0.02233418
115	0x3cb2f80c	0.021846794
116	0x3d0f153c	0.03493236
117	0xbc7ad6bc	-0.015309986
118	0xbd33ac18	-0.043865293
119	0xbd2d8869	-0.04236642
120	0x3d5f6b98	0.05454597
121	0xbd03d334	-0.03218384
122	0xbd2f4fa8	-0.042800575
123	0xbd57f2f0	-0.052721918
124	0xbc8e4ef4	-0.017371632
125	0x3d556356	0.052096687
126	0x3d4729c4	0.048623815
127	0x3d246f28	0.04014507
128	0x3b0c0d20	0.0021370128
129	0x3be79a40	0.0070679486
130	0x3d49a1e4	0.049226657
131	0x3d4dabf0	0.0502128
132	0x3c8f89dc	0.017521791
133	0x3afe3f80	0.0019397587
134	0x39163500	0.00014324859
135	0xbd38fef8	-0.045165032
136	0x3d271364	0.040789977
137	0x3ca558f8	0.020184025
138	0x3d16d09c	0.03682004
139	0xbc8682e6	-0.01641984
140	0x3d5b7766	0.053580664
141	0xbc812c22	-0.015768114
142	0x3cefc50c	0.029268764
143	0x3c05dac0	0.00816983
144	0xbc7085b4	-0.014680315
145	0x3cb6d33c	0.022317521
146	0xbc75ceb8	-0.015002899
147	0x3c04d460	0.008107275
148	0x3a4c7b40	0.0007800348
149	0x3d06a8da	0.032875873
150	0xbd38c6ee	-0.04511159
151	0x3c51ee10	0.012813106
152	0x3d5fe534	0.054661945
153	0xbcc5ed7c	-0.024161093
154	0x3cc7b7d8	0.024379656
155	0xbd56b480	-0.052418232
156	0x3cd5c268	0.026093677
157	0x3cff0eb8	0.031134948
158	0xbd434770	-0.04767555
159	0xbd5fcdfb	-0.054639798
160	0x3d1647ce	0.036689572
161	0xbb037d00	-0.002006352
162	0x3d0096c6	0.03139379
163	0xbd453684	-0.048147693
164	0xbd3e6a28	-0.046487957
165	0x3d4539d0	0.048150837
166	0x3c037e58	0.008025728
167	0x3c243458	0.010022245
168	0x3cbbada8	0.022909954
169	0x3a08bf00	0.00052164495
170	0x3d03aee8	0.032149225
171	0xbc3edcb8	-0.011649303
172	0xbd2228b5	-0.039589603
173	0xbca950c4	-0.020668395
174	0xbd5f624e	-0.05453711
175	0xbcb88146	-0.02252258
176	0x3cd03fec	0.025421105
177	0xbd07fd52	-0.03320057
178	0x3cc05b60	0.023481071
179	0x3cf0e6d4	0.029406942
180	0xbd35a5be	-0.044347517
181	0xbd33c748	-0.04389122
182	0xbccfb4f5	-0.025354842
183	0x3d227702	0.039664276
184	0x39a1df00	0.0003087446
185	0x3d47eee2	0.0488118
186	0xbd3f57a6	-0.046714447
187	0xbd185004	-0.037185684
188	0xbd5f2101	-0.054474834
189	0xbbbeee40	-0.0058267415
190	0x3cf16890	0.029468805
191	0xbccd1418	-0.025033996
192	0xbc2093f4	-0.0098009
193	0xbd005776	-0.03133341
194	0xbd20f8d0	-0.039299786
195	0xbc9b50b2	-0.018959377
196	0xbd42ed2f	-0.047589477
197	0x3c893978	0.016751036
198	0xbc914be2	-0.017736379
199	0xb9dc0f80	-0.00041973218
200	0xbc945aaa	-0.018109638
201	0xbc96cdbe	-0.018408652
202	0x3cc3cc98	0.023901269
203	0x3cba5728	0.022746637
204	0x3d1e93ec	0.038715288
205	0x3d388670	0.045050085
206	0x3b4f8f60	0.0031671152
207	0x3cdcbf60	0.026946723
208	0x3d186d92	0.03721387
209	0xbb5450b0	-0.0032396726
210	0xbd4e7d2a	-0.050412335
211	0x3cde9478	0.027170405
212	0xbd4f5ca3	-0.050625455
213	0x3d417cee	0.047238283
214	0xbce8a41e	-0.02839857
215	0x3b6a5400	0.0035755634
216	0x3c0769b0	0.008264944
217	0xbc3a1514	-0.0113575645
218	0x3c61ed18	0.013789438
219	0xbc901edc	-0.01759284
220	0x3d2e41a6	0.042543076
221	0x3c8acc78	0.016943201
222	0x3d5d8a7c	0.054087147
223	0xbc90e052	-0.01768509
224	0x3cd6494c	0.026157998
225	0xbd02efb3	-0.031966876
226	0xbd419842	-0.047264345
227	0xbd34f400	-0.04417801
228	0x3d5e4a14	0.054269865
229	0x3d1b2250	0.03787452
230	0xbceb08d8	-0.02869074
231	0x3cc6534c	0.02420964
232	0xbc6952a8	-0.014240898
233	0x3d44a80a	0.048011817
234	0x3ca54fc4	0.020179637
235	0x3d4d87d2	0.050178356
236	0x3c979038	0.018501386
237	0xbd483325	-0.0488769
238	0x3d4421be	0.04788374
239	0x3cecb974	0.028897025
240	0xbd4d9766	-0.050193213
241	0x3c109998	0.008825682
242	0xbced86c4	-0.028994925
243	0xbb57a410	-0.0032904185
244	0xbd4de42e	-0.050266437
245	0x3bc58920	0.0060283095
246	0xbc036a60	-0.008020967
247	0xbccd608e	-0.025070455
248	0x3cf82978	0.030293211
249	0xbc81b836	-0.015834909
250	0xbd568d37	-0.052380767
251	0x3cf688c8	0.03009452
252	0xbcfafcd3	-0.030638134
253	0xbd217628	-0.039419323
254	0x3d070b70	0.032969892
255	0xbc009d44	-0.007849995

fc1.bias f4 [50]
0	0xbbc11118	-0.0058919303
1	0x3d3112a8	0.043230683
2	0xbd48f258	-0.049059242
3	0x3d2dd244	0.042436853
4	0x3d4f6dce	0.050641827
5	0xbcc06cf4	-0.023489453
6	0xbd6220ca	-0.05520705
7	0x3cb10748	0.021609917
8	0xbd15d8b8	-0.036583632
9	0xb9cc0700	-0.00038915128
10	0x3d17bfb4	0.037048057
11	0xbbbbfde0	-0.0057370514
12	0x3c997224	0.018731184
13	0x3d155062	0.036453612
14	0xbcc499b2	-0.023999069
15	0xbd33d8c2	-0.04390789
16	0xbd25e56e	-0.040502004
17	0xbd605978	-0.054772824
18	0x3d57f7aa	0.052726425
19	0x3d5aa832	0.05338306
20	0xbcef690f	-0.0292249
21	0x3ccb689c	0.024830155
22	0x3d32ac42	0.04362131
23	0xbb84a498	-0.0040479414
24	0xbcf40d87	-0.029791607
25	0x3c5d8c20	0.013522178
26	0xbc2be314	-0.010491151
27	0x3be77d30	0.007064484
28	0xbbaed190	-0.0053350404
29	0xbcf1883d	-0.029483909
30	0xbd59bd34	-0.053158954
31	0xbd14b113	-0.036301684
32	0xbcac51ea	-0.021035153
33	0x3d1213e6	0.035663508
34	0xbd1fea70	-0.039041936
35	0x3d041900	0.032250404
36	0x3cf485c0	0.029848933
37	0xbcd6e423	-0.026231831
38	0x3d3a057c	0.045415387
39	0xbd5b2e24	-0.0535108
40	0x3c9abf60	0.018890083
41	0xbd3c1498	-0.045918077
42	0xbbf0a730	-0.007344149
43	0xbd4e1fb8	-0.050323218
44	0x3b6b3b90	0.0035893656
45	0x3d1f810a	0.03894142
46	0x3ced00ac	0.028930984
47	0xbbe59e18	-0.0070073716
48	0xbd32e080	-0.04367113
49	0x3d362d50	0.044476807

fc2.weight f4 [10, 50]
0	0x3df37976	0.11888401
1	0xbc2daa00	-0.010599613
2	0x3e06d9a5	0.13168962
3	0x3b291080	0.0025797188
4	0x3c5d02e0	0.013489455
5	0x3dbde032	0.092712775
6	0x3dc65948	0.09684998
7	0x3d80346e	0.0626
8	0xbd5487a0	-0.051887155
9	0xbde5f9d0	-0.112292886
10	0x3e08c32b	0.133557
11	0x3dd22110	0.102602124
12	0xbcace26c	-0.02110406
13	0x3e0d8a63	0.13822322
14	0x3d31fbc0	0.043452978
15	0x3e0d64cf	0.13807987
16	0x3da0dc84	0.0785456
17	0x3def1dda	0.116756156
18	0xbe0fd947	-0.14047728
19	0xbd983249	-0.07431466
20	0x3c7c3690	0.015393868
21	0xbcc2fcf0	-0.02380225
22	0x3d3cd068	0.04609719
23	0xbc80e118	-0.015732333
24	0xbda00de3	-0.07815149
25	0x3cbc04e8	0.022951558
26	0x3dac95f6	0.0842704
27	0xbde28c16	-0.110618755
28	0x3d8b0448	0.06787926
29	0x3d307798	0.043082803
30	0xbe077d53	-0.13231401
31	0x3c5aad00	0.0133469105
32	0xbd69d922	-0.05709184
33	0xbd9a600a	-0.07537849
34	0x3de89fc6	0.11358599
35	0xbdc19473	-0.094521426
36	0x3e0e2f87	0.13885318
37	0x3d3a2668	0.045446783
38	0xbcc34a78	-0.02383922
39	0x3d8e477a	0.06947227
40	0xbde537ca	-0.111922815
41	0x3ca41d48	0.020033494
42	0xbdc3b5e5	-0.09556178
43	0xbe0a78fd	-0.13522716
44	0x3d76b728	0.060233265
45	0x3d1ebdc8	0.03875521
46	0xbc999a24	-0.018750258
47	0xbda3ade5	-0.07992152
48	0xbdbf12b7	-0.093297414
49	0x3e0d66dd	0.1380877
50	0xbd987d1f	-0.0744574
51	0xbd31d138	-0.043412417
52	0xbd5f1220	-0.054460645
53	0x3db55ed6	0.08855979
54	0xbdf07604	-0.1174126
55	0x3d9487b6	0.07252447
56	0xbe004bf3	-0.12528972
57	0xbdaa5eb4	-0.083188444
58	0xbd1f4152	-0.038880654
59	0xbb8c2c80	-0.0042777658
60	0xbcafb4b0	-0.021448463
61	0xbdbcc140	-0.09216547
62	0x3dc26d5e	0.094935164
63	0xbd5de070	-0.05416912
64	0xbdb8d7d4	-0.09025541
65	0xbdf02ce4	-0.11727312
66	0x3d027634	0.03185101
67	0xbd23bee6	-0.039976977
68	0x3d1c1ca8	0.038113266
69	0xbe0cba2a	-0.13742891
70	0x3d9517e4	0.072799474
71	0xbda8ff6c	-0.08251843
72	0x3d37717c	0.04478596
73	0x3c0cb250	0.008587435
74	0xbb8050a0	-0.0039158612
75	0xbd3cd016	-0.046096884
76	0x3cea5240	0.028603673
77	0x3cb6a658	0.022296116
78	0x3ddf982e	0.10917698
79	0x3e0ec133	0.13940887
80	0x3c8ca960	0.017170608
81	0xbd83e0f3	-0.0643939
82	0xbc4791a0	-0.012180716
83	0x3d851f1c	0.06500074
84	0xbdfb0780	-0.1225729
85	0x3db398e6	0.087693974
86	0xbd190828	-0.037361294
87	0x3dbe5420	0.09293389
88	0x3dcc3162	0.099703565
89	0x3d84dd54	0.064875275
90	0x3c39e060	0.011344999
91	0x3dadf3a4	0.084937364
92	0x3ca08920	0.019596636
93	0xbdc1ad0c	-0.09456834
94	0x3dde3bb8	0.10851234
95	0xbc74e270	-0.014946565
96	0xbdef3988	-0.11680895
97	0xbd5205e0	-0.051275134
98	0xbc673180	-0.014110923
99	0x3d299bb8	0.04140827
100	0xbd210ec8	-0.039320737
101	0x3d07a188	0.033113033
102	0xbda63fc0	-0.08117628
103	0xbb8f8d40	-0.004380852
104	0x3c8535b0	0.016260952
105	0xbdb390c0	-0.08767843
106	0x3dc5f0d4	0.09665075
107	0xbdaf2137	-0.08551257
108	0x3dab0b54	0.0835177
109	0x3d05e76c	0.032691404
110	0xbd867dec	-0.065669864
111	0xbd1cba3c	-0.038263544
112	0xbdf6e509	-0.12055404
113	0x3d6fb09c	0.058518037
114	0x3d59072c	0.052985355
115	0xbd1d48ba	-0.038399436
116	0xbdbe4d88	-0.09292132
117	0xbd9884eb	-0.07447227
118	0x3dad4cae	0.08461891
119	0x3d22f824	0.039787427
120	0xbbe291a0	-0.0069143325
121	0x3e0fcadd	0.1404223
122	0x3da6e9a6	0.08150034
123	0xbdcb796e	-0.0993527
124	0xbe08011b	-0.13281672
125	0x3cd3b458	0.02584283
126	0x3cc35190	0.023842603
127	0xbc897b64	-0.01678247
128	0x3dbaadda	0.09115191
129	0xbe02b7a6	-0.12765369
130	0xbdac0fec	-0.08401474
131	0xbbbfa440	-0.0058484375
132	0x3c6c1d30	0.014411256
133	0xbd63c106	-0.055604003
134	0x3cc464c8	0.023973837
135	0xbc997758	-0.018733665
136	0x3d86acca	0.06575926
137	0xbdc0c99c	-0.09413454
138	0x3d6f2588	0.058385402
139	0x3dd3617c	0.10321328
140	0x3ca8bfc0	0.020599246
141	0xbca297b4	-0.019847728
142	0x3d072de8	0.033002764
143	0x3dd50428	0.10401183
144	0xbd8a46a4	-0.06751755
145	0xbd500b18	-0.05079183
146	0xbd36cd12	-0.044629164
147	0x3de50052	0.11181702
148	0xbdb9344a	-0.090431765
149	0xbcbef118	-0.023308322
150	0xbdf65d3a	-0.120295
151	0x3c27e3e0	0.010247201
152	0x3dae47ee	0.08509813
153	0x3dfd3a66	0.12364654
154	0xbc8a7894	-0.0169032
155	0x3db4f72e	0.08836208
156	0xbe0eea69	-0.13956608
157	0x3dfcd2fe	0.12344931
158	0xbd7b318c	-0.06132655
159	0x3df42d32	0.11922683
160	0x3d4d417c	0.05011128
161	0x3de202ba	0.11035676
162	0xbd6f0d56	-0.058362328
163	0xbdce488a	-0.100724295
164	0x3e0a0c19	0.13481177
165	0xbd9f58fe	-0.07780646
166	0x3e0c04cd	0.13673706
167	0xbdf01e21	-0.11724497
168	0xbdd3a984	-0.10335067
169	0xbcb52d30	-0.022116274
170	0x3da2b236	0.07944147
171	0x3e1044bb	0.14088719
172	0xbc510ae0	-0.01275894
173	0x3c70bc40	0.01469332
174	0xbcb2b2c4	-0.021813758
175	0xbc3d5300	-0.011555433
176	0x3dcdbecc	0.10046157
177	0x3c80b108	0.015709415
178	0xbdde3e9a	-0.10851784
179	0xbcf9f8c0	-0.030514121
180	0x3e081239	0.13288201
181	0x3c984400	0.018587112
182	0x3d8d81f8	0.06909555
183	0x3e0959d1	0.13413168
184	0x3d927a88	0.07152277
185	0x3d45e378	0.048312634
186	0xbd9f9dff	-0.07793807
187	0x3d9136d8	0.07090539
188	0xbc134010	-0.008987442
189	0xbdf663a9	-0.120307274
190	0x3da0dc86	0.078545615
191	0xbd1cc8fa	-0.038277604
192	0xbaa93c00	-0.0012911558
193	0x3a6cec00	0.0009037852
194	0xbd301c52	-0.04299576
195	0xbda83abd	-0.082143284
196	0x3dc67110	0.09689534
197	0xbdcce426	-0.10004453
198	0xbcff2458	-0.03114526
199	0x3dbd2d4c	0.09237155
200	0xbc0434c0	-0.008069217
201	0x3dbdc94a	0.092669085
202	0x3dfc5f86	0.12322907
203	0xbdcab5b8	-0.09897941
204	0x3e108edd	0.14116998
205	0xbd948e02	-0.07253648
206	0x3e03f505	0.12886436
207	0x3e0da0fd	0.13830943
208	0xbd06af0a	-0.032881774
209	0x3d762570	0.060094297
210	0x3b909b80	0.0044130683
211	0xbd61ab56	-0.05509504
212	0xbca365dc	-0.019946031
213	0xbd55fe2e	-0.052244358
214	0xbd83d29a	-0.064366534
215	0x3daa4480	0.083138466
216	0xbe000a6b	-0.12503974
217	0x3d2f6e78	0.04282996
218	0xbda6bb9a	-0.08141251
219	0x3d7a68a0	0.061134934
220	0x3d325e10	0.043546736
221	0x3d3acbac	0.045604393
222	0xbd8d3bd4	-0.06896177
223	0x3df0c70a	0.11756714
224	0xbe00419e	-0.12525031
225	0xbdb356a6	-0.08756761
226	0xbe094afe	-0.13407513
227	0x3df49f46	0.119444415
228	0x3d57c294	0.0526758
229	0x3de83cba	0.11339708
230	0x3e0461cb	0.1292793
231	0x3db24bb2	0.08705844
232	0x3d480318	0.048831075
233	0xbd98c512	-0.07459463
234	0xbd87a6c9	-0.066236086
235	0x3d9cf324	0.07663563
236	0xbdf98815	-0.12184159
237	0xbd386c0a	-0.04502491
238	0x3a919a80	0.0011108667
239	0x3dd14638	0.10218471
240	0xbdb0b315	-0.08627907
241	0xbdb54dc2	-0.08852722
242	0x3d233910	0.03984934
243	0x3e101ef1	0.14074303
244	0x3c5e28b0	0.013559505
245	0x3e0e966f	0.13924573
246	0xbd544f5c	-0.051833495
247	0x3d30d478	0.043171376
248	0xbdec8a0a	-0.11549766
249	0x3d53a4a8	0.0516707
250	0xbd07dffc	-0.033172593
251	0xbd178712	-0.036994047
252	0xbd5b01c6	-0.05346849
253	0xbcbe2278	-0.023209795
254	0x3b82e780	0.003994882
255	0x3c6a10a0	0.01428619

fc2.bias f4 [10]
0	0x3d8bd95a	0.06828566
1	0xbd573ac6	-0.052546285
2	0x3bdaaae0	0.006673202
3	0xbe04d99d	-0.12973638
4	0xbe10c116	-0.14136156
5	0xbe079b7c	-0.13242906
6	0xbd4337cc	-0.047660634
7	0xbbaf8820	-0.0053568035
8	0x3c9a59a0	0.018841565
9	0xbe0d121c	-0.1377644
