save/models/server/testmodel.pth (torch, 92407 bytes, 8 tensors)

conv1.weight f4 [10, 3, 5, 5]
000000 0c 59 a6 bd b0 23 53 bd 46 1c a1 3d 0c be 7e 3d
       -0.08122453 -0.051547706 0.07866721 0.06219296
000010 20 c0 9a bd b2 75 01 bd d7 2e d3 bd c0 d8 07 3b
       -0.07556176 -0.031606384 -0.10311668 0.0020728558
000020 df 47 da bd 56 1e 8a bd 60 74 cb 3b 06 c5 41 bd
       -0.106582396 -0.06744067 0.0062089413 -0.047307037
000030 9e 45 aa 3d 28 05 a1 bc d4 a7 5b 3d 80 30 14 3b
       0.0831406 -0.019655779 0.05362685 0.0022611916
000040 78 a2 b2 3c 70 fd 16 bd 6c 32 e7 bc e8 ee c5 bd
       0.021805987 -0.03686279 -0.028222285 -0.096647084
000050 70 e2 28 bd 98 61 a5 3c 34 a0 b0 3d 6f eb b4 bd
       -0.041231573 0.020188138 0.08624306 -0.08833968
000060 90 05 fb 3c ba 42 e8 bd a6 43 da 3d 14 84 c2 bd
       0.0306423 -0.11340852 0.10657434 -0.09497848
000070 c6 4f 8d 3d d0 59 86 bb 28 d4 44 3d 38 3c a4 3c
       0.06899981 -0.004100062 0.04805389 0.020048246
000080 ad 14 c0 bd ac e0 07 3d 58 72 07 bd 76 0c 8a 3d
       -0.093789436 0.03317325 -0.03306803 0.06740658
000090 46 8a ae 3d 58 c2 59 bd 14 9a ea bc d2 33 a5 bd
       0.08522467 -0.053163856 -0.028637923 -0.080665246
0000a0 c0 fb a2 3c 84 fa dc 3d 58 2b 80 3c 22 5b bb bd
       0.019895434 0.107899696 0.015645668 -0.091482416
0000b0 68 d1 d8 bd 94 75 d6 bd 4b fc e8 bd c8 a3 e0 3c
       -0.10586816 -0.10471645 -0.11376246 0.027421847
0000c0 a0 d4 50 3c d8 94 49 3d 7c ba cb 3d 12 7f 8c 3d
       0.012746006 0.049214214 0.099476784 0.06860174
0000d0 34 67 9e 3d b8 b4 cc 3c 72 0a c4 bd 2a 0c d2 bd
       0.07734528 0.024988517 -0.09572305 -0.10256226
0000e0 b6 5e 81 3d 4a 8d b8 3d 38 52 82 bd b4 6d 37 bd
       0.06316893 0.09011324 -0.06363338 -0.044782355
0000f0 b0 2f 2a 3c 0c 19 d7 bd 94 f6 a0 3d b6 96 28 bd
       0.010387346 -0.10502824 0.07859531 -0.041159354
000100 f4 70 21 3d be c6 d9 3d f1 f0 e3 bd a6 6a e4 3d
       0.03941436 0.1063361 -0.1112994 0.11153154
000110 b6 58 25 bd e8 26 58 3d 78 71 81 3d 5c 30 11 3d
       -0.040367804 0.05277148 0.063204706 0.03544651
000120 70 3f a2 3d 48 57 1d 3d 80 0f 4c 3a b8 50 45 bc
       0.07922256 0.038413316 0.0007784292 -0.012043171
000130 84 2d ea 3d 6d e1 ac bd b8 d6 94 3c 60 12 19 3c
       0.11434463 -0.08441434 0.018168792 0.00934276
000140 84 87 91 bc 00 bd c8 bd 91 de d2 bd 6a 4f b8 3d
       -0.017764814 -0.09801674 -0.102963574 0.08999522
000150 90 5c 41 bc 40 b6 2e 3c b0 ba 88 3d 29 18 94 bd
       -0.011801854 0.010663569 0.06676233 -0.07231171
000160 10 8f c3 3b 46 d7 03 bd dc 1d e3 3d d0 d9 73 bc
       0.005967982 -0.032187723 0.110896796 -0.0148834735
000170 d8 e1 98 bd a0 0b 29 3b 30 b7 c4 3d c0 99 24 3d
       -0.07464951 0.0025794283 0.09605253 0.04018569
000180 74 d7 8c bd 7c 61 84 3d 58 88 67 bc a1 09 95 bd
       -0.06877032 0.06463906 -0.014131628 -0.07277227
000190 68 fa 9c bd f4 3e 7e 3d b8 61 b7 3d 20 ac 47 bd
       -0.07664949 0.062071756 0.08954185 -0.048748136
0001a0 a0 d3 3e bc 34 48 a6 bd 42 b3 c0 3d ec 39 57 3d
       -0.011647135 -0.081192404 0.09409191 0.052545473
0001b0 54 ac c1 3d 1c 77 a9 bc ba 85 b0 bd 3d 11 64 bd
       0.09456697 -0.020686679 -0.08619256 -0.055680502
0001c0 f0 24 9b bb 4f 11 bf bd 5e e7 1d bd b8 32 cf bd
       -0.004734628 -0.09329473 -0.038550727 -0.10117096
0001d0 d2 1f ae bd 14 5a 64 3d ee 53 b2 bd fc 60 c5 3d
       -0.08502163 0.055749968 -0.087074146 0.09637639
0001e0 2b 8a d8 bd 3a 4d d3 3d 9e ac cd bd d1 32 92 bd
       -0.105732284 0.10317464 -0.1004269 -0.07138599
0001f0 ca 16 a0 3d c8 e0 ad 3c f6 2d ec bd e0 0e 75 3b
       0.07816847 0.021225348 -0.11532204 0.00373929
000200 d7 bf de bd 9c a1 80 bc e0 b7 55 3d a0 c3 ee bb
       -0.10876434 -0.015702061 0.05217731 -0.007286504
000210 38 70 0d bd 2e 6a c9 3d 24 af b8 bd 24 ca 78 3d
       -0.03453085 0.09834705 -0.090177804 0.06073965
000220 8c cd cb bd 28 3d c1 3d 96 f5 ac 3d c4 5f b0 bd
       -0.09951314 0.09435493 0.08445279 -0.08612016
000230 80 e3 93 3b e4 a4 6c 3d 6e b0 84 bd 16 d5 e9 3d
       0.004513204 0.05777444 -0.06478964 0.11417596
000240 54 af b8 bd 1c a8 74 bd c0 cd ae 3c bc d3 d6 3d
       -0.09017816 -0.059730634 0.021338344 0.10489604
000250 c4 9a 26 bd 04 8c 28 3d a4 fb 22 3d d0 0c 32 3c
       -0.04067494 0.041149154 0.039790764 0.010867313
000260 d8 3d 03 3d 7d e0 cc bd 76 28 9b 3d 6e 94 c5 bd
       0.0320414 -0.10003755 0.07576077 -0.09647451
000270 fa e6 ba bd 66 c3 d2 3d f0 1f 4a 3c 21 6d c2 bd
       -0.091260865 0.102911755 0.012336716 -0.09493471
000280 3c b0 8b bc 06 cd 89 3d 37 49 b6 bd a4 b5 34 3d
       -0.017051809 0.06728558 -0.089006834 0.04411854
000290 28 16 e4 3d 26 e9 6a bd 6c 95 83 3d 70 09 d4 bc
       0.111370385 -0.057351254 0.06424984 -0.025883406
0002a0 0c ab 9c 3d f2 b0 20 bd d0 1b 69 3c 1c a3 48 3d
       0.07649812 -0.03923125 0.014227822 0.04898368
0002b0 93 b5 df bd ff ce 74 bd 00 84 32 bb 70 b4 c4 3d
       -0.109233044 -0.05976772 -0.0027239323 0.09604728
0002c0 fe c4 60 bd cc 5d 2f 3d 16 6d 9b 3d 00 b1 7b 3a
       -0.054875366 0.04281406 0.07589166 0.0009601265
0002d0 b8 94 b9 3c e2 ee a0 bd 98 5f 55 3d d4 7a 05 3d
       0.022653922 -0.07858063 0.05209312 0.03258784
0002e0 92 f6 83 3d 1c bb 34 3d f8 42 89 3c 9e 0a 96 bd
       0.06443514 0.044123754 0.016755566 -0.07326244
0002f0 e0 a5 db bd 9a ca 09 bd 05 ed 65 bd 74 6d 78 bd
       -0.107249975 -0.03364048 -0.056134243 -0.060651258
000300 60 ed d8 bd fa 7b c5 3d cf 67 a4 bd 6c b0 2e 3d
       -0.10592151 0.09642787 -0.080276124 0.042648718
000310 20 8e 72 3d f6 e6 80 bd 00 5b 1f 3a 00 6f 3b 3d
       0.059217572 -0.06294052 0.0006078929 0.045760155
000320 74 83 ab bd e0 16 68 bc 98 dd 9f bc f8 02 a4 3d
       -0.08374682 -0.01416561 -0.019514844 0.08008379
000330 24 56 a0 bc e5 80 d3 bd 30 a8 e2 3c a8 0c c9 3d
       -0.019572325 -0.10327319 0.027668089 0.09816867
000340 7a ca 90 bd 00 b6 e6 3b 72 38 b7 bd 58 6e db 3c
       -0.07069869 0.007040739 -0.08946313 0.026786014
000350 e0 4e 33 bc ec fb 9a bd b4 cb 0f 3d bc 8e cf 3d
       -0.010944098 -0.075675815 0.035106376 0.10134646
000360 8c 65 42 3d e8 e6 8c bc 80 87 55 bb 24 39 9b bc
       0.047460124 -0.017199948 -0.0032581985 -0.018948145
000370 94 2a e4 bc f0 e2 e0 3c a0 7f c1 3c 80 cd 55 bd
       -0.027852334 0.027451962 0.023620427 -0.052197933
000380 d0 97 9e bc 78 50 1c 3d 64 ea 37 bd 98 c8 9b 3c
       -0.0193595 0.03816268 -0.044901267 0.019016549
000390 88 e1 88 3d 68 cb e5 bc 08 55 43 3d d6 b9 8a 3d
       0.06683642 -0.028051093 0.047688514 0.06773727
0003a0 a8 98 d0 3d 58 41 db 3c 90 4d 18 3d 06 17 43 bd
       0.10185367 0.026764557 0.037183344 -0.04762938
0003b0 4d ba e1 bd 16 71 34 bd 0c d0 b4 3d a0 be 5e 3d
       -0.11021862 -0.04405316 0.08828744 0.054381013
0003c0 6c 6f 8d bc ee fa b8 3d 60 11 ac 3b 18 2b b5 3d
       -0.017265044 0.09032236 0.0052510947 0.0884611
0003d0 58 9b eb bc 48 50 0b bd f0 92 d7 3b 2a a6 d2 3d
       -0.028760597 -0.03401211 0.0065787956 0.102855995
0003e0 18 09 a5 3c ca 4d 80 3d dd e9 d4 bd 70 c2 8c 3c
       0.020145938 0.06264837 -0.103961684 0.017182559
0003f0 8c 0d ae 3d d5 c3 7b bd 7f f6 92 bd 10 37 44 3c
       0.084986776 -0.061466057 -0.07175922 0.011976019

conv1.bias f4 [10]
000000 f1 b3 e9 bd c4 85 b5 3d 08 f2 e7 3c 54 77 85 bc
       -0.11411274 0.088634044 0.028313652 -0.016292252
000010 50 de b3 3c 8e 38 99 bd d0 02 b0 3c fe 33 c7 3d
       0.021956593 -0.0748149 0.021485716 0.097267136
000020 b0 dd cb bc 00 f1 96 ba
       -0.024885982 -0.0011515915

conv2.weight f4 [20, 10, 5, 5]
000000 00 34 86 3a 13 1f 1f bd b8 1a 0e bd 14 09 6f bc
       0.0010238886 -0.038847994 -0.03469345 -0.014589567
000010 ea 09 55 3d 64 b6 b5 3c 5e d0 3d 3d c4 8f de 3c
       0.052011408 0.022181697 0.046341293 0.027168162
000020 00 dc 40 b9 fa e8 ee bc a8 26 ec bb 9a ef e6 bc
       -0.00018392503 -0.029163826 -0.0072067566 -0.028190423
000030 08 a4 14 bd fe 0f 16 3d 53 ac 46 bd 58 b0 8d bb
       -0.036289245 0.036636345 -0.048504185 -0.0043240003
000040 0a 3e 4a bd fa 07 05 3d 7e fa f3 bc 10 bb f1 3b
       -0.04937557 0.03247831 -0.02978253 0.007377036
000050 6c 58 43 bc 20 94 7d 3c 02 0e 79 3d f4 c5 c4 3c
       -0.011922937 0.01547721 0.060804375 0.024020173
000060 6f 4e 54 bd dc 2f cc bc 5c 43 03 3d 67 f4 6c bd
       -0.051832613 -0.024925165 0.03204666 -0.057850268
000070 9c f6 1b bd e0 8e d0 3b d4 89 da 3c 10 ef bf 3c
       -0.038076982 0.0063646883 0.02667705 0.023429424
000080 38 ae bc bb 38 a6 82 3c 28 24 4d 3c 8a d7 17 bd
       -0.005758073 0.0159484 0.012520827 -0.03707079
000090 b9 19 68 bd 94 92 48 bd a0 9b 37 3b 9c c3 3b 3d
       -0.056665156 -0.048967913 0.0028016344 0.045840845
0000a0 70 d1 7d bb e0 d5 12 3c ef ef 3b bd ea 7b 8b bc
       -0.003872957 0.008962125 -0.045883115 -0.01702686
0000b0 00 84 a8 3c ec d5 07 bd cc f5 be 3c ba d4 75 3d
       0.020570755 -0.033162996 0.023310564 0.060017325
0000c0 68 70 1b 3d a4 bd a0 3c ae 79 80 3d fe 74 c5 bc
       0.037948996 0.019621678 0.062732086 -0.024103638
0000d0 10 5c b6 bb 14 8d aa 3c 14 46 6e bd 20 14 11 3b
       -0.005565174 0.020819224 -0.0581723 0.002213724
0000e0 b8 cb 27 bd 26 90 1b 3d ec b8 5a 3d 11 67 39 bd
       -0.040965766 0.037979268 0.05339901 -0.045264307
0000f0 1c b7 2b bc a2 e8 5d 3d 60 55 4e 3d e4 2f 53 3d
       -0.010480668 0.054176934 0.05037439 0.051559344
000100 5c 81 3d 3d 67 02 73 bd fe 8e 8f bc 42 20 71 3d
       0.046265945 -0.059328463 -0.017524239 0.058868654
000110 40 66 7a ba 4f 8d 25 bd e1 99 80 bd 4c 0f 65 bd
       -0.00095519796 -0.040417966 -0.0627935 -0.05592279
000120 92 e9 6b bd bd 95 0c bd 98 26 32 3d 60 c3 86 3b
       -0.057595797 -0.03432249 0.043493837 0.004112646
000130 80 6c 7f 3a 92 90 fc bc 82 5c 00 3d 5c 60 87 3c
       0.0009743646 -0.030830655 0.031338222 0.01652544
000140 34 61 92 3c 48 c8 3c 3d 20 56 7c 3c e0 11 a2 bc
       0.017868616 0.04608944 0.015401393 -0.019783914
000150 75 5b 4e bd 43 f0 7a bd a6 3a 3e bd a4 ac 01 3d
       -0.05038019 -0.061264288 -0.04644265 0.031658784
000160 18 6c 87 3c 80 da 5d 3d 89 e2 5c bd e4 42 ac 3c
       0.016531035 0.054163456 -0.05392698 0.02102799
000170 48 eb 09 3c 48 77 93 bc 52 a7 21 bd 04 9c 3b 3d
       0.008417912 -0.018001214 -0.03946621 0.045803085
000180 ea b7 ef bc da e3 33 bd cc 20 f7 3c 50 35 13 3c
       -0.029262502 -0.043918468 0.030167006 0.008984879
000190 a6 ed 65 3d 0a 6f 2d 3d c8 d7 42 3d a6 0d 5e 3d
       0.056134842 0.042342223 0.047569066 0.054212235
0001a0 a4 84 34 bc 30 93 8e 3c f8 db 28 3c c0 5c 8f 3c
       -0.011017952 0.017404169 0.010306351 0.017500281
0001b0 48 27 61 bc 04 58 d6 bc 40 e1 42 3c 12 fa 69 3d
       -0.013742276 -0.026165016 0.011894524 0.05712325
0001c0 da ae 5e 3d 20 a8 01 bb a0 60 42 3d 20 ff 79 3d
       0.05436597 -0.0019784048 0.04745543 0.06103432
0001d0 71 9f 2e bd 60 e5 75 3d 1c ef f5 3c 30 6a 6a 3d
       -0.042632524 0.060033202 0.030021243 0.057230175
0001e0 de 16 8d bc 78 ee 08 3d 14 4a fa 3c 80 4c a4 bb
       -0.017222818 0.033430547 0.030552901 -0.0050140023
0001f0 7c c1 9d 3c 20 6f 33 3b c5 b7 33 bd ba 24 7a bd
       0.0192573 0.0027379468 -0.04387643 -0.06107018
000200 70 87 76 bc 90 4e c0 3b d0 b9 b6 3b 7e e5 55 bd
       -0.015046939 0.0058687404 0.00557635 -0.052220814
000210 58 64 9b 3c f4 ee f2 3c c8 fc 4f bc 3a c7 19 bd
       0.018968746 0.029654957 -0.012694545 -0.037543513
000220 d4 44 e4 3c 42 c1 06 3d 75 8a 29 bd 2a c1 45 3d
       0.027864851 0.03289915 -0.04139181 0.04827992
000230 d0 a5 b4 3c 5c fb f4 3c 7c bb 87 3c 38 10 99 3c
       0.022051722 0.029905014 0.016568892 0.018684492
000240 16 83 0f bd 8c f7 de 3c 7e 72 3d 3d 88 46 4e bc
       -0.035037123 0.027217649 0.046251766 -0.012590058
000250 7a 4e 6b 3d 90 bb ab 3c 78 9d 6e 3c fc 25 2b 3d
       0.057447888 0.02096346 0.014563911 0.04178427
000260 d6 6a 6a 3d 60 ec 80 3c b4 54 d9 3c 30 d5 a3 3c
       0.057230793 0.015737712 0.026529647 0.019999117
000270 80 b0 1f bd 44 ba 59 bd 56 a7 2f 3d 6b 7f 1a bd
       -0.038986683 -0.053156152 0.042884193 -0.03771917
000280 1b cb 80 bd d0 b2 ec 3b 94 a1 93 bc 5c 17 4d bc
       -0.06288739 0.0072234645 -0.018021382 -0.012517776
000290 58 97 06 3c 10 ba a9 3c f8 15 3e 3c 78 e1 01 3c
       0.008214794 0.020718604 0.011601917 0.007927291
0002a0 80 e8 2e 3d 12 c4 4b 3d 33 87 72 bd 1a a1 17 3d
       0.042702198 0.049747534 -0.059210967 0.037018873
0002b0 16 41 18 bd 48 bb 73 bc a8 f0 83 bb 40 23 64 3d
       -0.037171446 -0.014876194 -0.004026491 0.05569768
0002c0 1d e2 0b bd 88 5b 13 3c 6e 2b 22 bd a8 90 31 bc
       -0.034151185 0.008993991 -0.0395922 -0.010837711
0002d0 f0 50 51 bb bc 4e 1c bc a0 77 79 bd ea e1 8a bc
       -0.0031939112 -0.009540256 -0.0609051 -0.016953427
0002e0 25 00 5f bd 40 2a d8 3c fd e3 6e bd bc f5 d6 bc
       -0.054443497 0.026387334 -0.058322895 -0.026240222
0002f0 d5 ae 56 bd c8 1f 56 3c 88 b8 08 bc c0 00 15 3b
       -0.052412827 0.013069101 -0.008344777 0.0022736043
000300 fe ea 7c bd 00 26 57 3a 38 4a ce 3c ea 9e 00 bd
       -0.061747544 0.00082072616 0.025181875 -0.031401552
000310 50 3a f9 bc 5a 84 20 3d ec 20 18 3d 64 55 7d 3d
       -0.030423313 0.03918872 0.03714077 0.061849013
000320 f4 35 dc bc e0 b6 f8 3c c8 86 34 3c 9a 2b 4a 3d
       -0.026881196 0.03036064 0.0110184625 0.049357988
000330 f4 63 6f 3d 34 c0 85 3c 62 eb 78 3d ee 3b 0d bd
       0.058444932 0.016327001 0.060771354 -0.03448098
000340 09 83 80 bd 3a 9d ee bc f8 01 b8 bb 8e 56 3a 3d
       -0.06274993 -0.029127706 -0.005615469 0.0454927
000350 0e 5e 56 bd 92 95 4c bd 4a 70 28 3d be 08 6d 3d
       -0.05233579 -0.04994733 0.041122712 0.057869665
000360 ba 26 12 3d 80 a7 ab bc b0 9b 67 3c b6 2c 19 3d
       0.035681464 -0.020953894 0.01413624 0.037396155
000370 e8 8d aa 3c ec 59 1e 3d b8 75 bf bc e0 e7 cc 3c
       0.02081962 0.038659975 -0.023371562 0.02501291
000380 66 32 6a 3d e9 09 01 bd 3d 3b 0b bd 60 9f 21 3c
       0.05717697 -0.03150359 -0.03399204 0.009864658
000390 ca 08 79 bd 58 06 2f 3c a0 78 a8 bc e0 bc b5 3c
       -0.060799398 0.010682665 -0.020565331 0.02218479
0003a0 80 6c 42 3d ec fe 7d 3d 38 79 cb 3c 00 e5 7b bc
       0.047466755 0.06201069 0.024838075 -0.015374422
0003b0 40 74 ad 3a 10 e2 19 bd 08 6f 86 bc 70 58 71 bb
       0.0013233498 -0.037569106 -0.016410366 -0.0036826394
0003c0 a0 02 d2 bb 8c 79 36 bc 30 7b 53 bb 60 00 e1 bb
       -0.0064090043 -0.0111373775 -0.003226947 -0.0068665
0003d0 ee 0d fd bc 12 18 0a 3d b0 34 7d 3d b6 4b 71 3d
       -0.030890431 0.03371436 0.061817825 0.058910094
0003e0 7c 52 6f bd 94 cf 7a bc 40 22 7a 3c 64 57 f9 bc
       -0.058428273 -0.01530828 0.015266955 -0.030437179
0003f0 e6 57 72 bd d4 9b 51 3d 7b 12 64 bd 78 c8 7c bd
       -0.059165858 0.051174 -0.055681687 -0.06171462

conv2.bias f4 [20]
000000 16 c1 6f 3d d0 29 29 bc 4c 2a c9 3c be 45 54 3d
       0.05853375 -0.01032491 0.024556302 0.051824324
000010 c4 43 7d bd 98 e4 c0 bb 64 ad c0 3c 66 7d 0e bd
       -0.061832204 -0.0058866255 0.02352018 -0.034787558
000020 40 6b 36 bd 43 cc 66 bd c2 4c 46 3d 51 f5 0b bd
       -0.044535875 -0.056347143 0.048413046 -0.0341695
000030 54 ca e3 3c f0 a2 14 3d b8 c1 01 bd 18 75 4e 3d
       0.027806439 0.0362882 -0.031678885 0.050404638
000040 fc 40 4c bd 02 a6 f8 bc 86 27 10 bd f8 02 31 3d
       -0.04986666 -0.030352596 -0.035193942 0.04321572

fc1.weight f4 [50, 320]
000000 d8 ff 01 3d b8 1e ac 3c ba 24 20 bd 82 7d 13 bd
       0.031738132 0.021010742 -0.039097525 -0.036008365
000010 58 d2 10 3c 18 2d 29 3d a6 3f 01 3d 6c 25 0e 3d
       0.008839212 0.04130277 0.03155484 0.034703657
000020 a0 21 07 3b 44 00 40 3d 74 20 17 bd a4 25 16 bc
       0.0020619407 0.046875253 -0.036896184 -0.009164248
000030 38 bb 2a bd 50 1b 64 3c 08 10 a9 3b f9 47 56 bd
       -0.041682452 0.013922527 0.005159382 -0.052314732
000040 fe f4 51 bd 80 27 2a bb c0 c0 29 bc c5 65 57 bd
       -0.051259033 -0.0025963485 -0.010360897 -0.05258729
000050 ab 1b 54 bd c4 02 ac 3c 98 de 75 3c 20 02 e5 bb
       -0.0517842 0.020997413 0.015006684 -0.0069887787
000060 e6 b0 42 bd 38 ad 4a 3c 34 fd 87 3c 44 e0 35 3d
       -0.047531985 0.0123704 0.016600229 0.04440333
000070 70 f0 de bb 7d 16 4f bd a6 27 62 3d 3c 5b ff 3c
       -0.0068035647 -0.050558556 0.055213593 0.031171434
000080 c0 a8 57 3c 92 52 11 3d f0 9d 86 bb ac eb 4d bc
       0.013162792 0.035479136 -0.004108183 -0.012568396
000090 78 cb 27 3d e2 3b 4c 3d e8 40 0a 3d a4 f2 cd 3c
       0.040965527 0.049861796 0.033753306 0.025140114
0000a0 20 4e e1 3c c6 8e 03 bd fc 1a 8e 3c ba 74 4d 3d
       0.027503073 -0.03211858 0.017346852 0.050160147
0000b0 19 6e de bc 50 f3 f6 3b be 16 35 3d f0 dd 57 3d
       -0.027152108 0.0075363293 0.04421114 0.05270189
0000c0 af 65 18 bd aa f8 24 bd 98 8f bb bc e8 70 e9 3c
       -0.037206348 -0.040276207 -0.02289562 0.02849622
0000d0 18 95 87 3c 18 86 e1 bb 44 c7 aa 3c 80 48 0c 3b
       0.016550586 -0.0068824403 0.02084697 0.0021405518
0000e0 9a e2 56 3d be 06 3f 3d 78 d5 ac 3b fc c8 c2 bc
       0.052462198 0.04663729 0.005274471 -0.023777477
0000f0 74 59 4a 3d f6 23 e6 bc 14 21 f4 3c 80 f4 1c 3d
       0.049401715 -0.02809332 0.02980093 0.03831911
000100 d4 91 61 3d 20 8c fd ba b0 ab 51 3b bc ff 4f 3d
       0.055070713 -0.0019344129 0.0031993203 0.050780997
000110 06 b0 0c bd 37 ae dd bc 52 d3 2c bd 10 50 43 3b
       -0.034347557 -0.027060611 -0.04219372 0.002980236
000120 9c 70 ac bc d8 e6 3c 3d be 16 99 bc 10 d0 53 bb
       -0.02104979 0.046118587 -0.018687602 -0.003232006
000130 a8 66 89 3c 6e 5c 09 3d a6 ad 1b 3d e0 fa df 3a
       0.016772583 0.033535413 0.0380074 0.0017088316
000140 3c 96 c6 3c 04 18 18 bc 88 47 68 3c 56 38 3a 3d
       0.02424156 -0.0092830695 0.014177211 0.045463882
000150 5c c8 06 3d a4 9a df 3c 10 ad 21 3d 88 49 75 3c
       0.03290592 0.027295418 0.039471686 0.0149711445
000160 96 66 36 3d a0 a2 35 3c 5e 3c 9d bc 5e 5a 13 bd
       0.044531427 0.011086136 -0.019193824 -0.035974853
000170 f0 f3 80 3c b0 96 0d bc 2e a5 1d 3d c8 2e 99 3c
       0.015741318 -0.008641884 0.038487606 0.018699065
000180 40 5d e1 bb 28 c5 d6 3b e0 a5 5f bb 56 46 eb bc
       -0.0068775713 0.0065542646 -0.0034125969 -0.028720062
000190 fc 91 2d 3d 60 54 53 3c 80 b4 dd 3c 50 1f b4 bc
       0.04237555 0.012898535 0.027063608 -0.021987587
0001a0 76 25 2d 3d fe 1e 26 3d 03 13 14 bd 54 eb f5 3c
       0.042272054 0.0405569 -0.036150943 0.03001944
0001b0 a8 59 14 bc 03 2c d8 bc 20 c3 e5 3c f2 7c 1c 3d
       -0.009054579 -0.026388174 0.028047144 0.038205095
0001c0 5c 04 16 bd 99 78 41 bd 40 cf e2 3a b9 d9 33 bd
       -0.03662525 -0.04723415 0.0017304197 -0.04390881
0001d0 ca 0a f4 bc af 2b 26 bd 6a 87 33 3d 0a 3c 15 3d
       -0.0297903 -0.040569004 0.043830313 0.03643421
0001e0 3d f9 61 bd 18 18 67 bc 7a b6 4d bd 6e 59 1b 3d
       -0.055169333 -0.0141048655 -0.05022285 0.037927084
0001f0 b6 45 02 bd 24 f6 4a 3d 6c 79 d7 bc 24 06 33 bd
       -0.031804763 0.049551144 -0.026303016 -0.043707028
000200 4c b3 51 3d 90 a2 6c 3b cc 8d 42 3d 18 42 64 bd
       0.05119638 0.0036107637 0.04749851 -0.055727094
000210 54 f0 fc 3c f0 e4 35 3d 1c 71 08 bc 2e 3b 3c bd
       0.030876316 0.044407785 -0.008327749 -0.045954876
000220 7c 9c 35 bd 78 d2 5a 3d b0 90 14 3d 55 01 32 bd
       -0.04433869 0.053423375 0.036270797 -0.0434583
000230 fc 7e 48 bc 57 fc 2b bd 08 46 e0 3c 1c dc 07 3d
       -0.012237307 -0.041988697 0.027377144 0.033168897
000240 da 82 54 3d 81 7c 45 bd 19 92 45 bd 0e 64 47 3d
       0.051882602 -0.04821444 -0.048235033 0.048679404
000250 20 1c 63 bb a8 f7 49 3d b0 89 71 3c 62 83 d6 bc
       -0.0034654215 0.04930845 0.0147423 -0.026185695
000260 28 b9 64 3c 66 9b 8d bc 90 b7 3a 3d 9c cd 4c bd
       0.01396016 -0.017286014 0.045585215 -0.050000772
000270 b8 ee 72 3c 88 65 d5 3c b4 5a 47 bc 44 ea 19 3d
       0.014827423 0.02604939 -0.012167621 0.03757693
000280 fc 5d 1f bc a4 2d bd 3c a5 2f 40 bd d2 d5 3f 3d
       -0.009726997 0.023093052 -0.046920437 0.046834774
000290 c8 bd 2b 3c 48 2e 5b 3c a8 bb 4f 3d c8 84 08 3d
       0.010482259 0.0133777335 0.050716072 0.033329755
0002a0 00 a4 bf bb 00 90 3d 3c 60 53 27 bb a0 ad 25 bd
       -0.0058484077 0.011569977 -0.0025531873 -0.040448785
0002b0 12 94 52 3d f0 e3 56 3c 6e 51 2b 3d 6c a8 ae 3c
       0.051410742 0.013115868 0.041825704 0.021320544
0002c0 50 04 d0 3c 22 8f 4d bd ba 8e a7 bc fb a7 49 bd
       0.025392681 -0.05018533 -0.0204538 -0.049232464
0002d0 20 63 86 3c c0 a0 f4 3b b5 65 48 bd da dd 5e 3d
       0.016404688 0.007465452 -0.04892512 0.054410793
0002e0 9c dd 31 bc 91 46 36 bd 2f c4 3a bd b0 e4 08 3d
       -0.010856058 -0.04450089 -0.04559725 0.03342122
0002f0 08 7b f0 bc 02 d5 34 3d c4 0a 64 bc 54 70 6e bc
       -0.02935554 0.044148453 -0.013918582 -0.014553148
000300 48 18 bb bc 82 84 04 3d 1a da 37 3d f8 c9 d0 3c
       -0.022838727 0.03235293 0.044885732 0.025486931
000310 80 19 1e bb 20 fb a6 3c c4 c7 07 3d 72 21 3a 3d
       -0.0024124086 0.020383418 0.033149496 0.045442052
000320 41 46 64 bd cf 29 cb bc 9f 5a 4d bd c8 5e 76 3c
       -0.05573106 -0.02480021 -0.05013525 0.015037246
000330 97 02 45 bd 80 40 dd 3a 02 89 a2 bc 78 4e 54 3c
       -0.048098173 0.0016880184 -0.019840721 0.0129581615
000340 09 ef 2c bd 3d 30 da bc a0 03 9a 3c 60 55 9e ba
       -0.04222015 -0.02663433 0.018800557 -0.0012079887
000350 b4 a8 3e 3d 10 b0 58 3d 88 a5 66 bc dd bc 42 bd
       0.046547607 0.05290228 -0.014077552 -0.047543395
000360 02 6d 82 bc d0 85 a1 3c 40 ed ff ba 24 74 5c bd
       -0.01592112 0.019717127 -0.0019525662 -0.053821698
000370 e0 f2 0c 3c 33 a8 2a bd fc db 55 3d 96 6d 59 3d
       0.008602828 -0.041664314 0.052211747 0.053083025
000380 98 02 6d 3c 94 da b5 3c 68 45 5c bd 72 9b 29 bd
       0.01446595 0.022198953 -0.05377713 -0.04140801
000390 b0 7b 84 3b 5f 62 1f bd 18 cb 1f bd 26 95 32 3d
       0.004043065 -0.038912173 -0.039012045 0.04359927
0003a0 49 31 61 bd 8c ff 9f 3c 56 ca a2 bc d8 04 b4 bb
       -0.054978643 0.019531034 -0.019871872 -0.0054937415
0003b0 00 9d 97 3a 2e d0 be bc 90 a4 1d bb 88 c7 0d bd
       0.0011567175 -0.023292627 -0.0024054386 -0.034614116
0003c0 18 ca a2 3c bc e2 86 bc e9 93 31 bd 20 b7 f9 bb
       0.019871756 -0.016465537 -0.04335395 -0.007620707
0003d0 d8 42 9f bc e0 d4 1a bd 02 3c 3c 3d c4 d4 91 3c
       -0.019441053 -0.03780067 0.045955665 0.01780165
0003e0 f2 01 00 bd 6e 94 a0 bc 08 3a a5 bc 1a 87 3d 3d
       -0.031251855 -0.019602027 -0.020169273 0.04627142
0003f0 58 b7 1d bc 8e 0b 5a 3d 82 74 8d bc 31 1a d6 bc
       -0.009626232 0.053233676 -0.01726747 -0.026135536

fc1.bias f4 [50]
000000 d9 03 55 bd 2c f6 e2 3c 7c a8 4e 3d 86 bf 3a bd
       -0.052005623 0.027705275 0.050453648 -0.045592807
000010 fe 4b 05 3d 28 0b 0e 3c a8 6d 21 3d da b9 42 bd
       0.032543175 0.008669652 0.039411217 -0.047540523
000020 52 7a 01 bd 00 b6 46 ba 7c e8 1a 3d 8c 86 15 bd
       -0.031610794 -0.00075802207 0.03781937 -0.036505267
000030 e0 eb ed 3b 70 81 a6 bb 10 30 a7 3b 90 75 94 bb
       0.0072607845 -0.005081348 0.005102165 -0.004530616
000040 ea 0c 37 bd 08 90 26 3c 58 7c e6 bb 6c 29 a0 3c
       -0.04469005 0.010166176 -0.007033866 0.019551001
000050 2a 86 36 bd 20 45 8e 3a f4 62 26 3d 8a b2 83 bc
       -0.044561543 0.0010854341 0.040621713 -0.016076345
000060 be 5a a2 bc 0c 20 bc 3c d7 40 db bc 48 ca 9e 3c
       -0.01981866 0.0229645 -0.026764316 0.019383565
000070 80 5a b9 ba 30 3f eb 3b fd 68 49 bd f4 fe 42 bc
       -0.0014141351 0.0071791634 -0.04917239 -0.011901606
000080 e0 4c 58 bd da 17 15 3d 2c 6e cc 3c 9c 39 26 bd
       -0.05280769 0.0363997 0.024954878 -0.040582284
000090 ac a2 c1 3c 0a 16 83 bc 74 59 e6 3c 22 5c 61 3d
       0.023637138 -0.01600172 0.028118826 0.055019505
0000a0 d4 31 04 bd c0 1b 19 3d 6e 52 4c 3d 12 bb be bc
       -0.032274082 0.03737998 0.0498833 -0.023282561
0000b0 3a 9f 5b 3d b2 b2 59 bd bc ba 48 bd 72 96 27 bd
       0.053618647 -0.053148933 -0.04900621 -0.04091496
0000c0 1a a6 ff bc 51 90 d2 bc
       -0.031207133 -0.025703581

fc2.weight f4 [10, 50]
000000 c0 b5 c1 3c 38 14 02 3d 44 cd 2b bd 4a 3d fd 3d
       0.023646235 0.031757563 -0.041943803 0.123652056
000010 d2 a4 15 bd 49 d9 09 3e f4 bb b6 bd 98 91 b8 3c
       -0.036534138 0.13461794 -0.08922568 0.022530362
000020 e1 7d 03 be 40 90 67 3c ca 66 06 be 58 b5 57 3d
       -0.12840988 0.014133513 -0.13125148 0.052663177
000030 65 99 c8 bd ec 1e 1f bd 29 6a 01 3e c0 94 2e 3c
       -0.09794883 -0.03884785 0.12638153 0.010655582
000040 16 cf db 3d 8a 99 8f bd 98 c1 d4 bd 19 25 0c 3e
       0.10732858 -0.07011707 -0.103884876 0.13686027
000050 c0 73 9f 3b 60 48 c7 bb 72 0d b9 bd ba 73 da bd
       0.0048660934 -0.006081626 -0.090357676 -0.10666604
000060 2a 18 83 3d 8c d7 40 3d 80 51 99 bb 0a cf e6 bd
       0.06401093 0.04708056 -0.004678905 -0.11269958
000070 7a 5f 09 bd 78 29 a6 3c 60 c2 c9 3b 80 3e 9f 3b
       -0.03353832 0.020283446 0.0061572045 0.0048597455
000080 11 f0 01 3e 22 81 d0 3d 1c e0 3b 3d 1a e6 0a be
       0.12689234 0.1018088 0.045868024 -0.1356434
000090 42 f5 d3 bd 16 a7 9a bd 40 31 76 bc c0 74 4d 3b
       -0.103495136 -0.075514 -0.015026391 0.0031350106
0000a0 b2 e8 35 bd fe 17 bd 3d e0 36 9b bb 70 01 84 bd
       -0.04441137 0.09233092 -0.004736766 -0.06445587
0000b0 af da 07 3e 82 90 d5 3d 2c 45 72 3d e2 2b ad 3d
       0.13267015 0.10427953 0.059148 0.084556356
0000c0 d6 6f d3 3d fc db 88 bd 60 77 dc bb 53 a7 0d 3e
       0.103240654 -0.06682584 -0.006728098 0.1383336
0000d0 68 40 e8 bc 8c 8e e9 bd 1c e9 8e bc 50 b3 19 bc
       -0.028351024 -0.11404142 -0.01744514 -0.00938113
0000e0 46 fb 0e be 04 2d f0 bc e4 c8 37 bd 91 b7 ec bd
       -0.1396304 -0.02931834 -0.04486932 -0.1155845
0000f0 c2 65 e0 bd 80 81 b7 bb 72 82 9d 3d 40 46 51 bc
       -0.10956909 -0.0056001544 0.07690896 -0.012773097
000100 00 99 d9 3b 42 b6 65 bd 00 63 91 bd 80 8f cb bb
       0.0066405535 -0.056082018 -0.07098961 -0.006212175
000110 14 12 30 bd bc d3 e4 bc 77 b6 06 3e 52 a1 6f bd
       -0.04298599 -0.027932994 0.13155542 -0.058503456
000120 a0 ad 83 3c 45 ed c4 bd e8 22 9d 3c 11 ff f3 bd
       0.016074002 -0.09615568 0.019181684 -0.119138844
000130 f6 65 a4 3d e6 7d 5e bd 34 93 66 3d 2e b8 30 bd
       0.0802726 -0.054319285 0.056292728 -0.043144397
000140 d0 f8 1a bc bc fe 0e be ce 09 e4 3d 44 94 f5 bc
       -0.009458736 -0.13964361 0.111346826 -0.029977925
000150 16 db fa 3d a8 5c 0a 3d e2 36 9d 3d e6 5c e1 3d
       0.122488186 0.03377977 0.07676484 0.11004047
000160 b6 f9 e5 3d ed 03 10 3e ec 8a 80 3d 78 33 82 3c
       0.11229269 0.14063998 0.06276497 0.015893683
000170 e8 90 f3 bd b0 dd c3 bd d0 42 37 3c c2 14 d3 3d
       -0.11892873 -0.09563768 0.011185363 0.103066936
000180 90 35 08 bc 2c 7f ad bd 58 13 9f 3d a4 9f 17 bd
       -0.008313552 -0.08471522 0.077673614 -0.03701748
000190 84 fa 2f bd 8a 30 00 be 48 46 aa 3c f3 76 fd bd
       -0.04296352 -0.12518516 0.020785466 -0.123762034
0001a0 b8 d7 74 bd 94 c7 5e bd 20 00 76 bc 04 81 e1 bc
       -0.059776038 -0.05438955 -0.015014678 -0.02752734
0001b0 3e 89 92 3d a8 f2 dd bd c5 f1 ac bd 7e 19 92 3d
       0.07155083 -0.10837299 -0.084445514 0.071337685
0001c0 e0 10 52 bc 74 61 1e 3d 6a ca 99 3d 76 f0 4c bd
       -0.012821406 0.038667157 0.075093105 -0.05003401
0001d0 58 57 b2 bc db 25 06 3e df 03 80 bd 18 d7 c7 3c
       -0.021770164 0.13100378 -0.06250738 0.024394557
0001e0 bc 2d d7 bc c7 34 0c 3e 8c 0f 4c bd f6 59 cb bd
       -0.026266925 0.13692008 -0.049819514 -0.09929268
0001f0 00 74 28 3c ea fa db 3d 78 e0 18 3d 16 9d be 3d
       0.010281563 0.107412174 0.037323445 0.093073055
000200 6a 91 98 3d 30 e9 87 3d 46 65 82 bd a0 2d 4a 3c
       0.074496105 0.06636274 -0.063669726 0.012339979
000210 41 9b b9 bd e2 a9 63 bd ae 89 17 bd 8e 58 7a bd
       -0.090628155 -0.055581935 -0.036996536 -0.06111961
000220 3c d6 25 bd 72 6e ed 3d 1c 3d 49 3d cc 7b cc 3d
       -0.040487513 0.115933314 0.049130544 0.0998455
000230 de eb 03 be 7e de 07 be e0 b9 b2 bc 00 f9 6b 3b
       -0.12882945 -0.13268468 -0.021817148 0.003600657
000240 6c c6 05 3d 4c 82 ea bd c0 4b 80 bd 46 bb d4 bd
       0.032659933 -0.114506334 -0.06264448 -0.10387282
000250 b6 11 8c 3d c4 6a c5 3d f0 ab a3 bc 52 a0 d6 3d
       0.068393156 0.096395046 -0.019979447 0.104797974
000260 a0 7c af bc b4 dd 03 bd f6 dc 05 be c0 da c3 bd
       -0.02142173 -0.032193854 -0.13072571 -0.095632076
000270 0e 08 a1 3d f0 a8 cb bc d0 4d d2 bd 3a dc a4 bd
       0.078628644 -0.02486083 -0.10268748 -0.080498174
000280 b8 1e fc 3c d8 cd 7c 3d b4 fd 08 be da da e7 3d
       0.030776367 0.061719745 -0.1337803 0.113210395
000290 40 bd 84 bb f0 04 2d 3d 38 53 c3 bd 42 88 ad 3d
       -0.0040508807 0.042241037 -0.09537357 0.08473255
0002a0 d2 a8 93 3d 61 71 02 3e 94 27 8c 3d 48 88 21 3d
       0.07209934 0.12738563 0.068434864 0.03943661
0002b0 ac 3d 5a 3d dc 70 40 3d ae ef d0 bd 80 11 98 3b
       0.05328147 0.04698263 -0.10201965 0.004640758
0002c0 ce ac 05 bd d6 73 e1 3d 58 c0 91 3c 0d e3 05 3e
       -0.032635503 0.11008422 0.017791912 0.13074894
0002d0 6e 48 c9 bd 97 72 bf bd c6 f0 e7 bd 34 71 b0 bd
       -0.09828268 -0.09348028 -0.11325221 -0.08615342
0002e0 f8 b2 d7 3d 20 84 09 bd 78 40 09 be 20 2c 88 bc
       0.105321825 -0.03357327 -0.13403499 -0.016622603
0002f0 22 96 44 bd d8 de 32 bd ce a0 aa bd c4 90 ed bd
       -0.04799474 -0.04366955 -0.08331452 -0.115998775
000300 e0 38 97 3c 78 e3 b4 3c a8 31 95 3c 5c 99 01 be
       0.018459737 0.022081122 0.018212155 -0.12656158
000310 78 a2 c0 bd f8 2b 02 be 08 86 ac 3d e8 9d 6d bd
       -0.094059885 -0.12712085 0.08424002 -0.05801192
000320 00 19 f6 bd 46 f0 f3 3d 98 2b cc bd 18 e3 b2 bd
       -0.12016487 0.11911063 -0.09969252 -0.08734721
000330 5c 62 ce bd 00 cd 66 bb 64 89 1c bd c5 77 0f be
       -0.10077354 -0.0035217404 -0.038216963 -0.14010532
000340 00 c6 57 bd 48 7e c9 3d a7 cd 0b 3e 18 9c f1 3c
       -0.052679062 0.09838539 0.13652669 0.029493377
000350 bc a0 3a bd cc 49 59 3d ee 0b ed 3d f4 3a 34 bd
       -0.045563444 0.053048894 0.11574541 -0.044001535
000360 70 84 18 bd 44 48 01 3d 7a d4 aa bd d8 ea ea 3c
       -0.037235677 0.03156306 -0.08341308 0.028676435
000370 e0 72 eb bb 0f a0 09 3e 9d 2d 88 bd 8f 52 93 bd
       -0.007185325 0.13439964 -0.06649325 -0.07193481
000380 ea 85 ed 3d 1c 6c 8c 3d ce 5a d7 3d 40 39 4f bb
       0.11597808 0.06856558 0.105153665 -0.0031619817
000390 90 48 86 bc 29 08 f6 bd 78 b6 b8 3c ee 15 c3 3d
       -0.016392022 -0.12013275 0.022547945 0.09525667
0003a0 a7 8a e8 bd 90 ec 66 3d 8c 9d 64 3d 16 68 d8 bd
       -0.11354571 0.056377947 0.05581431 -0.10566728
0003b0 40 27 26 3c 12 cf e5 3d 6c cd 22 3d 40 e6 36 3c
       0.010141194 0.11221136 0.039746687 0.011163294
0003c0 74 c9 1e bd 3b 89 f0 bd 60 34 83 bc d7 17 f6 bd
       -0.03876634 -0.11744925 -0.016016185 -0.12016266
0003d0 38 cb db 3c 6c a6 35 3d 75 0c 93 bd 98 88 f9 bc
       0.0268303 0.044348165 -0.0718011 -0.03046064
0003e0 10 63 18 3d c4 26 04 bd 80 d5 0e 3b 52 e1 e6 3d
       0.03720385 -0.032263532 0.0021794736 0.11273445
0003f0 02 69 eb 3d f5 65 94 bd dc 3f 7c bd 48 d5 0b bd
       0.11494638 -0.07246009 -0.06158434 -0.034138948

fc2.bias f4 [10]
000000 e0 49 ca bb 30 b4 1a bc ea 78 a2 3d 00 2f ca bb
       -0.0061733574 -0.009442374 0.07933219 -0.0061701536
000010 b5 16 82 bd 42 4f da 3d 56 79 8f bd 65 83 d1 bd
       -0.06351987 0.106596485 -0.07005565 -0.1023014
000020 1c 9a 11 3d a2 9c e1 bd
       0.03554736 -0.110162035
