save/models/server/testmodel.pth (torch, 92463 bytes, 8 tensors)

conv1.weight f4 [10, 3, 5, 5]
00000000: 263c 50bd ca68 b13d a896 78bc a0b5 e6bd
00000010: 70a1 1dbd 08c0 f7bc e432 063d 7e17 96bd
00000020: cc16 163d 8a5f d13d 203e 64bd 100c d7bb
00000030: 32bf bb3d 9208 dabd 1431 2b3d 4a7e 76bd
00000040: 4090 143c d4a8 8b3d a419 393d 80ec 703b
00000050: e8e8 e73d 7a30 09bd e061 343c dc7b ab3d
00000060: 9fbe 9fbd 008c 43b9 ee66 dfbd 4c90 8abd
00000070: 80c4 9c3c 642a cb3d a810 123d 786f a03d
00000080: f0cf 2bbc ec1f 18bd b0fc 7f3c 88b6 cf3d
00000090: 085b 64bc a078 55bd f84d b93c 8eba a1bd
000000a0: 0e38 9fbd 3673 d53d ee24 bb3d 7cde 963d
000000b0: c02a 063b d235 db3d a0bb f6bb e2e0 c53d
000000c0: 5ce7 823d 0024 0b3d fc9a e73d 4273 0bbd
000000d0: 4049 693d f26a 84bd c4fd 23bd 2811 633d
000000e0: 3006 d8bc 84c6 513d 40e8 b63c 32dc de3d
000000f0: c087 cbbc 8072 663c 903c a8bc 7cf3 2c3d
00000100: d8f7 e7bd 307e c83d 9c15 e9bd 4848 e93d
00000110: 20c2 cfbd e051 7f3d d460 dbbd 8f89 dabd
00000120: 4c2f db3d 96f7 1abd e8cd 603d 2406 a0bd
00000130: a88b f63c 4428 fdbc d679 9cbd 5a94 eabd
00000140: 4030 4f3b 88a9 073c 4efb 9cbd f8ca 16bd
00000150: 80ea c33d ec00 e43d 389b d4bc 77ce 9ebd
00000160: 10f0 c5bb 465f 80bd 142a 88bc 806c 7f3d
00000170: 064f 973d 1695 c83d 7c19 8ebc b02f 893c
00000180: 5040 49bc c494 afbc ea16 863d 6289 b1bd
00000190: 967e 803d c4c1 40bd d0a6 98bd 4273 5abd
000001a0: 6e05 bfbd acee 98bc 7aa3 ba3d 5cfb 473d
000001b0: 188b 89bc 8e4e 68bd a08a e43b 700a 7b3d
000001c0: 6c78 363d c0cd 5a3c 3408 363d 0e30 d4bd
000001d0: ca23 63bd 00ed d6ba 2eb7 de3d 48a6 29bd
000001e0: 10d1 41bd 34f4 433d f926 8bbd bec7 e3bd
000001f0: 12c9 803d 48fd 983d 80ed a23c e54f 5fbd
00000200: c4e6 3d3d 3b4b b3bd 085d 093d 2810 28bd
00000210: 00e5 5b3d d859 cdbc de82 c33d 5813 fd3c
00000220: a298 d43d a0fd eb3d f813 d5bc 0027 e8b9
00000230: 40f7 0b3b 8029 4a3d bece de3d 6294 adbd
00000240: e8ce d73d 8491 1a3d 9ea1 a53d 8c81 1abd
00000250: 8dad 96bd a87d d83c 4022 eaba 2cab 98bc
00000260: f217 c3bd 0c68 e83d 72d9 a2bd 38fb a3bd
00000270: 6ccd bdbc 7cb4 9cbd 62f8 22bd 28bc b23d
00000280: 4c75 b53d 0010 06b9 db65 a6bd 4032 d03d
00000290: b0d7 a5bd 5a8a df3d c03a deba de73 db3d
000002a0: 30a9 773d 50e1 8dbc 6c54 b1bd 00f5 11bb
000002b0: 185e 023d bc01 0e3d 88a9 233d f2b6 d83d
000002c0: 0818 063c 70f4 ed3c 7047 7cbc 3651 883d
000002d0: 0242 e2bd 306b 6b3c 3329 b9bd aa4c d13d
000002e0: 3090 8c3d 40c0 873d 003d 9839 f081 0f3c
000002f0: ef4e aebd af1d a9bd 4a63 9abd e064 733c
00000300: 7c21 a1bd d884 333d 0f2e d1bd c386 b3bd
00000310: 50b7 943d 1419 1b3d f050 803b 2e9e b73d
00000320: eec7 12bd 397e e6bd 0877 e73c 58ee 90bc
00000330: 7451 133d a8ad b23c 59da bbbd 4c53 883d
00000340: 1af3 92bd d200 7fbd 27f7 dabd 7eab 9d3d
00000350: abaa dfbd 7094 1ebd 0aa6 35bd 704f e5bc
00000360: 28d1 5dbd 385a bd3d 3c89 6a3d 303f 753d
00000370: ccdb 4cbd 8e7e 8ebd beb3 a1bd 2165 afbd
00000380: a62e 983d b034 563c 9053 e93d 6889 8dbc
00000390: ac87 a93d e0f8 633b ae01 8b3d 8083 f9bc
000003a0: 1404 8b3d 09a7 77bd 9696 88bd 9237 55bd
000003b0: f441 cabd fb0e d5bd 14c4 d0bd 78c9 cb3d
000003c0: 92c9 8dbd d051 753c a0bc 733c 9898 763d
000003d0: 4059 793b 89b6 cabd 4b5b 7ebd 680d 9a3c
000003e0: be14 ce3d 90f1 eabb 36f2 a53d 10b9 693d
000003f0: 48ee 553d 604c 1d3c 4e28 dd3d e895 bb3d
-0.050838612 0.08662565 -0.015172638 -0.11265111 -0.038484037 -0.030242935 0.032763377 -0.073286995
0.036642835 0.10223301 -0.05572331 -0.0065627173 0.09167327 -0.10646166 0.04179485 -0.060179032
0.009067595 0.06819311 0.04519047 0.0036762059 0.1132372 -0.033493496 0.011009663 0.08373234
-0.0780003 -0.00018648803 -0.10908304 -0.06765804 0.019136667 0.09920195 0.035660416 0.07833761
-0.010486588 -0.037139818 0.01562421 0.10142237 -0.013937719 -0.05211699 0.022620186 -0.078969106
-0.077743635 0.10422365 0.09137903 0.07366654 0.0020472258 0.10703625 -0.007529691 0.096620336
0.063917845 0.03396988 0.11308858 -0.034045465 0.056954622 -0.06465711 -0.04003693 0.055436283
-0.026370138 0.05121471 0.022327542 0.10881843 -0.024845004 0.014065385 -0.020536691 0.042224392
-0.11326569 0.09789693 -0.11381075 0.1139074 -0.10144448 0.06233394 -0.10711828 -0.106707685
0.107023805 -0.037833773 0.054883868 -0.07813671 0.03009589 -0.03090299 -0.07640426 -0.11454077
0.0031614453 0.0082801655 -0.0766512 -0.03681466 0.09566212 0.11132988 -0.02595292 -0.07754224
-0.0060405806 -0.06268172 -0.016621627 0.062359333 0.073881194 0.09794061 -0.017346136 0.016746372
-0.0122834 -0.021433242 0.06547339 -0.08668782 0.06274144 -0.04705979 -0.07453692 -0.053332575
-0.093272075 -0.018668495 0.09113212 0.0488237 -0.016789958 -0.05671554 0.006974533 0.06128925
0.044548437 0.013354719 0.044441417 -0.10360728 -0.055454053 -0.0016397536 0.108747825 -0.041418344
-0.04731852 0.047840312 -0.06794543 -0.11122082 0.06288351 0.074701846 0.01988864 -0.054519553
0.046362653 -0.087545834 0.033535987 -0.041031033 0.05368519 -0.025067255 0.09546445 0.030893013
0.10380675 0.115229845 -0.026010498 -0.00044279546 0.002135709 0.049355984 0.10879277 -0.084755674
0.10537511 0.03773643 0.08087467 -0.0377212 -0.07357321 0.026427105 -0.001786299 -0.018636309
-0.095260516 0.1134797 -0.07951631 -0.080069005 -0.023169242 -0.07651612 -0.039787658 0.08727294
0.08860263 -0.00012785196 -0.08124896 0.101658344 -0.0809778 0.1091506 -0.0016954765 0.10715459
0.060464084 -0.017319351 -0.0865868 -0.0022271276 0.031828016 0.034669623 0.0399566 0.10581769
0.00818444 0.029047221 -0.015397891 0.06656115 -0.11047746 0.014368817 -0.09041061 0.10219701
0.06863439 0.06628466 0.00029037148 0.008759007 -0.08511149 -0.08257615 -0.07538469 0.014855593
-0.07867715 0.04382786 -0.10213863 -0.08765938 0.072615266 0.037865713 0.0039158985 0.08965717
-0.0358352 -0.11254544 0.028255 -0.017691776 0.03596635 0.021811321 -0.09172506 0.066565126
-0.07175274 -0.06225664 -0.10691672 0.07698725 -0.10921224 -0.03871578 -0.0443478 -0.02799198
-0.054154545 0.092457235 0.057259783 0.059874713 -0.050014302 -0.06957732 -0.07895611 -0.08564211
0.074307725 0.013074085 0.113928914 -0.017277434 0.082778305 0.0034785792 0.0678743 -0.030458212
0.06787887 -0.06046203 -0.06669347 -0.05205495 -0.09875861 -0.10403248 -0.10193649 0.099505365
-0.06923212 0.014973119 0.014876515 0.06020412 0.0038047582 -0.09898097 -0.062098783 0.01880522
0.1006255 -0.00716991 0.08102839 0.057061255 0.052229196 0.009600729 0.10798703 0.09159452

conv1.bias f4 [10]
00000000: 2c85 bbbd 2263 78bd a8be 1abd 58b6 ba3c
00000010: ad2b e5bd 55cb c1bd aaed 983d a03c 3e3d
00000020: 5a71 c03d 10c5 553d
-0.0915626 -0.060641415 -0.03777948 0.022792026 -0.11189971 -0.09462611 0.07467206 0.046444535
0.0939662 0.052189887

conv2.weight f4 [20, 10, 5, 5]
00000000: 181a 323d b8b1 14bd 144d 6bbd 68df 273d
00000010: 980e dbbc 6ad4 05bd 783f 473c e24e 2f3d
00000020: e8f8 33bd f8a8 363d f4a5 9d3c 4c56 993c
00000030: c6c9 033d fef7 513d d0d9 2d3d 2811 353d
00000040: f8b1 31bc a067 46bb 1897 043d 80e0 453d
00000050: 0ac3 01bd 6ec5 81bc 3c62 ae3c 64fd 703d
00000060: 68de 8dbc dc5d 34bd b497 2ebd 6e99 323d
00000070: c075 83bc 3668 683d aeb8 30bd 5813 60bd
00000080: f802 cb3c 3072 2ebb 74da 2dbd 2c6b 27bd
00000090: 0d4b 54bd c8a1 323d 6ca0 3f3d 588a 773c
000000a0: dcf9 113d 08d2 9ebb 8560 1cbd ca95 4bbd
000000b0: bc66 2ebc d4e5 ddbc d464 2bbc c467 373d
000000c0: 6efc 1d3d 48f6 c9bb 8951 01bd 0616 713d
000000d0: 3002 9c3b 7416 3ebd 4446 3a3d 305a 963b
000000e0: 6a40 033d f4ed 20bd e881 183d ceba 193d
000000f0: 1c80 f9bc 2666 2abd 64c7 203d 50b4 c43b
00000100: 76a5 403d 76d2 3bbd c0b2 753c 40f6 3a3b
00000110: 3f9e 02bd c877 ea3c fe59 703d e174 81bd
00000120: fc8f f9bc 9041 cb3c 605b 483b a5f3 18bd
00000130: 9cf3 3b3d 582a 1ebc 7d65 50bd 7e0c 28bd
00000140: ba2f 44bd 21c6 75bd 30fa 053c ae26 73bd
00000150: d4ee 023d 3b84 39bd 5d5e 2bbd 46fb 1fbd
00000160: 701a 093d 784f 4c3d 6864 d33c 3017 333d
00000170: 3650 1b3d 3cd1 c4bc ca96 563d fe23 a8bc
00000180: 7861 d6bc 4075 363b 1b03 6cbd e054 88ba
00000190: 7633 043d feb8 4a3d 403a 023c 709f 783c
000001a0: 4c74 043d 2c48 bc3c 0059 ca3b 94db bebc
000001b0: 58c3 873c 4046 813d 1a14 c5bc 9c52 a53c
000001c0: 5097 223d 20ae 4fbb ea6d 06bd e090 8bbb
000001d0: 2c30 923c 806f 523a 80b8 683d 00cc a2b8
000001e0: 0e59 1cbd 30b7 d9bc c4c3 6ebd e6c5 7a3d
000001f0: 1021 3dbd 889c 613d ec0a ee3c 18bf 643d
00000200: 674a 3abd 8825 1b3c bc1d 113d 444b 673d
00000210: d86f 66bd a0d3 213d 10fa fa3b 4369 0dbd
00000220: 0023 523d eda3 75bd 5819 0a3d 1a5f 2b3d
00000230: 1838 2dbd 0418 cb3c 908e 7d3c 40da 7ebd
00000240: 91fb 0abd fc34 33bd 5ee4 dabc 2859 dc3c
00000250: 6017 18bd c866 c0bc 6a12 89bc 22cb 6abd
00000260: 287b 633c 665d 213d 7092 77bd 1c78 2fbd
00000270: 3050 2ebb 6ec2 713d 52d9 7b3d e629 11bd
00000280: b0bf 523c d2fc e8bc a0e0 a53c 38f0 2abd
00000290: 6090 0f3d 54a3 4dbd e7d4 69bd 7adb 6b3d
000002a0: e238 333d 38bb 1fbc 72f4 393d 704e ff3c
000002b0: 721a 6b3d 60ef e8bb a27e 613d 4c1d 53bd
000002c0: 34c2 de3c 4048 b9bc 6c1e 73bc 58ec 153c
000002d0: ccb7 23bd 000f de39 aa18 563d 302c 903b
000002e0: 1c30 3e3d 36e5 96bc 004e 28bb 58e3 193c
000002f0: c458 9abc e84c dabc aaed 8dbc d83d 0abd
00000300: c2aa 0f3d 4cba cd3c 44b5 f3bc 31b8 4abd
00000310: bed5 5b3d 4ad4 08bd 8c5d 55bc a087 143d
00000320: 44f9 92bc e234 0b3d 2c02 a43c 1e51 3a3d
00000330: d032 393c 1c7f 883c c4ee 033d c844 413d
00000340: eeee 23bd b897 3f3c 52e7 1cbd 1cf1 46bd
00000350: d87e e2bc d838 013d a0d4 66bc 2eaf 9abc
00000360: 5284 793d 04ad b43c dc76 933c 30b8 a53c
00000370: d024 63bd ceee f9bc f265 663d 62f0 51bd
00000380: a13e 56bd bc98 603d 4040 a83a 5f91 3abd
00000390: ac58 0ebd 1cbd 79bd 3ef7 773d 67ec 44bd
000003a0: 607e 0e3d 7c7f ed3c 5e97 193d 30fe 163d
000003b0: f8b8 663d e084 81bc a2b1 3cbd 649e 823c
000003c0: 0e48 b1bc a44b 3d3d c062 46bc 704b dc3c
000003d0: bab0 243d f067 553d c016 2cbd bca4 683d
000003e0: 0405 9bbc a03b 183c 3014 9c3c 80cd e43b
000003f0: de17 813d d214 5d3d fbef 1abd a70a 7cbd
0.043481916 -0.0363023 -0.057446554 0.04098454 -0.026740357 -0.032673277 0.012161128 0.042799838
-0.043938547 0.044594735 0.019244172 0.018717907 0.032174848 0.051261894 0.04244405 0.044205815
-0.010845654 -0.0030274168 0.032370657 0.048309803 -0.031680144 -0.015841212 0.021287076 0.058835402
-0.017317966 -0.044034824 -0.042625144 0.043603353 -0.016047359 0.05674001 -0.043144874 -0.054705948
0.024781689 -0.0026618354 -0.04244466 -0.04087369 -0.051829387 0.043611318 0.04678385 0.015108667
0.035638675 -0.004846815 -0.038177986 -0.049703397 -0.010644611 -0.02708713 -0.010461051 0.044776693
0.038570814 -0.006163392 -0.0315719 0.058858894 0.004761003 -0.04640813 0.045477167 0.004588388
0.032043852 -0.03928943 0.037233263 0.037531666 -0.030456595 -0.041601323 0.039252654 0.0060029402
0.047032796 -0.045855008 0.014996231 0.0028528124 -0.031889196 0.02862157 0.058679573 -0.06321121
-0.030464165 0.024811536 0.0030572042 -0.037341733 0.04588662 -0.00965365 -0.050878037 -0.04102754
-0.047897078 -0.060003404 0.008177325 -0.05936306 0.031966045 -0.04529212 -0.04183804 -0.039057992
0.03347248 0.049880475 0.025804713 0.043723285 0.037918292 -0.024025552 0.052389897 -0.020524975
-0.026169524 0.0027840883 -0.05762015 -0.0010401271 0.03227564 0.04949283 0.007948458 0.015174732
0.03233747 0.022983633 0.0061751604 -0.023298062 0.01657264 0.06312227 -0.024057437 0.020180993
0.039695084 -0.003168948 -0.032819666 -0.004259214 0.017845236 0.0008027479 0.056816578 -7.76276e-05
-0.038170867 -0.026576608 -0.058292165 0.061223887 -0.04617411 0.05508092 0.029057942 0.055846304
-0.04548111 0.009469397 0.035428748 0.056468263 -0.056259006 0.039508462 0.0076592043 -0.034524214
0.05130291 -0.059970785 0.033715576 0.041838743 -0.042289823 0.024791725 0.015475884 -0.06221986
-0.03393132 -0.0437517 -0.026720222 0.026897982 -0.037131667 -0.02348651 -0.016732413 -0.05732263
0.013884343 0.039395712 -0.060442388 -0.042839155 -0.0026598088 0.059023313 0.06148655 -0.035440348
0.012863085 -0.028440867 0.020248711 -0.041732997 0.035049796 -0.05020459 -0.057087805 0.057582356
0.04375542 -0.009749226 0.045399137 0.031165332 0.057398267 -0.007108614 0.055052407 -0.05154161
0.027192213 -0.02261746 -0.014838796 0.009150587 -0.039970204 0.00042354316 0.052269615 0.004399799
0.0464326 -0.018419843 -0.0025681257 0.009392582 -0.018841155 -0.026648 -0.017325241 -0.033750385
0.035074957 0.025113247 -0.02974952 -0.049492065 0.053670637 -0.03340558 -0.013022792 0.036262155
-0.017941125 0.03398598 0.020020567 0.045487516 0.011303619 0.016662173 0.032210127 0.047184736
-0.040022783 0.011693887 -0.03830654 -0.048569784 -0.027648374 0.03154835 -0.01408878 -0.01888236
0.060917206 0.022055157 0.018001013 0.020229429 -0.05545503 -0.030509379 0.056249566 -0.051254638
-0.05230582 0.05483316 0.0012836531 -0.045548793 -0.034752533 -0.060971364 0.060538523 -0.048077013
0.03478849 0.028991453 0.03749787 0.036863506 0.056328744 -0.01581043 -0.04606784 0.015944667
-0.021640804 0.046214715 -0.012108505 0.02689144 0.040207602 0.052101076 -0.042013884 0.056797728
-0.01892329 0.009291559 0.019052595 0.0069825053 0.063033804 0.053974934 -0.03782652 -0.061533596

conv2.bias f4 [20]
00000000: 80f3 0c3d daa0 053d e0fc b1bc 641a fc3c
00000010: 28fd c7bb 9af0 2abd c0e8 c3ba f0f1 24bd
00000020: b248 ecbc cc9d c43c 8485 2ebd 9268 4a3d
00000030: 406f e23c 75cc 45bd 807e 8d3b 1a7d 4dbd
00000040: a865 a43c 949f 77bc 81c5 17bd 003b 0a3a
0.034411907 0.032624103 -0.021727026 0.030774303 -0.0061031766 -0.04173336 -0.0014946684 -0.040269792
-0.028843258 0.024001025 -0.0426078 0.049416132 0.027640939 -0.04829069 0.0043180585 -0.050168134
0.020068005 -0.01511373 -0.03705359 0.0005273074

fc1.weight f4 [50, 320]
00000000: 8202 303d f828 8d3b bcec 5ebc 907b 7e3c
00000010: a808 19bd 00a5 233c e28c bdbc 4621 61bd
00000020: a418 593d d059 0fbb 3021 ce3b 7838 993c
00000030: 5c4f 443d 94b1 12bd e6ea 0abd 00a2 ae3b
00000040: e608 26bd d6fd eebc 00e4 9439 e02c d8ba
00000050: 30c0 b23c 2ead 32bd 8232 c7bc 3489 aabc
00000060: 9897 043c e010 1abd 1894 893b a098 4ebd
00000070: 98d5 833b 8abc 433d 0c69 c23c b420 3f3d
00000080: a444 9b3c e284 5f3d 905c c8bb fc34 94bc
00000090: 7030 723b 30f7 4e3c ad1a 0bbd 907f 36bc
000000a0: 542b 17bd e047 b83a e212 92bc 3352 54bd
000000b0: 282b 7a3c 902f 1cbd 40cb 073d 4318 3cbd
000000c0: b4df 223d 98eb b4bc d80f 6c3c f012 113b
000000d0: 7886 90bb d4a1 5dbd 80f1 4fbb 20f2 2c3d
000000e0: 5064 673c 244b 503d aa82 cabc 07ac 64bd
000000f0: eacc 293d ae91 0dbd f045 9bbc 343b 5e3d
00000100: 817e ebbc 78b8 d63b 6840 c9bb 7cdf 143d
00000110: c2d4 b5bc b009 01bc 88e2 8dbb 369f 073d
00000120: 9826 7dbc 600f 9bba c032 73bb f26f 0cbd
00000130: c0a4 a6bc 5670 3a3d 48b5 55bc d46c ea3c
00000140: a2fa 263d f6f2 083d bced 5abc 0604 2bbd
00000150: 4194 35bd 3824 343c b006 4f3c f81e 613c
00000160: f47a cd3c bc2e 77bc 56d3 5b3d cc96 31bd
00000170: e8e0 c73b c8fc 19bd c632 84bc a056 f63c
00000180: 26a1 24bd ddb2 24bd 4cac 2a3d 58b0 8bbc
00000190: b8ae 9bbb 6858 a73c f05e 103d 0210 193d
000001a0: fd4b 27bd 2022 143d 4248 343d acd0 f33c
000001b0: 3a42 91bc 4c18 bd3c 0812 05bd 64f8 a33c
000001c0: 1cf2 d63c 1618 01bd 0859 2c3d c8fe 343c
000001d0: da3b 3c3d 0032 ad3b 8fa9 30bd 30b0 fc3c
000001e0: 849c 8bbc ce20 36bd aa8e 39bd c064 783b
000001f0: f218 1fbd 58ec ec3c d09a df3b 738d 35bd
00000200: ce85 163d 38b3 e3bb 44bc b03c 3018 0cbd
00000210: ba86 a4bc cc8f 2ebd f037 88bb 9a9a 513d
00000220: de59 37bd bd2e dfbc 00a8 503b ac08 2e3d
00000230: 4879 923b de77 093d 3e31 c9bc 70df e13c
00000240: 8326 41bd 4645 213d bcab 1bbc 80d3 733a
00000250: 6009 f23c f04b 003d e1ad f2bc 06f4 363d
00000260: 2081 093c fab4 63bd f8ee f2bb e62b 3bbd
00000270: 0b16 e8bc 68f4 033c f04b ab3c 3ebf 1fbd
00000280: 192e 51bd 66c2 4d3d 0ef6 643d 09cd 47bd
00000290: bcdb 4e3d c2f3 2d3d 4803 b63b e7cc 1abd
000002a0: 7a95 a4bc 4074 593c 6060 b63b 18f5 1abd
000002b0: 9a42 603d e0c4 623c a833 9c3c 68fb 3a3d
000002c0: f2df 5b3d b450 2bbc 99c5 e4bc d8fa b13c
000002d0: d887 3dbd 5afa 553d a81b 2a3c 0680 043d
000002e0: de25 493d 1c03 5b3d 54f5 1abd e0ae feba
000002f0: 179f 1dbd b03d ab3c 6036 d4bb ccb4 133d
00000300: ec3d db3c 480c 043d b883 b8bb d092 4e3b
00000310: 2e98 24bd ee7b 513d 8850 5cbc 850f 62bd
00000320: 159d 2bbd f43e cf3c 7bf0 42bd 023a 093d
00000330: 0c64 ff3c e86f 2abd 4687 b9bc 6fc4 dbbc
00000340: 9001 3ebd c816 18bc 6487 49bc 80a8 b83a
00000350: 2eca 553d 30f7 06bb 9c06 a9bc 2dcf 10bd
00000360: 807a e33c 781f 51bc 50f7 713c 6cf6 c33c
00000370: b4da 5e3d 024b 8cbc 484c ccbb 324b 083d
00000380: 8023 463d 2037 d23c 7651 adbc 002f 1d3a
00000390: b4cb 5bbd 00f2 3539 7739 51bd 00e0 8636
000003a0: a4d1 d33c 4824 e63c 24eb bd3c 88c2 4abd
000003b0: f05a 603c 3b91 5dbd 2001 1d3c b431 94bc
000003c0: 2075 0dbc 3ebb 3f3d e599 58bd cc3b 473d
000003d0: b0e7 033d e857 a13b 1c97 56bd e7f2 50bd
000003e0: fc9e 193d 0c43 8d3c 8e66 413d d596 31bd
000003f0: 92d6 4a3d 4003 dd3c 00aa d83c 10c4 03bc
0.04297114 0.0043078624 -0.013606247 0.015532389 -0.03736177 0.0099880695 -0.023138467 -0.054963373
0.053002015 -0.00218736 0.0062905774 0.018703684 0.047927245 -0.035813883 -0.033915423 0.0053293705
-0.04053583 -0.029173773 0.00028398633 -0.0016492866 0.021820158 -0.04362219 -0.024316076 -0.020817377
0.008092783 -0.03761375 0.0041985624 -0.050438523 0.004023265 0.047787227 0.02373173 0.046662048
0.018953629 0.054570086 -0.00611455 -0.018091671 0.003695514 0.012632176 -0.033960987 -0.011138812
-0.036906555 0.0014059506 -0.01783127 -0.051836204 0.015269078 -0.038131297 0.03315282 -0.045921575
0.03976412 -0.022084996 0.014408074 0.0022136532 -0.004410561 -0.05410941 -0.0031729639 0.042223096
0.014123037 0.05085291 -0.024720509 -0.05582812 0.041455187 -0.03456276 -0.018954247 0.05425568
-0.028746845 0.006552752 -0.006141711 0.036345944 -0.022196177 -0.007875845 -0.004329983 0.03311082
-0.015451096 -0.0011830144 -0.0037109107 -0.034286447 -0.02034223 0.04551729 -0.013043709 0.028616346
0.040766366 0.03343483 -0.013362344 -0.041751884 -0.04433084 0.010994963 0.012635872 0.013740294
0.025083043 -0.015086826 0.053668343 -0.0433567 0.006099809 -0.037594587 -0.016137492 0.030070603
-0.040192746 -0.04020964 0.04166822 -0.01705186 -0.0047510527 0.020427898 0.03524679 0.037368782
-0.040843952 0.036165357 0.044014223 0.029762588 -0.017731775 0.023082875 -0.0324879 0.020015903
0.026238494 -0.03151711 0.042077094 0.011047073 0.045955516 0.0052855015 -0.043130454 0.030845731
-0.017042406 -0.04446488 -0.04530207 0.0037901849 -0.03884215 0.028921291 0.006823875 -0.04432435
0.0367487 -0.006948855 0.021574147 -0.034202754 -0.020083774 -0.042617604 -0.004157059 0.05117283
-0.04476344 -0.027243966 0.0031838417 0.04248874 0.0044700243 0.03356158 -0.024559613 0.027572364
-0.04715587 0.039372705 -0.009501394 0.00093012303 0.029545486 0.03132242 -0.029623928 0.044666313
0.008392602 -0.055592515 -0.007413741 -0.04569616 -0.028330823 0.008053876 0.020910233 -0.039000742
-0.051069353 0.05023422 0.05589872 -0.04877952 0.050502524 0.042468794 0.0055545904 -0.037793066
-0.020090807 0.013272345 0.005565688 -0.037831396 0.054751016 0.013840884 0.0190676 0.045649916
0.053680368 -0.010456253 -0.027926253 0.021726057 -0.04627213 0.052240707 0.01038257 0.032348655
0.04910838 0.053469762 -0.03783162 -0.0019430779 -0.038481798 0.020903438 -0.0064762086 0.036061093
0.026762925 0.032238275 -0.0056309365 0.0031520613 -0.040184192 0.05114358 -0.0134469345 -0.05519058
-0.041897852 0.025298573 -0.04759262 0.033502586 0.031175636 -0.04161063 -0.022647511 -0.026827065
-0.04638821 -0.009282775 -0.012300346 0.0014088303 0.052194767 -0.0020594113 -0.020633034 -0.03535383
0.027768373 -0.01276385 0.014768437 0.023921214 0.05440779 -0.01712561 -0.0062346794 0.033274837
0.0483737 0.025661051 -0.021157008 0.0005996078 -0.053661063 0.00017351657 -0.051080193 4.0195882e-06
0.0258568 0.028093472 0.023183413 -0.049501926 0.013693556 -0.05409358 0.009582788 -0.018090107
-0.008633882 0.046809427 -0.05288114 0.04864101 0.032203376 0.0049238093 -0.052390203 -0.0510129
0.037505135 0.017243885 0.047216944 -0.043356735 0.049521036 0.026979089 0.02644825 -0.00804235

fc1.bias f4 [50]
00000000: 80bc d33a f6ee 58bd 849f 123d 302b 2c3d
00000010: 8ad3 183d 604a e83c 566c 10bd b4f9 893c
00000020: 80e2 85bb 3070 9f3b 785f 8a3c 403c 21bd
00000030: d082 223b 88fe bf3c 2813 69bc 9e05 91bc
00000040: 780a 0b3c b08d 1ebd ee91 bdbc ccae 10bd
00000050: e277 2ebd b819 223c ce5e 11bd e472 4c3d
00000060: 501b f63b 2062 18bd 46b5 4a3d 80a7 14bd
00000070: 0099 533b 1843 4c3d b005 f33b a0d0 0ebb
00000080: 80eb 6dbb 26b3 033d 760b 173d 2aa2 43bd
00000090: feb7 aabc fd32 2fbd f0aa 543d 1c6d 0e3d
000000a0: c0e2 a8bc 20ec 033c 8816 773c a059 cb3b
000000b0: 6012 0fbb f015 22bb 104c a1bb 00e1 c03c
000000c0: 6b6d 39bd af56 02bd
0.00161542 -0.052962266 0.035796657 0.042033374 0.037311114 0.028355777 -0.035259567 0.0168427
-0.004085839 0.0048656687 0.016891226 -0.0393641 0.0024797209 0.0234368 -0.014225759 -0.017702874
0.008486383 -0.038709342 -0.023140874 -0.03532295 -0.042594798 0.009893827 -0.035490803 0.049914256
0.00751058 -0.037202954 0.049489282 -0.036292553 0.003228724 0.049868673 0.0074164495 -0.002179183
-0.00363037 0.03215327 0.036876164 -0.047762074 -0.020839687 -0.042773236 0.05192083 0.034772024
-0.020615935 0.008051902 0.015081055 0.0062057525 -0.002183102 -0.0024732314 -0.0049223974 0.023544788
-0.045270365 -0.03182095

fc2.weight f4 [10, 50]
00000000: 7074 3b3d a07a d73d b652 1cbd d00f 7c3d
00000010: 6807 b13c b7f0 083e 4a7a ca3d 78ee cc3c
00000020: b044 0dbc 60fe 6b3d c426 483d 91db 023e
00000030: 909a 483c 104c 5d3c b411 873d ce45 e53d
00000040: 4472 cabc c059 3f3c f8bc b13d ed61 053e
00000050: 4886 c13c a0d9 1ebd a0af a2bb 8039 babc
00000060: f28a f73d 023c ab3d b626 df3d c075 5bbc
00000070: dc67 7a3d 4069 0e3d 9539 04be af10 0cbe
00000080: 6a85 da3d 5ebd 1fbd 5e27 f83d 1e6f c7bd
00000090: 6800 90bc 2ae3 b93d 11ab fbbd a969 01be
000000a0: 2a4b f63d fa79 b73d 406f 16bd 81b0 0f3e
000000b0: 7806 163d 9d9b 06be 8a46 a83d 9ffd cebd
000000c0: 02fd bf3d b44b 07be d156 063e d449 bd3d
000000d0: 509b ff3c 4875 bc3d 4ccb 4dbd a090 913c
000000e0: 30f2 c7bc f678 27bd 7782 08be ac2e 363d
000000f0: e0a1 7e3d c235 ff3d 4023 d03c 9a03 ef3d
00000100: 0059 dbba a647 0ebe 161e f63d 50f8 3b3c
00000110: e60b c53d ecf0 89bd 5834 8bbc f23b cc3d
00000120: 48ab 3d3d ee49 40bd 6704 0bbe 00fb 743a
00000130: 7ae2 e83d 84c8 2c3d 82a7 e23d f825 2d3d
00000140: 0536 f3bd e69d 54bd 34b6 f0bc 20a4 173d
00000150: 92d7 a1bd 745c 3bbd d41a cb3d 3876 71bd
00000160: 088e d53c 42ec c83d aa22 ba3d 5002 d33d
00000170: 9e51 fc3d 3abc db3d a88b a7bc 8df7 0c3e
00000180: d006 563c 4072 9e3c 6cd9 ebbd 7a1a 0bbe
00000190: f834 efbc 90ea c83d 4668 fc3d 30f7 0bbd
000001a0: 807e c73c 0495 b3bd 46e1 0fbe ee0d a03d
000001b0: 08de 9a3d d9ce 043e 38bb ebbc 3877 723d
000001c0: 0984 003e 88d5 993c c4e1 9c3d 0c97 7b3d
000001d0: 34e7 ebbc 62ad f03d 300d 293c 48b9 25bd
000001e0: 58e0 db3d 7a8a f23d b9bc 09be e263 c73d
000001f0: 94b6 b73d d26c e0bd 70bb 663d dc25 733d
00000200: 68c3 393d 1751 9fbd 20ad e8bc 308a af3d
00000210: 33ff 0b3e 9218 e5bd 6a67 bd3d 4074 b1bc
00000220: ff52 afbd 000e c23c e822 5c3d 8852 95bd
00000230: 687d f5bd 7819 963c 28de e3bc 0f85 0d3e
00000240: d045 853c f4ea 653d 78e4 c43d 201f 893b
00000250: 0e2e fa3d 00b4 09bb 1896 233d e075 0a3d
00000260: 2e76 f53d 647c 423d 7003 e53c 8c64 d33d
00000270: eec1 dfbd 7e52 dbbd c203 e1bd 32ab df3d
00000280: 40e6 43bc 34e7 3a3d eba2 a2bd ac6d c0bd
00000290: d012 4b3d b311 b4bd 715d 073e 37f9 0cbe
000002a0: f56e eabd a011 83bc 9cf4 01be d42d 9bbc
000002b0: 2e6e 46bd cf1c 92bd 4e09 b9bd 80d0 c93a
000002c0: 9e5e 17bd e22b e33d 54f7 b23d d60d d53d
000002d0: 7aff 18bd 615f 05be 0c02 d53d 74dd 21bd
000002e0: 4871 8c3d 8dcc 0fbe 5a3c e13d d08b 593c
000002f0: 8045 353d 902a fa3c a224 d3bd e0e2 e4bb
00000300: 769a 17bd 003a 4c3a 0054 ac3c 68a9 bfbd
00000310: 70f8 06be 2ab9 fe3d a0d2 b5bd c490 3cbd
00000320: 52f6 abbd cc68 8abd 10c2 08be df66 093e
00000330: 6831 f83c a0e2 eebc b00a 363d 0077 87bd
00000340: fec5 f33d b2da 983d e8a1 a5bc a811 fbbd
00000350: 45e7 97bd 420a a9bd a87a 893c 64eb e9bd
00000360: 829d 67bd ed76 01be 1a3f e63d cb1e fabd
00000370: 4897 813c 9e0f fd3d 4057 d03b dedf e43d
00000380: c810 8f3d c12d 9bbd 00d7 033a 2e9b 03be
00000390: 40ae 733c 0c9a adbc 751b 0f3e 9c7b 04be
000003a0: 680f 10bd b8d7 98bc 10e6 773c 1a37 8c3d
000003b0: 14ce b5bd 2c48 bd3d 0283 a13d 50bd 37bd
000003c0: b6de e03d 9077 503d 20db ffbc 3e1c e3bd
000003d0: b0ab 83bc 5220 14bd f10c 8abd f9f1 8abd
000003e0: 2034 073c 08b4 e23c 21bb d5bd 3ffd 01be
000003f0: 1aa1 9f3d ba05 843d f0e6 cf3d 9022 f23c
0.04576534 0.10521436 -0.038164817 0.061538517 0.021609977 0.13373075 0.09886606 0.025016055
-0.008622333 0.057615638 0.048865095 0.1277907 0.012243882 0.013506904 0.065951735 0.11194955
-0.02471269 0.011679113 0.08678621 0.13025637 0.0236236 -0.038781762 -0.004964784 -0.022732496
0.120870486 0.08361055 0.108960554 -0.013394773 0.061134204 0.034768343 -0.12912591 -0.1367824
0.10669978 -0.038998954 0.12116884 -0.09737991 -0.017578319 0.09076531 -0.12288488 -0.12637962
0.12026055 0.08958812 -0.03672719 0.14032175 0.036627263 -0.131453 0.08216579 -0.10106968
0.09374429 -0.13212472 0.13119055 0.09242597 0.031201988 0.09202057 -0.050242707 0.017769158
-0.024407476 -0.04088684 -0.13331018 0.044478104 0.062166095 0.12461425 0.025407434 0.11670609
-0.0016734898 -0.13894519 0.12017457 0.0114727765 0.0962141 -0.06735405 -0.016992733 0.09972371
0.046305925 -0.046945505 -0.13575898 0.0009345263 0.11371322 0.042183414 0.11067106 0.042272538
-0.11875538 -0.051908396 -0.029383756 0.037021756 -0.07902445 -0.045742467 0.099172264 -0.058950633
0.026068702 0.098106876 0.09088643 0.103031754 0.12320255 0.10729261 -0.020452335 0.13766308
0.013063148 0.019341588 -0.11516079 -0.13584319 -0.029200062 0.09810364 0.12324576 -0.034171283
0.024352312 -0.08768657 -0.14050779 0.07815157 0.0756188 0.12969531 -0.028775796 0.059195727
0.12550367 0.018778577 0.07660249 0.061423346 -0.02879677 0.1175182 0.010318086 -0.0404599
0.107361495 0.118428186 -0.13450898 0.09735848 0.08970371 -0.10958256 0.056331098 0.059362277
0.04535237 -0.077791385 -0.028402865 0.08571279 0.1367157 -0.11186327 0.0924824 -0.021661878
-0.08560752 0.023688316 0.053744227 -0.07291132 -0.1198681 0.018322691 -0.027815893 0.13820289
0.01626864 0.056132272 0.096138895 0.0041846186 0.122158155 -0.002101183 0.039938062 0.03380382
0.119854316 0.04748191 0.02795574 0.10321912 -0.10925661 -0.107090935 -0.10987045 0.10921325
-0.011956751 0.04563065 -0.079412304 -0.09395918 0.049578488 -0.08792438 0.13219239 -0.13766943
-0.114469446 -0.015999615 -0.12690967 -0.018942751 -0.04844492 -0.07134401 -0.09034978 0.0015397221
-0.03695547 0.11092354 0.0873858 0.104030296 -0.037353016 -0.13024665 0.10400781 -0.039517835
0.06857544 -0.14042874 0.10997839 0.013277963 0.044255733 0.030537874 -0.103097215 -0.0069850534
-0.03701254 0.0007790625 0.021036148 -0.093584836 -0.13180709 0.12437661 -0.08878064 -0.046036497
-0.08396591 -0.0675827 -0.13355279 0.13418148 0.030296996 -0.029160798 0.044443786 -0.06614494
0.119029984 0.07463588 -0.020218804 -0.12259227 -0.07417158 -0.0825391 0.01678212 -0.1142185
-0.056546696 -0.12643023 0.112425044 -0.122129045 0.015819207 0.12356494 0.0063580573 0.11175512
0.06985623 -0.07577086 0.0005029291 -0.12852165 0.014873087 -0.02119162 0.13975318 -0.12937778
-0.035170943 -0.01865755 0.015130535 0.06846447 -0.08877197 0.09242281 0.07886316 -0.044858277
0.10979979 0.050895274 -0.031232417 -0.11089371 -0.016073078 -0.036163636 -0.067407496 -0.06784434
0.008252174 0.027673736 -0.10436083 -0.12694262 0.077943996 0.06446405 0.1015147 0.029557496

fc2.bias f4 [10]
00000000: b06a 853c a202 8cbd e8e0 e0bd 2bdc f6bd
00000010: 38c2 c8bc c2ae 5abd d09c 853d 0066 ee39
00000020: 40a8 41bd 80b0 383c
0.016286224 -0.0683644 -0.109803975 -0.120537125 -0.024506673 -0.05338932 0.0652405 0.00045470893
-0.047279596 0.01127255
