save/models/server/testmodel.pth (torch, 11599 bytes, 4 tensors)

layer_input.weight f4 [200, 1]
0.41076958 0.39216983 -0.48426998 0.8240472 -0.21000552 0.013496757 0.6121377 0.2613896
-0.4366939 -0.65153337 -0.4816717 -0.9402375 -0.9170778 -0.4149487 -0.03705561 0.5029106
0.6919761 -0.37672532 0.57388353 -0.07041037 0.7165227 0.6829963 -0.2954986 0.80790293
0.43819535 0.9717628 0.20870686 -0.905475 -0.9673792 0.06549466 -0.49350488 -0.84493446
0.8766279 0.47464323 0.48109674 -0.7472824 0.7204013 0.61300635 -0.83846366 -0.13820791
0.7931105 0.21112585 0.30013323 0.6292542 -0.18026638 0.7116605 0.5780486 0.13228536
-0.065167546 0.1666286 -0.49639785 0.25864887 -0.33318734 0.41917717 0.6717627 -0.20210767
-0.75542045 0.84631383 0.94687915 -0.24770284 -0.8081043 0.68635285 -0.4059186 0.9512992
-0.92116284 0.35670877 -0.9018352 0.61550057 0.6038817 0.8631437 -0.10691452 0.5425303
0.42423356 0.9108045 -0.88415384 0.34226704 0.6756427 -0.24184978 0.18931961 -0.9759431
0.7497374 -0.654611 -0.22743428 -0.58809257 0.49844217 -0.725667 -0.9719701 -0.09495044
-0.9771466 0.5679672 -0.5300213 -0.7913115 0.06542671 -0.56797755 0.97412276 -0.59547615
0.98667276 0.36559486 0.87982416 -0.5919763 -0.19519222 0.6626977 -0.4579035 0.22084129
-0.5699681 -0.66983366 0.92885983 0.53884685 0.9367976 -0.7469996 0.45980883 -0.54630697
-0.40704858 0.38131118 0.6073915 0.43633437 0.39916945 0.40750957 -0.30379117 -0.69869924
0.34135675 0.76476157 0.8249129 -0.8333783 0.7970041 0.61893916 -0.15667176 -0.16115701
0.46714318 0.72418916 -0.8575845 0.4268924 -0.26482236 -0.84796345 0.9744884 0.76319504
-0.33286047 -0.2091906 0.45896852 0.9323883 0.003344655 -0.0807327 -0.9683757 -0.23534012
0.09629977 -0.67696583 0.102529764 -0.7935374 0.062521935 -0.2711693 -0.9973072 0.3252579
0.3714887 -0.42224514 0.40910196 -0.14197028 -0.8025745 -0.5456507 0.10073805 0.98961306
-0.4854622 -0.8629284 -0.49144244 -0.3854699 -0.24176109 -0.7267842 -0.485752 0.4427184
0.7184087 -0.8129686 -0.7192086 -0.13214135 -0.33346355 0.037485242 -0.50289404 -0.98785317
-0.4408245 0.888976 -0.4035784 0.06261885 0.120165706 -0.6884562 -0.21227026 0.64421344
-0.67828393 -0.5443456 0.27293158 0.73267996 0.7732458 -0.09627843 -0.4808321 0.29429626
0.36393535 -0.6885066 -0.7614949 0.5536947 0.97149515 -0.50098944 -0.20296717 -0.42999327
00000000: 6450 d23e 7cca c83e 3cf2 f7be c2f4 523f
00000010: b00b 57be 8021 5d3c 0eb5 1c3f dcd4 853e
00000020: 5896 dfbe e4ca 26bf ac9d f6be 68b3 70bf
00000030: 9cc5 6abf 2874 d4be a0c7 17bd c0be 003f
00000040: 5825 313f 24e2 c0be 08ea 123f 5033 90bd
00000050: 086e 373f d8d8 2e3f 984b 97be bad2 4e3f
00000060: 245b e03e 72c5 783f 40b7 553e 36cd 67bf
00000070: 2aa6 77bf 1022 863d acac fcbe a04d 58bf
00000080: b06a 603f 7004 f33e 5052 f63e e64d 3fbf
00000090: 386c 383f fced 1c3f 8ea5 56bf 6086 0dbe
000000a0: 4a09 4b3f 6031 583e 10ab 993e ce16 213f
000000b0: c097 38be 622f 363f fefa 133f d075 073e
000000c0: 9076 85bd b0a0 2a3e dc27 febe a06d 843e
000000d0: 8897 aabe 649e d63e a4f8 2b3f 50f5 4ebe
000000e0: 3c63 41bf 06a8 583f ac66 723f d0a5 7dbe
000000f0: ecdf 4ebf d2b4 2f3f 90d4 cfbe 5888 733f
00000100: 54d1 6bbf 88a2 b63e acde 66bf 7291 1d3f
00000110: fe97 1a3f fcf6 5c3f 00f6 dabd 44e3 0a3f
00000120: 2435 d93e 7c2a 693f e857 62bf a03d af3e
00000130: ecf6 2c3f 78a7 77be 00dd 413e 68d7 79bf
00000140: caee 3f3f 9694 27bf 88e4 68be 3c8d 16bf
00000150: d033 ff3e 50c5 39bf 08d3 78bf 6075 c2bd
00000160: 4826 7abf 4c66 113f 7aaf 07bf 6493 4abf
00000170: 70fe 853d fa66 11bf 1c60 793f 2071 18bf
00000180: 9696 7c3f 402f bb3e 283c 613f c28b 17bf
00000190: 78e0 47be 8ea6 293f 5472 eabe 3824 623e
000001a0: 6ee9 11bf 387a 2bbf c2c9 6d3f def1 093f
000001b0: f8d1 6f3f 5e3b 3fbf 106c eb3e c6da 0bbf
000001c0: ac68 d0be 383b c33e 027e 1b3f 3867 df3e
000001d0: f05f cc3e 18a5 d03e 848a 9bbe f4dd 32bf
000001e0: 50c6 ae3e 6ac7 433f 7e2d 533f 4858 55bf
000001f0: 7608 4c3f cc72 1e3f 906e 20be 5806 25be
00000200: 642d ef3e 7664 393f a88a 5bbf a491 da3e
00000210: cc96 87be 2214 59bf 1278 793f c060 433f
00000220: b06c aabe 1036 56be ecfd ea3e 00b1 6e3f
00000230: 0032 5b3b 3057 a5bd 78e7 77bf 00fd 70be
00000240: d038 c53d a24d 2dbf 20fb d13d 4425 4bbf
00000250: 800b 803d b4d6 8abe 864f 7fbf 3488 a63e
00000260: c433 be3e 8430 d8be d075 d13e a860 11be
00000270: 8675 4dbf c4af 0bbf c04f ce3d 4857 7d3f
00000280: 808e f8be e0e8 5cbf 589e fbbe 505c c5be
00000290: 3890 77be 880e 3abf 7cb4 f8be fcab e23e
000002a0: a2e9 373f b61e 50bf 0e1e 38bf 1050 07be
000002b0: bcbb aabe 208a 193d aabd 00bf f2e3 7cbf
000002c0: c0b3 e1be ee93 633f d4a1 cebe 503e 803d
000002d0: 7019 f63d aa3e 30bf 605d 59be 2ceb 243f
000002e0: 04a4 2dbf 3c5a 0bbf b0bd 8b3e ea90 3b3f
000002f0: 70f3 453f a02d c5bd a02f f6be 00ae 963e
00000300: bc55 ba3e f841 30bf 54f1 42bf f0be 0d3f
00000310: e8b3 783f d840 00bf a0d6 4fbe 1428 dcbe

layer_input.bias f4 [200]
0.7539499 0.9448031 -0.084866405 0.6881218 -0.52444553 -0.6472374 -0.34097946 0.801409
-0.84174395 -0.06872606 0.84902334 0.474203 0.57165277 -0.5442802 0.73990977 -0.8104409
0.9204117 0.58665264 -0.90336466 -0.0934459 0.41893506 -0.3353449 -0.83342946 -0.95166755
0.83619165 0.8896822 -0.58530307 -0.12724864 0.39226866 -0.008331418 -0.6766703 0.08277202
-0.8953879 -0.04325819 0.87151873 -0.3576132 -0.39237618 0.9276471 0.8567437 0.50598514
0.25265348 0.32762802 -0.20657611 0.43748355 -0.3451047 -0.38502944 0.2726239 -0.4465444
0.7242341 -0.51238084 -0.28565848 -0.8933579 0.17047405 -0.7146622 -0.9137386 -0.064899206
0.67551315 0.016145706 -0.1372025 -0.42695212 -0.76773024 0.3769846 0.8398526 0.38561094
-0.444911 0.62040436 -0.41774654 -0.9006537 -0.85355306 0.6950308 -0.2924521 0.84698725
-0.39125216 -0.8440763 0.8909371 0.56015205 -0.99709415 -0.75757444 0.79562414 -0.43699312
0.9168445 -0.072818875 0.34767735 -0.643448 0.96871936 -0.6347178 0.18698978 -0.746197
0.42388356 0.5854678 0.89916015 -0.19069302 0.62666357 -0.20919085 -0.95562875 -0.8227483
0.6825675 -0.05181718 0.9186709 -0.87415504 -0.56926847 0.8238133 0.43506205 -0.12524855
0.25411117 0.22785771 0.5232395 0.60832465 -0.043168783 0.6672343 -0.051989675 0.50709116
-0.33028686 -0.95722246 -0.59005785 0.9973532 0.17909408 -0.7359642 -0.5149138 0.9716667
-0.5296544 -0.27783203 -0.8087293 0.3697617 0.053383827 0.2900493 -0.9617444 0.57962406
0.13848472 0.66539 -0.3713565 -0.8847877 0.92650795 -0.5974053 -0.21885693 -0.3527987
-0.38699532 0.9379817 0.3316548 0.9880341 0.9762621 -0.26290095 -0.8640332 -0.8658513
0.025011659 0.56598425 0.9086169 -0.14807165 0.7985662 0.6949762 -0.7650577 0.61575305
-0.64038575 0.13255167 0.27054536 -0.22659647 0.56660795 -0.34765434 0.57530093 0.6447829
0.80872345 -0.49431348 0.9500474 0.17182648 -0.6919215 0.07166517 0.0035272837 -0.14122689
0.21985865 0.040349126 0.71445954 0.7020612 0.35920012 -0.8331282 -0.6521932 -0.3056742
0.21505082 0.056857705 -0.95826495 -0.32198453 0.41740477 0.3553344 0.6227602 0.49876618
0.02448237 0.2174505 0.53106177 -0.9177908 -0.718696 -0.92160416 0.11558366 0.1016804
0.3434322 0.40009916 -0.7346419 -0.024968028 -0.48170364 0.014507771 -0.30450547 0.79971635
00000000: dc02 413f 9ede 713f 70ce adbd c028 303f
00000010: 1042 06bf 5ab1 25bf dc94 aebe 2429 4d3f
00000020: 887c 57bf 40c0 8cbd 9859 593f bcca f23e
00000030: d657 123f f255 0bbf ba6a 3d3f 0e79 4fbf
00000040: 1aa0 6b3f de2e 163f e842 67bf 9060 bfbd
00000050: a87e d63e 54b2 abbe a25b 55bf 7ca0 73bf
00000060: a810 563f 36c2 633f 6cd6 15bf 784d 02be
00000070: 70d7 c83e 8080 08bc 443a 2dbf 6084 a93d
00000080: 2438 65bf 802f 31bd da1b 5f3f 1419 b7be
00000090: 88e5 c8be 487a 6d3f 8e53 5b3f 3e88 013f
000000a0: cc5b 813e dcbe a73e b088 53be d8fd df3e
000000b0: 90b1 b0be 9422 c5be 5c95 8b3e 78a1 e4be
000000c0: 6867 393f 642b 03bf d441 92be 1ab3 64bf
000000d0: c090 2e3e 1af4 36bf c6ea 69bf e0e9 84bd
000000e0: 6eee 2c3f 0044 843c d07e 0cbe 7899 dabe
000000f0: f889 44bf 2004 c13e 9400 573f cc6e c53e
00000100: 60cb e3be d2d2 1e3f e0e2 d5be 3e91 66bf
00000110: 7482 5abf 8aed 313f 48bc 95be 28d4 583f
00000120: 3452 c8be 6215 58bf 7414 643f 2066 0f3f
00000130: 9041 7fbf 66f0 41bf 06ae 4b3f 90bd dfbe
00000140: 52b6 6a3f 1022 95bd c402 b23e 02b9 24bf
00000150: fefd 773f de7c 22bf 407a 3f3e c406 3fbf
00000160: 4407 d93e 38e1 153f 5c2f 663f 0845 43be
00000170: 066d 203f 2036 56be 16a4 74bf a29f 52bf
00000180: bebc 2e3f 403e 54bd 042e 6b3f a0c8 5fbf
00000190: 94bb 11bf 6ee5 523f 74c0 de3e 2841 00be
000001a0: dc1a 823e 8853 693e 06f3 053f 2abb 1b3f
000001b0: c0d1 30bd decf 2a3f 20f3 54bd bad0 013f
000001c0: 5c1b a9be 880c 75bf 080e 17bf 8a52 7f3f
000001d0: 7064 373e 2668 3cbf 64d1 03bf 26bf 783f
000001e0: 6e97 07bf 0040 8ebe e208 4fbf 6851 bd3e
000001f0: 00a9 5a3d 5881 943e e234 76bf 3e62 143f
00000200: f0ce 0d3e 0057 2a3f 7022 bebe 7281 62bf
00000210: a02f 6d3f 8eef 18bf 081c 60be 08a2 b4be
00000220: 4024 c6be 921f 703f a8ce a93e ceef 7c3f
00000230: 50ec 793f f49a 86be 4831 5dbf 6ea8 5dbf
00000240: 40e5 cc3c 58e4 103f 1e9b 683f 18a0 17be
00000250: d66e 4c3f f6e9 313f d2da 43bf fea1 1d3f
00000260: 52f0 23bf a0bb 073e ec84 8a3e e808 68be
00000270: 380d 113f c0ff b1be ec46 133f 7e10 253f
00000280: 8008 4f3f a816 fdbe 4e36 733f 48f3 2f3e
00000290: c421 31bf 30c5 923d 002a 673b c89d 10be
000002a0: a022 613e 2045 253d d2e6 363f 48ba 333f
000002b0: 14e9 b73e e447 55bf 22f6 26bf 5481 9cbe
000002c0: 4836 5c3e a0e3 683d da50 75bf 28db a4be
000002d0: 14b6 d53e 64ee b53e 366d 1f3f 485e ff3e
000002e0: 408f c83c 58ab 5e3e aaf3 073f 56f4 6abf
000002f0: 76fc 37bf 40ee 6bbf 20b7 ec3d d03d d03d
00000300: 58d6 af3e ccd9 cc3e 7e11 3cbf c089 ccbc
00000310: dca1 f6be 00b2 6d3c 24e8 9bbe 36ba 4c3f

layer_hidden.weight f4 [10, 200]
-0.063199066 -0.06882991 -0.03931229 -0.03122725 0.047048308 -0.006079495 0.03979276 -0.0032834336
0.03811489 0.008413769 -0.018516973 0.018582523 -0.05658164 -0.06121068 0.06835634 0.017288797
0.020981632 0.040564463 0.05641993 0.037223913 -0.05272234 0.051759996 -0.025743693 -0.05959278
-0.047739703 -0.013119042 -0.06066879 -0.060945097 -0.037722677 0.05852952 -0.030614965 0.028319359
0.0067012757 -0.046074145 0.014185473 -0.036918078 0.008388251 -0.04212362 0.045442514 0.011830181
-0.06348711 -0.011804666 -0.02767193 0.0014253408 0.017469972 0.061021127 0.035815045 0.053235248
0.028484873 -0.019912113 -0.041494064 0.05197087 0.051061124 -0.0478141 0.046785936 0.024376526
-0.05506613 -0.017904487 -0.047895953 0.046370067 -0.015028268 -0.0006419048 -0.05455226 -0.04416582
-0.033299334 -0.043757394 0.012834996 -0.04076399 -0.033177227 0.038279623 -0.05184694 0.011751264
-0.028321546 0.040824883 -0.0081921 -0.020292949 -0.064493634 -0.05211588 0.011640064 -0.005813256
-0.029956482 -0.067698404 -0.038562566 0.067403875 0.055510096 -0.060492042 0.039512463 -0.04927039
0.041497782 0.00522545 0.0634748 0.04585597 0.0155490115 0.051091604 0.010035992 0.057489567
-0.029489323 -0.04506176 0.06777426 -0.06462552 -0.05427362 0.013063066 -0.028846502 0.06564807
-0.052108914 0.0011747405 -0.015498426 0.029336333 -0.05162707 0.070026524 0.021497838 -0.0063113496
-0.0053925365 -0.033581406 -0.068680644 0.015538231 0.047789864 -0.0022616982 -0.0068677515 0.061320715
-0.061130695 0.0034532696 -0.00036354363 0.012558505 0.05810315 -0.030235738 -0.0025669336 0.06914485
0.029775396 -0.039616592 0.059295453 -0.011071775 0.02768784 0.024041489 -0.0011654198 0.051933512
0.016349673 0.00589031 0.0221681 0.049073987 -0.012754597 0.040852867 0.0021616966 0.04001797
-0.06814294 -0.04463879 0.01720336 -0.025513291 -0.022280823 0.070015915 -0.035182495 0.064744376
0.061314248 -0.007064745 0.0121805 -0.065244235 0.045561664 -0.0024797916 0.040756747 -0.015722662
-0.025918651 -0.0032652095 0.04834768 -0.013202947 0.022559516 -0.054623608 -0.0556306 -0.052609157
0.021847785 0.042356193 0.039832585 -0.033157617 0.040116303 -0.037463754 -0.05470036 0.065128915
-0.003906399 0.045874782 0.002509497 0.0028702915 -0.051101558 0.033947222 0.06408029 0.063289605
0.003976546 -0.04613568 -0.023427792 -0.018157758 0.06254656 0.019867353 0.026207425 0.026424408
-0.020376485 0.04269723 -0.012976721 -0.029700741 -0.03669286 -0.021828368 -0.026977912 0.06082668
0.026183076 0.06565905 0.03306917 -0.03858545 -0.026309464 0.014395617 -0.017004795 0.051502526
-0.054574214 -0.0677271 -0.053877305 0.051397324 0.05370427 -0.014609609 -0.03411484 -0.061336078
0.0601523 -0.0019691363 -0.061244626 -0.043479457 -0.017780043 -0.04142335 0.01359465 0.022409715
-0.0522508 -0.025309376 -0.0036882237 0.042523444 0.002132833 -0.01923547 0.06576977 -0.011808738
-0.03291889 -0.026755884 -0.014687832 -0.03410782 0.023974188 0.068032436 0.036480762 0.018626168
-0.061762072 -0.023420945 0.064374916 0.011302397 0.028252669 0.06187027 -0.064043775 0.026422702
0.03675063 -0.026923534 0.04341173 -0.005436443 0.046529695 0.0105611235 -0.057837516 0.0614359
00000000: 836e 81bd b2f6 8cbd ec05 21bd 4ad0 ffbc
00000010: bab5 403d 8036 c7bb bcfd 223d e02e 57bb
00000020: 5c1e 1c3d e8d9 093c e8b0 97bc 603a 983c
00000030: 26c2 67bd 0db8 7abd 69fe 8b3d 3ca1 8d3c
00000040: ace1 ab3c ec26 263d 9618 673d 1a78 183d
00000050: 61f3 57bd 4a02 543d 70e4 d2bc 8f17 74bd
00000060: b58a 43bd 40f1 56bc d67f 78bd 91a1 79bd
00000070: 1883 1abd a6bc 6f3d 3ccc fabc 00fe e73c
00000080: 6096 db3b 3eb8 3cbd 306a 683c 6937 17bd
00000090: e06e 093c d189 2cbd ee21 3a3d 60d3 413c
000000a0: 8805 82bd 5c68 41bc 3eb0 e2bc 80d2 ba3a
000000b0: 301d 8f3c 4af1 793d ccb2 123d 340d 5a3d
000000c0: 1c59 e93c ba1e a3bc aef5 29bd 68df 543d
000000d0: 7825 513d b8d8 43bd 9ca2 3f3d 48b1 c73c
000000e0: 068d 61bd 6eac 92bc 8c2e 44bd 8aee 3d3d
000000f0: 2039 76bc 8045 28ba 3172 5fbd 38e7 34bd
00000100: e264 08bd f43a 33bd e049 523c 24f8 26bd
00000110: d8e4 07bd 18cb 1c3d 755d 54bd 6088 403c
00000120: 9602 e8bc fe37 273d 2838 06bc 663d a6bc
00000130: 3d15 84bd 7677 55bd f8b5 3e3c 207d bebb
00000140: 4c67 f5bc 76a5 8abd c8f3 1dbd 0b0b 8a3d
00000150: 8e5e 633d 81c6 77bd d2d7 213d c0cf 49bd
00000160: 94f9 293d 403a ab3b 13ff 813d 78d3 3b3d
00000170: 48c1 7e3c 6e45 513d 006e 243c 2e7a 6b3d
00000180: 9893 f1bc ae92 38bd 3bcd 8a3d 625a 84bd
00000190: 044e 5ebd 7806 563c 804f ecbc 7f72 863d
000001a0: 2870 55bd c0f9 993a 1ced 7dbc c052 f03c
000001b0: e876 53bd 116a 8f3d 3c1c b03c 70cf cebb
000001c0: e0b3 b0bb a88c 09bd 70a8 8cbd 1094 7e3c
000001d0: 4ebf 433d 0039 14bb e00a e1bb 6e2b 7b3d
000001e0: 2e64 7abd 4050 623b 009a beb9 30c2 4d3c
000001f0: 92fd 6d3d f0b0 f7bc 003a 28bb d19b 8d3d
00000200: 88eb f33c 0245 22bd cadf 723d 6466 35bc
00000210: 9cd1 e23c a8f2 c43c 00c1 98ba 3cb8 543d
00000220: c0ef 853c 8003 c13b e099 b53c ce01 493d
00000230: a8f8 50bc 5655 273d 40ab 0d3b e2e9 233d
00000240: 878e 8bbd 2ad7 36bd 10ee 8c3c 4001 d1bc
00000250: 4686 b6bc 8164 8f3d 851b 10bd b398 843d
00000260: a624 7b3d 607f e7bb b890 473c c59e 85bd
00000270: de9e 3a3d 0084 22bb 8cf0 263d d0cc 80bc
00000280: 5a53 d4bc 20fd 55bb 3808 463d 2c51 58bc
00000290: bcce b83c 01bd 5fbd e9dc 63bd b37c 57bd
000002a0: 20fa b23c b07d 2d3d 7e27 233d 48d0 07bd
000002b0: fe50 243d 9873 19bd 7c0d 60bd 4f62 853d
000002c0: 4001 80bb 32e7 3b3d 6076 243b 801b 3c3b
000002d0: de4f 51bd 3e0c 0b3d 873c 833d fb9d 813d
000002e0: b04d 823b c4f8 3cbd a4eb bfbc 94bf 94bc
000002f0: 6918 803d dcc0 a23c f4b0 d63c 0078 d83c
00000300: 96ec a6bc 4ae3 2e3d 509c 54bc f84e f3bc
00000310: 414b 16bd 68d1 b2bc c800 ddbc 6625 793d
00000320: e47d d63c 4178 863d 8a73 073d c70b 1ebd
00000330: f286 d7bc 98db 6b3c a44d 8bbc 50f4 523d
00000340: 3689 5fbd 81b4 8abd 73ae 5cbd 0086 523d
00000350: 02f9 5b3d 245d 6fbc 01bc 0bbd 8a3b 7bbd
00000360: 4262 763d a00c 01bb a5db 7abd 8417 32bd
00000370: 74a7 91bc 88ab 29bd 18bc 5e3c 9494 b73c
00000380: ef04 56bd 9c55 cfbc 20b6 71bb 102d 2e3d
00000390: 00c7 0b3b b493 9dbc 4db2 863d 7079 41bc
000003a0: f5d5 06bd 282f dbbc 3ca5 70bc a4b4 0bbd
000003b0: 8465 c43c 9754 8b3d da6c 153d e895 983c
000003c0: 3afa 7cbd 48dd bfbc ffd6 833d b02d 393c
000003d0: 2472 e73c ae6b 7d3d 6229 83bd 6c74 d83c
000003e0: d487 163d be8e dcbc 80d0 313d 3024 b2bb
000003f0: ec95 3e3d 9008 2d3c 08e7 6cbd 36a4 7b3d

layer_hidden.bias f4 [10]
0.023398563 0.030062452 -0.020700857 0.05644939 0.034120984 -0.068319865 0.011011466 -0.043294065
-0.06951632 0.06300331
00000000: 58ae bf3c 8845 f63c d894 a9bc 7a37 673d
00000010: 72c2 0b3d 49eb 8bbd 7069 343c 1e55 31bd
00000020: 935e 8ebd e107 813d
