save/models/server/testmodel.pth (torch, 92463 bytes, 8 tensors)

conv1.weight f4 [10, 3, 5, 5]
0	0x3d686b50	0.056742966
1	0xbbc54ea0	-0.0060213357
2	0xbd9ca69c	-0.07648966
3	0x3dc92cb0	0.098229766
4	0x3dd8f2b8	0.1059317
5	0xbdd4e97b	-0.10396095
6	0xbd335fdc	-0.04379259
7	0xbce7e270	-0.028306216
8	0x3d1edcc8	0.038784772
9	0xbd8f0f2c	-0.06985316
10	0xbd556eda	-0.05210767
11	0x3c055658	0.008138262
12	0x3d47b2ec	0.048754618
13	0xbdc0d35c	-0.094153136
14	0x3d56c2b8	0.052431792
15	0x3c29bee0	0.01036045
16	0xbdaa3eac	-0.08312735
17	0xbd1321a4	-0.035920754
18	0x3c8e0418	0.017335936
19	0x3da8ad72	0.08236207
20	0x3cd5b768	0.026088431
21	0x3d516470	0.051121175
22	0x3dc8c7f2	0.098037615
23	0x3d0d7c30	0.034542263
24	0xbd6baa55	-0.05753549
25	0xbd0f6362	-0.03500689
26	0xbce19534	-0.027536966
27	0xbd30ea48	-0.043192178
28	0x3d4603ec	0.048343584
29	0x3dc7e74c	0.09760913
30	0xbd5c4b66	-0.053782843
31	0xbb895950	-0.004191555
32	0x3d8c3800	0.06846619
33	0xbdd6b1a5	-0.10483102
34	0xbda74b93	-0.081687115
35	0xbdd6571a	-0.10465832
36	0x3d009104	0.031388298
37	0xbd95ef64	-0.07321051
38	0x3d292280	0.041292667
39	0xbdd49ccd	-0.1038147
40	0xbdd937b1	-0.106063254
41	0xbd7993e4	-0.060932055
42	0xbd9125ec	-0.07087311
43	0x3d2a2aac	0.0415446
44	0x3d2a808c	0.041626498
45	0x3d8d479a	0.068984225
46	0x3be79b70	0.00706809
47	0xbdbcda7d	-0.09221361
48	0x3db537a2	0.08848502
49	0xbd1a64d6	-0.03769382
50	0xbde331cc	-0.110934824
51	0xbdb36d2c	-0.08761057
52	0x3ca45258	0.020058796
53	0x3d899b80	0.067191124
54	0xbd7a9e2a	-0.061185993
55	0x3caed818	0.021343276
56	0xbddcec8e	-0.10787307
57	0x3d0619d0	0.03273946
58	0x3d11a800	0.035560608
59	0xbdb36d0a	-0.08761032
60	0xbcfc57d0	-0.030803591
61	0xbc6c0a20	-0.014406711
62	0x3c69d020	0.014270812
63	0x3d8f4664	0.06995848
64	0xbbb97f30	-0.005660914
65	0x3d85657e	0.06513499
66	0x3d1f957c	0.03896092
67	0x3de4aed0	0.11166155
68	0xbcc340b4	-0.023834564
69	0xbd9fda9c	-0.07805368
70	0xbce4b1cc	-0.027916811
71	0x3da193a4	0.07889488
72	0x3da6b29c	0.08139536
73	0xbbc9b2a0	-0.006155327
74	0xbb0d7460	-0.0021584257
75	0x3cfc34c8	0.030786887
76	0xbd7a6f2e	-0.061141185
77	0xbde59615	-0.112102665
78	0xbd991b15	-0.074758686
79	0x3da88a22	0.08229472
80	0xbdcd1ad6	-0.10014884
81	0x3d7b5ee0	0.061369777
82	0x3ca75668	0.020426944
83	0xbda669be	-0.081256375
84	0xbd499f6e	-0.04922431
85	0xbae04a40	-0.0017111972
86	0x3d8ca51c	0.068674296
87	0x3de11d18	0.10991877
88	0x3d9a94b0	0.07547891
89	0xbdb6cc92	-0.089257374
90	0x3d28ac18	0.041179746
91	0x3d92ebca	0.071738794
92	0xbb8142d0	-0.0039447322
93	0xbc331850	-0.0109310895
94	0xbbb51920	-0.005526677
95	0xbd7708b2	-0.060311027
96	0x3d693a90	0.056940615
97	0xbdc1d9b5	-0.094653524
98	0x3dbc33c2	0.091895595
99	0x3d884b80	0.066550255
100	0xbd94e732	-0.072706595
101	0xbcabaf5c	-0.020957641
102	0xbd15524a	-0.03645543
103	0xbdda2c4b	-0.106529795
104	0xbdb65cff	-0.08904456
105	0x3cf18ae8	0.029485181
106	0xbcd54c7c	-0.026037447
107	0xbd15dab8	-0.03658554
108	0xbd0207fe	-0.031745903
109	0xbc224788	-0.00990475
110	0x3d19e114	0.037568167
111	0xbd18bc70	-0.037289083
112	0x3d9d6f28	0.07687217
113	0x3aae1600	0.0013281703
114	0xbdea6a91	-0.11446107
115	0x3ccd3ca8	0.025053337
116	0xbd0ddfce	-0.034637265
117	0xbdccf9df	-0.10008597
118	0x3d120868	0.035652548
119	0x3b5a2e40	0.0033291727
120	0xbc674eb8	-0.014117889
121	0xbd44a5c0	-0.048009634
122	0xbd5138d4	-0.051079586
123	0x3d6ba7e0	0.057533145
124	0x3d1455e8	0.03621474
125	0x3c069320	0.008213788
126	0x3d69c2ec	0.057070658
127	0xbd469810	-0.04848486
128	0x3cece4f8	0.028917775
129	0x3c37d890	0.011221066
130	0xbc91d954	-0.017803825
131	0xbd89eb38	-0.067343175
132	0xbc9b15c0	-0.01893127
133	0xbd7c5827	-0.061607506
134	0x3d92e008	0.07171637
135	0x3d82294a	0.063555315
136	0x3dde3e34	0.10851708
137	0x3ce54e40	0.027991414
138	0x3d76520c	0.06013684
139	0x3d50b78c	0.050956294
140	0x3d0f978c	0.035056636
141	0x3dcdf79c	0.10056993
142	0x3c09b868	0.008405782
143	0xbc89045c	-0.016725712
144	0x3c6a8600	0.014314175
145	0xbd3e32fe	-0.04643535
146	0x3de6ac48	0.11263329
147	0x3d924552	0.07142128
148	0x3c92ee80	0.017935991
149	0xbdca59c0	-0.098804
150	0xbdaa7122	-0.083223596
151	0x3cf8b778	0.030360922
152	0x3dbeca84	0.093159705
153	0x3d694450	0.056949914
154	0x3c625cc0	0.013816059
155	0xbdacb0c0	-0.0843215
156	0x3d07bf1c	0.03314124
157	0x3dccb28e	0.09994994
158	0xbdce2eea	-0.10067542
159	0x3daa3272	0.08310403
160	0x3d2ab398	0.04167518
161	0x3d037d1c	0.032101735
162	0x3dd323b4	0.10309544
163	0xbd9a226d	-0.075260974
164	0x3d377c90	0.044796526
165	0xbda1970a	-0.078901365
166	0xbd96de35	-0.073666014
167	0x3db137c6	0.08653216
168	0x3dcb6c28	0.099327385
169	0x3dd96aba	0.106160596
170	0xbde07cd8	-0.10961312
171	0x3b8ebe60	0.0043561906
172	0x3d96c53c	0.07361838
173	0xbd996e82	-0.07491781
174	0x3dc0daa6	0.09416704
175	0x3bcd4790	0.0062646344
176	0xbd8e6951	-0.06953681
177	0xbd1545fa	-0.036443688
178	0x3c8f2370	0.017472953
179	0x3db72c80	0.089440346
180	0x3ddd2efc	0.10799977
181	0x3d5b4648	0.053533822
182	0x3da28652	0.07935776
183	0x3c9a8ba0	0.018865407
184	0xbcd7aa78	-0.026326403
185	0xbdc5dcb8	-0.096612394
186	0x3dbde86c	0.092728466
187	0x3d850796	0.064955875
188	0xbca965f0	-0.02067849
189	0x3d2734dc	0.040821895
190	0xbc9615f8	-0.018321022
191	0x3da766ae	0.081738815
192	0xbcb69150	-0.022286087
193	0xbda346a6	-0.079724595
194	0x3d870b5e	0.06593965
195	0xbdd6078b	-0.104506575
196	0xbda4e4c5	-0.08051447
197	0x3d40c034	0.0470583
198	0xbc3b8420	-0.011445075
199	0xbb689e00	-0.0035494566
200	0x3d9d6472	0.07685174
201	0xbdeb2802	-0.1148224
202	0xbdb8b8db	-0.090196334
203	0x3d632a10	0.055460036
204	0xbb2eab80	-0.0026652515
205	0xbd263f82	-0.04058791
206	0x3d9ce6ba	0.07661195
207	0x3d4a75a8	0.049428612
208	0xbd525eee	-0.051360063
209	0xbc2db118	-0.0106013045
210	0xbda4b388	-0.08042055
211	0x3d4b30b0	0.04960698
212	0xbd144a14	-0.03620346
213	0x3db1e9dc	0.08687183
214	0x3d963598	0.07334441
215	0x3da6263c	0.081127614
216	0xba8c5d40	-0.0010708943
217	0xbdd12cc8	-0.102136195
218	0xbd934530	-0.07190931
219	0xbdd8748e	-0.10569106
220	0x3a687380	0.00088673085
221	0xbc9ead78	-0.019369826
222	0xbbc610c0	-0.006044477
223	0x3dae58c2	0.08513023
224	0xbd264870	-0.040596426
225	0xbdd3b52f	-0.103372924
226	0x3dec3d1c	0.11535093
227	0xbde172c8	-0.11008221
228	0xbd5820ac	-0.052765533
229	0xbd05e58c	-0.032689616
230	0xbdbeb6b0	-0.093121886
231	0xbd57dd88	-0.052701503
232	0xbddf73db	-0.109107696
233	0xbc6ce2c0	-0.014458358
234	0xbdacb054	-0.084320694
235	0x3dc345a2	0.09534766
236	0xbd80ec8f	-0.0629512
237	0xbdabcfce	-0.08389245
238	0x3da5a792	0.08088602
239	0xbc01a6b8	-0.007913284
240	0xbd9db003	-0.07699587
241	0xbd628152	-0.05529911
242	0x3d39c4c4	0.045353666
243	0xbda81d24	-0.08208683
244	0x3de3405a	0.110962585
245	0xbc9e7190	-0.01934126
246	0xbcdaf3e0	-0.026727617
247	0x3d2c3260	0.04204023
248	0x3dddb776	0.10826008
249	0x3dbf8422	0.09351374
250	0xbd7a3988	-0.061090022
251	0x3d0823d4	0.033237293
252	0x3d9e8106	0.07739453
253	0xbddfab8d	-0.109213926
254	0x3c090718	0.008363508
255	0x3c2bcdc0	0.010486066

conv1.bias f4 [10]
0	0xbc5e3690	-0.013562813
1	0x3c094a30	0.008379504
2	0xbd123cec	-0.03570263
3	0x3d984d62	0.074366346
4	0xbdc1e946	-0.094683215
5	0xbd3cf478	-0.04613158
6	0xbc9559d0	-0.018231302
7	0xbdec39b4	-0.115344435
8	0xbdca34ce	-0.09873353
9	0xbd9c6bf0	-0.07637775

conv2.weight f4 [20, 10, 5, 5]
0	0x3c2cc770	0.0105455965
1	0xbc4da4e0	-0.012551516
2	0x3d732e1a	0.059370138
3	0x3cfd62a4	0.030930825
4	0xbadd3aa0	-0.0016878434
5	0xbc1257b0	-0.008932039
6	0xbc0d2c38	-0.0086165
7	0xbd281ce2	-0.04104317
8	0xbcc5b050	-0.024131924
9	0x3d69b88c	0.057060763
10	0x3d6ae2c6	0.057345174
11	0x3d32f9d0	0.04369527
12	0x3d805faa	0.062682465
13	0xbd80828c	-0.062749
14	0x3cf7ae7c	0.030234568
15	0x3d01164a	0.031515397
16	0xbc9d5924	-0.019207545
17	0xbd67c6a9	-0.05658594
18	0x3b780e00	0.0037850142
19	0x3d45e600	0.04831505
20	0x3cb32038	0.021865949
21	0x3cfbfd30	0.030760378
22	0xbbc68270	-0.00605803
23	0xbcf8c808	-0.03036882
24	0xbbe2b168	-0.006918121
25	0xba244900	-0.00062669814
26	0x3d687dd4	0.056760624
27	0x3d6c3b6c	0.057673857
28	0xb9bd7400	-0.00036135316
29	0x3ced988c	0.029003404
30	0xbd774e44	-0.060377374
31	0xbd63f0de	-0.05564963
32	0xbd190f0a	-0.037367858
33	0xbc75d4e4	-0.01500437
34	0x3cd9a9e8	0.026570275
35	0x3cdc00e0	0.026855886
36	0xbd69bda2	-0.057065614
37	0x3d3d2cc2	0.046185263
38	0x3d329886	0.04360249
39	0xbd0d6efe	-0.03452968
40	0x3d0cbfae	0.034362487
41	0x3d4d801a	0.050170995
42	0x3c7357a8	0.014852442
43	0xbc6f29ac	-0.014597338
44	0xbc25de5c	-0.010123815
45	0x3d766dcc	0.060163304
46	0xba3c9680	-0.0007194057
47	0xbcf602f4	-0.030030705
48	0xbd5bca18	-0.05365953
49	0xbbd0fbf8	-0.0063776933
50	0xbd809f86	-0.06280427
51	0x3d7270a0	0.05918944
52	0x3c540ee8	0.012943007
53	0x3c9838e8	0.018581823
54	0x3c92eca4	0.017935105
55	0xbaa17060	-0.0012316816
56	0xbd2ed16a	-0.04268018
57	0xbd3bc090	-0.04583794
58	0x3d20e914	0.03928478
59	0x3cd37f10	0.025817424
60	0xbd22d4e4	-0.03975381
61	0xbc74d65c	-0.014943685
62	0x3d5d699c	0.054055795
63	0x3b802740	0.003910929
64	0xbd527c9e	-0.051388375
65	0x3a2da980	0.0006624684
66	0x3d24be4e	0.04022055
67	0x3c107ca0	0.008818775
68	0xbd75e31e	-0.06003105
69	0xbcd1fb30	-0.02563247
70	0x3b50c8e0	0.0031858012
71	0x3d523a0e	0.051324897
72	0x3c6a9140	0.014316857
73	0x3cbc7b5c	0.023008041
74	0x3d66caa0	0.056345582
75	0x3d7e0fb4	0.062026694
76	0xbd1a923e	-0.037737124
77	0x3c294f98	0.010333918
78	0x3b396900	0.0028291345
79	0x3cb77a4c	0.022397183
80	0x3d28fd8c	0.041257426
81	0xbd58c9ea	-0.052926935
82	0x3c9570f0	0.01824233
83	0x3b6fed20	0.0036609843
84	0x3d713fba	0.058898665
85	0x3d693c7e	0.056942455
86	0x3c4c8b30	0.012484357
87	0x3cceef84	0.025260694
88	0x3cc25074	0.023720004
89	0x3d3b3df4	0.04571338
90	0xbc40fb18	-0.011778615
91	0xbd402d34	-0.04691811
92	0xbd35876a	-0.044318594
93	0xbd0e8bf4	-0.03480144
94	0xbb393140	-0.0028258115
95	0x3d29470a	0.041327514
96	0x3c912398	0.017717168
97	0xbd1b66fe	-0.037940018
98	0xbd7cdc6a	-0.06173364
99	0xbba41150	-0.0050069466
100	0x3d57a956	0.052651726
101	0xbd033961	-0.032037143
102	0x3c931d10	0.017958194
103	0xbd15d2c0	-0.03657794
104	0xbcd7821e	-0.026307162
105	0xbd3bdcab	-0.045864742
106	0x3d6f01a2	0.058351167
107	0x395b6800	0.0002092421
108	0x3d114c86	0.03547337
109	0x3d3fd180	0.046830654
110	0x3d504966	0.05085125
111	0x3ce37240	0.02776444
112	0x3d275458	0.04085192
113	0xbd40da87	-0.047083404
114	0xbd45f35d	-0.048327792
115	0x3cf48d84	0.029852636
116	0xbd39ce52	-0.045362778
117	0xbd698b0c	-0.05701737
118	0x3cb40758	0.021976158
119	0xbd3c7bfe	-0.046016686
120	0x3d6525e4	0.05594434
121	0xbd27ab10	-0.040934622
122	0xbc082354	-0.008309204
123	0xbc967028	-0.018364027
124	0xbd581c01	-0.05276108
125	0x3c93bb84	0.01803375
126	0x39948b00	0.00028332323
127	0xbc8522fe	-0.016252037
128	0xbd29c93c	-0.041451678
129	0x3d2e0e4a	0.042494096
130	0xbd407630	-0.046987712
131	0xbcdf8a50	-0.027287632
132	0x3d493a54	0.04912789
133	0xbc1a0198	-0.009399794
134	0xbb1785e0	-0.0023120567
135	0x3d78be6e	0.060728483
136	0x3d76c0a2	0.060242303
137	0xbc0e0d24	-0.008670125
138	0xbd58e745	-0.05295493
139	0x3d687978	0.056756467
140	0x3cf55208	0.029946342
141	0xbd537fc0	-0.051635504
142	0xbd2bda49	-0.04195622
143	0xbd56da42	-0.05245424
144	0x3d0808e0	0.03321159
145	0xbd43b777	-0.047782388
146	0x3d557220	0.05211079
147	0xbd49716b	-0.04918043
148	0xbc7e6eb0	-0.01552932
149	0x3c2f9f58	0.010719143
150	0x3bd32ee0	0.006444797
151	0xbc4a6b74	-0.01235472
152	0xbd14a8cb	-0.036293786
153	0xbca332be	-0.019921657
154	0x3d514594	0.051091745
155	0xbc206a60	-0.009790987
156	0xbcbca402	-0.023027424
157	0xbc56798c	-0.0130905025
158	0xbd4db434	-0.050220683
159	0x3cc67968	0.024227813
160	0x3bcb2290	0.0061991885
161	0xbd5db7fd	-0.054130543
162	0x3cd08458	0.025453731
163	0xbcda38aa	-0.026638348
164	0xbc40cf24	-0.011768136
165	0x3d002d78	0.031293362
166	0xbd3647a2	-0.044501908
167	0xbd55deaf	-0.05221432
168	0xbd7a4094	-0.061096743
169	0x3d60ae62	0.054853804
170	0x3bd4b800	0.006491661
171	0xbc3ca428	-0.011513747
172	0x3d25c582	0.04047156
173	0x3d74217e	0.059602253
174	0x3c91a578	0.017779097
175	0x3a10e480	0.0005527213
176	0x3cde3b80	0.027127981
177	0xbd3fcfe2	-0.046829112
178	0xbc475ca0	-0.01216808
179	0x3d6f5d90	0.058438838
180	0xbcdeeade	-0.027211603
181	0xbce05336	-0.027383428
182	0xbd64d879	-0.055870507
183	0x3cfc20d4	0.030777372
184	0x3c9f17bc	0.019420497
185	0xbd4b4b71	-0.049632493
186	0xbd16b0b2	-0.036789604
187	0x3ca00ff4	0.019538857
188	0xbd680bee	-0.056652002
189	0x3d270426	0.04077544
190	0x3c731330	0.014836118
191	0xb8ff6c00	-0.00012179464
192	0xb9584600	-0.00020625442
193	0x3d04985a	0.032371856
194	0xbd5f021b	-0.054445367
195	0x39ffc500	0.00048784167
196	0xbd2ad876	-0.04171034
197	0xbd52eb7e	-0.051494114
198	0x3ca441c0	0.020050883
199	0x3cd9f194	0.026604451
200	0xbd79af68	-0.060958296
201	0x3d086a40	0.033304453
202	0xbd3a93f7	-0.045551267
203	0x3d7a03c0	0.061038733
204	0xbc7865ec	-0.015161019
205	0xbcceef8c	-0.02526071
206	0x3cd99d14	0.026564158
207	0xbc040b84	-0.008059386
208	0x3cac8bc4	0.02106274
209	0x3d701b8e	0.05862003
210	0xbd706ab8	-0.058695525
211	0x3d287696	0.041128717
212	0x3ca40e34	0.020026304
213	0x3ce75430	0.028238386
214	0xbd2743a6	-0.040836
215	0xbc2e7a68	-0.010649301
216	0x3be4f0a0	0.0069866925
217	0xbc7be324	-0.015373979
218	0xbd74e156	-0.05978521
219	0x3d00bfc8	0.031432897
220	0xba944f00	-0.0011315048
221	0xbc75e638	-0.015008502
222	0xbb8a5930	-0.0042220578
223	0x3d472764	0.04862155
224	0x3cecd198	0.028908536
225	0xbd1530ea	-0.0364236
226	0x3c8f77dc	0.017513208
227	0x3c265d90	0.010154143
228	0xbd0e8e7a	-0.034803845
229	0xbd2dfc4e	-0.042476945
230	0xb98b3d00	-0.00026557595
231	0x3b5249a0	0.003208734
232	0x3cd5406c	0.026031695
233	0xbcef4c4e	-0.02921119
234	0xbcdc66ae	-0.02690443
235	0x3d426ea4	0.047468796
236	0x3d4da9fa	0.05021093
237	0xbd6f923b	-0.058489066
238	0x3b6434e0	0.0034821555
239	0x3d5253d4	0.051349476
240	0x3cabeb40	0.0209862
241	0x3c0248b0	0.0079519
242	0x3cc8b2b4	0.024499275
243	0x3b5b8ba0	0.003349997
244	0x3d0a8d42	0.03382612
245	0x3d24bd04	0.04021932
246	0x3cc8d000	0.024513245
247	0x3d7be5ec	0.061498567
248	0x3c91c144	0.017792352
249	0x3d2227c2	0.039588697
250	0x3c19bb28	0.009383
251	0xbd46b622	-0.04851354
252	0xbc305cf0	-0.0107643455
253	0x3c68ce60	0.01420936
254	0xbd093dfc	-0.03350638
255	0x3cf35164	0.029701896

conv2.bias f4 [20]
0	0xbd0c0878	-0.034187764
1	0xbd59c1f0	-0.05316347
2	0xbd7b152a	-0.06129948
3	0x3c655a40	0.013998568
4	0xbc441ed0	-0.011970237
5	0xbd6a4c80	-0.057201862
6	0xbd377236	-0.044786654
7	0xbd5dd4cc	-0.054158017
8	0x3d11fc52	0.035641022
9	0x3d4771f2	0.04869265
10	0xbb6e5070	-0.0036363862
11	0xbc9d0a42	-0.01916993
12	0xbcdf72b4	-0.027276374
13	0x3c872e80	0.016501665
14	0xbc91f924	-0.017818995
15	0x3d72b776	0.059256993
16	0x3ce5affc	0.028038017
17	0xbd63d0a6	-0.055618905
18	0xbd486436	-0.048923694
19	0x3d678536	0.056523524

fc1.weight f4 [50, 320]
0	0xbc8ed9a6	-0.017437767
1	0x3c80e314	0.01573328
2	0x3c1ff850	0.009763792
3	0x3d3ee80a	0.04660801
4	0x3d23d4ce	0.03999787
5	0x3ca5b270	0.020226687
6	0x3ce95460	0.028482616
7	0x3cdfc028	0.027313307
8	0x3d542aea	0.05179874
9	0x3d481d98	0.048856348
10	0x3cbc0c4c	0.022955082
11	0xbd595f65	-0.05306949
12	0xbcdc8c97	-0.026922507
13	0xbcfd9620	-0.030955374
14	0xbd61ce3a	-0.055128314
15	0x3ca4ff88	0.020141378
16	0xbcd8ddda	-0.026472975
17	0xbd4c7ae2	-0.049921878
18	0x3d1466aa	0.03623072
19	0xbc5a894c	-0.013338398
20	0x3ce64480	0.028108835
21	0xbd07ca80	-0.033152103
22	0x3cdd5b04	0.027020939
23	0x39935280	0.00028099492
24	0xbc5f2eb8	-0.013621978
25	0x3a6e4540	0.00090892985
26	0xbd3d237e	-0.046176426
27	0xba46cd40	-0.0007583685
28	0x3cbe4900	0.023228168
29	0xbd5db12c	-0.054124042
30	0xbd309520	-0.043110967
31	0x3d3189a2	0.043344148
32	0x3d431d24	0.047635213
33	0xbd07ec49	-0.033184323
34	0xbd606c96	-0.054791056
35	0xbca93688	-0.020655885
36	0x3a81ee60	0.000991296
37	0xbd515756	-0.05110868
38	0xbd078428	-0.03308502
39	0xbcb5b1a4	-0.022179432
40	0xbcdc85b3	-0.026919222
41	0x3d265f52	0.04061825
42	0x3c6ebf88	0.014572032
43	0x3c889f74	0.016677596
44	0xbd59f688	-0.053213626
45	0xbd520d6c	-0.05128233
46	0xbd0661ab	-0.032807987
47	0x3cd9ba38	0.026578054
48	0xbbbd0380	-0.0057682395
49	0x3c458dc0	0.012057722
50	0x3d4bb7f8	0.049735993
51	0x3c36b070	0.011150464
52	0x3cbb3560	0.0228526
53	0xbd5ddda4	-0.05416645
54	0xbbeaf720	-0.007170573
55	0x3cc9134c	0.024545334
56	0xbc8f43dc	-0.017488413
57	0x3cd6b114	0.026207484
58	0x3d549dc0	0.051908255
59	0x3c368f98	0.011142634
60	0x3d4fd298	0.050737947
61	0x3c0b6db0	0.008510038
62	0xbd625452	-0.055256195
63	0x3d63976a	0.05556432
64	0x3d5cd718	0.053916067
65	0xbd5b181c	-0.05348979
66	0xbcf68452	-0.030092392
67	0x3d152448	0.036411554
68	0x3d539b86	0.05166199
69	0xbd48582b	-0.04891221
70	0x3be314d0	0.0069299713
71	0x3cf69f50	0.030105263
72	0x3d588d66	0.052869223
73	0xbc584ca4	-0.013201866
74	0xbc062090	-0.008186474
75	0xbd416c25	-0.047222275
76	0xbc7a0554	-0.015260059
77	0xbd32fb18	-0.043696493
78	0x3cdbc81c	0.026828818
79	0xbbde0288	-0.006775204
80	0xbd546eed	-0.0518636
81	0x3d57f2be	0.05272173
82	0x3c619b98	0.013770007
83	0xbc038b7c	-0.008028861
84	0x3d3f1c46	0.046657823
85	0xbd59c247	-0.053163793
86	0xbd32f177	-0.04368731
87	0xbcf5278a	-0.02992608
88	0x3ca28964	0.019840904
89	0xbca1116a	-0.019661624
90	0xbc86de8a	-0.016463537
91	0x3d158a16	0.036508642
92	0x3c9906d4	0.018680014
93	0xbcdcbac0	-0.026944518
94	0xbca174ee	-0.019709077
95	0x3d471fca	0.0486143
96	0x3c5616b8	0.01306694
97	0x3d3d1c96	0.04616984
98	0xbd58c6c0	-0.052923918
99	0x3cab7a2c	0.02093228
100	0x3ad40120	0.0016174652
101	0x3d389822	0.04506696
102	0xbd420c33	-0.047374915
103	0x3d422a10	0.047403395
104	0x3b47df80	0.0030498207
105	0x3cd4b220	0.025963843
106	0xbd097a42	-0.03356386
107	0xbc6a698c	-0.014307391
108	0x39f2e480	0.00046328083
109	0xbc32b0ec	-0.010906439
110	0x3d3668e0	0.04453361
111	0x3ca4b010	0.020103484
112	0x3c84fd60	0.0162341
113	0xbc6235cc	-0.0138067715
114	0xbc7064dc	-0.014672484
115	0x3c5ba070	0.0134049505
116	0xbc88dca4	-0.016706772
117	0x3d3437e4	0.043998614
118	0xbcb9397c	-0.022610418
119	0xb9244c00	-0.00015668571
120	0xbd209e7d	-0.039213646
121	0x3d44d26e	0.048052244
122	0x3cf754d4	0.030191816
123	0x3ca95fe0	0.0206756
124	0xbd5bbd13	-0.053647112
125	0xbd06655a	-0.0328115
126	0xbba4b130	-0.005026005
127	0x3caeb58c	0.021326803
128	0x3d3f96d0	0.046774685
129	0x3b21bd80	0.0024679601
130	0xbc7f7f34	-0.015594292
131	0x3cec7984	0.028866537
132	0xbbcc4f98	-0.0062350743
133	0xbd212b78	-0.039348096
134	0x3d51992e	0.051171474
135	0xbb53a380	-0.0032293499
136	0x3caaf158	0.020867035
137	0x3b9c6508	0.004772786
138	0xbb5ef400	-0.0034019947
139	0xbd42f070	-0.04759258
140	0xbd5611eb	-0.05226318
141	0x3d2b3eac	0.041807815
142	0x3c3ba7e0	0.011453599
143	0xbd0d0dae	-0.034436874
144	0x3cc71cac	0.024305664
145	0x3c95dc24	0.018293448
146	0xbc4310e0	-0.011905879
147	0x3d188f70	0.037246168
148	0xbcf7197f	-0.030163525
149	0x3d58fb48	0.052974015
150	0xbbab01b0	-0.005218707
151	0x3d21e75a	0.039527275
152	0x3c15c590	0.009141341
153	0x3d648ca8	0.055798203
154	0x3c1f0258	0.009705149
155	0x3cd4d22c	0.025979124
156	0xbcdf1399	-0.027231025
157	0xbd5439eb	-0.051813047
158	0xbb134250	-0.0022469945
159	0x3d593d50	0.053036988
160	0xbd4fee8c	-0.050764605
161	0x3d63d33c	0.05562137
162	0xbd627ca9	-0.055294666
163	0xbc418364	-0.011811111
164	0xbd4b122a	-0.04957787
165	0xbcf9123f	-0.030404208
166	0x3d34c0d6	0.044129215
167	0xbc6d3ed0	-0.014480308
168	0x3cd16024	0.025558539
169	0x3cc233b8	0.023706302
170	0x3cf0a328	0.029374674
171	0xbd57e158	-0.05270514
172	0xbb0fe250	-0.002195496
173	0x3b0c26b0	0.0021385364
174	0x3c8d5120	0.017250597
175	0xbc84feea	-0.016234834
176	0xbd4c2bf6	-0.049846612
177	0xbca4cc28	-0.02011688
178	0xbc646898	-0.013940953
179	0x3c52c4d8	0.012864314
180	0xbd3331ed	-0.043748785
181	0xbd1c95fe	-0.03822898
182	0x3cf65e64	0.030074306
183	0x3d16a9d4	0.036783054
184	0x3d24c794	0.040229395
185	0x3c653a60	0.0139909685
186	0x3cdd4884	0.027012117
187	0x3b9cba38	0.004782941
188	0xbb921310	-0.004457839
189	0xbcea923f	-0.028634189
190	0x3ccb7fe4	0.024841256
191	0xbd072802	-0.03299714
192	0x3d3944a2	0.04523147
193	0xbb19ae40	-0.0023449808
194	0xbd00bac9	-0.031428132
195	0x3d504b20	0.050852895
196	0xbd528a81	-0.05140162
197	0xbd24498f	-0.040109213
198	0x3b2fdc20	0.0026834086
199	0xbd37248a	-0.04471258
200	0x3b04b930	0.0020251982
201	0xbc3abb94	-0.011397261
202	0x3d200f2e	0.039076976
203	0xbc9bcbda	-0.019018102
204	0x3c84d6e0	0.016215742
205	0xbd1095a4	-0.03529896
206	0x3d4d2fa6	0.05009427
207	0x3c474af0	0.012163863
208	0xbd3f3acd	-0.046686936
209	0xbc740e74	-0.014896024
210	0xbc4d71c4	-0.012539331
211	0xbcf94276	-0.030427199
212	0xbcc536d0	-0.024073988
213	0xbc72a21c	-0.014809158
214	0x3cb0972c	0.02155646
215	0xbb427a60	-0.0029674992
216	0xbcaad114	-0.02085165
217	0xbd4e3922	-0.050347455
218	0xbd39d315	-0.04536732
219	0xbc00e254	-0.007866461
220	0x3d30d20e	0.043169074
221	0xbc8be040	-0.017074704
222	0x3c683d48	0.014174767
223	0xbc3058d8	-0.0107633695
224	0x3ca044f8	0.019564137
225	0xbca511da	-0.020150114
226	0x3d3b5860	0.045738578
227	0x3d3ddb64	0.046351805
228	0xbd0c4fb3	-0.034255695
229	0xbcaa1648	-0.020762578
230	0x3bcf3b50	0.0063242093
231	0xbd1d9b90	-0.038478434
232	0x3bbe56f0	0.0058087036
233	0x3d518950	0.051156342
234	0xbd645826	-0.055748127
235	0xb9c30080	-0.0003719367
236	0xbc93eb7e	-0.018056627
237	0x3d071f0e	0.0329886
238	0x3cbd2fe0	0.023094118
239	0x3cb7b070	0.022423
240	0x3d5f4f64	0.054519072
241	0xbb0c71f0	-0.0021430217
242	0x3c93b204	0.01802922
243	0x3d210bac	0.03931777
244	0xbcb77f50	-0.022399575
245	0xbd188b35	-0.037242133
246	0xbc6d9b58	-0.014502369
247	0xbd5901dc	-0.05298029
248	0xbce2e229	-0.027695732
249	0x3cb301b4	0.021851398
250	0x3d4d6c82	0.05015231
251	0x3c0aaf60	0.008464664
252	0xbc305034	-0.010761309
253	0xbd06d830	-0.032921016
254	0x3d4d1e22	0.050077565
255	0x3d28aeba	0.041182257

fc1.bias f4 [50]
0	0xbcf6658c	-0.030077718
1	0x3c36c960	0.01115641
2	0x3d459718	0.048239797
3	0x3d1421ac	0.036164925
4	0xbd51d589	-0.051229034
5	0x3d00862a	0.03137795
6	0x3c72dd60	0.014823288
7	0xbcaa6516	-0.020800155
8	0xbbd4df60	-0.006496355
9	0xbd38bdea	-0.04510299
10	0xbd577aac	-0.052607223
11	0x3d175f6e	0.036956243
12	0x3c92fec4	0.017943747
13	0x3d3e9e1a	0.046537496
14	0x3d2f3ee8	0.0427846
15	0x3d4acef2	0.049513765
16	0x3d217b04	0.039423957
17	0x3d0dbdf4	0.03460498
18	0x3d1bb942	0.038018472
19	0x3d277b16	0.04088887
20	0x3c960cd8	0.018316671
21	0x3cd84308	0.02639915
22	0xbcb7bcd2	-0.022428904
23	0xbce26676	-0.027636748
24	0xbd377096	-0.044785105
25	0x3d1c5b18	0.03817281
26	0xbc5ff29c	-0.013668682
27	0xbb710b10	-0.0036780275
28	0xbd2cec23	-0.042217385
29	0xbd608b3e	-0.05482029
30	0xbbaaae58	-0.0052087717
31	0xbd087600	-0.03331566
32	0xbc736dbc	-0.014857706
33	0xbb4e6160	-0.0031491145
34	0xbc024dc0	-0.007953107
35	0x3d63397e	0.05547475
36	0x3c0cdfc8	0.0085982755
37	0xbcff0632	-0.031130884
38	0x3d2eb1ca	0.04265002
39	0xbc615e30	-0.013755366
40	0x3c819220	0.015816748
41	0xbcf550e8	-0.029945806
42	0x3c821ff4	0.015884377
43	0xbcc7b6fe	-0.02437925
44	0x3bd908b0	0.00662335
45	0x3d18c924	0.037301198
46	0x3d13ca32	0.0360815
47	0xbd0b8e46	-0.03407123
48	0xbd520868	-0.051277548
49	0x3d424f3c	0.047438845

fc2.weight f4 [10, 50]
0	0xbd985594	-0.07438198
1	0x3c7b2770	0.015329227
2	0xbcb97d18	-0.022642657
3	0x3c504b20	0.012713224
4	0x3dec2756	0.1153094
5	0x3dd7eb12	0.10542883
6	0xbdb7532f	-0.08951413
7	0xbc3738b0	-0.011182949
8	0x3db2de78	0.08733839
9	0xbc53d540	-0.012929261
10	0x3d7b63d4	0.0613745
11	0x3de73eea	0.11291297
12	0xbd6dfce4	-0.058102503
13	0x3d7e0b74	0.06202264
14	0x3df35e62	0.118832365
15	0xbcf992fc	-0.030465595
16	0x3db23e1c	0.08703253
17	0xbdf4fc85	-0.11962227
18	0xbdb97e0a	-0.09057243
19	0x3d518d18	0.051159948
20	0xbc79a480	-0.015236974
21	0xbcfb39bc	-0.030667178
22	0xbd65e5ce	-0.056127362
23	0xbe03b85e	-0.12863299
24	0x3d904564	0.07044485
25	0x3d019800	0.0316391
26	0xbd4597f6	-0.048240624
27	0xbcfbe874	-0.03075049
28	0xbdab3746	-0.08360152
29	0xbdf28d2c	-0.11843333
30	0xbbaa57e0	-0.005198464
31	0x3e0360e7	0.12829934
32	0x3dee70be	0.116425976
33	0x3d9ff7b2	0.07810916
34	0xbd0a136c	-0.03370993
35	0xbdfb7626	-0.122783944
36	0x3dfae11e	0.12249969
37	0xbb08d980	-0.0020881593
38	0x3e018a91	0.12650515
39	0x3ddded26	0.10836248
40	0x3db1e146	0.086855456
41	0xbe059dc6	-0.13048467
42	0xbdb87cc5	-0.09008173
43	0x39a78400	0.0003195107
44	0xbcf37fa4	-0.02972395
45	0xbde2d634	-0.11076012
46	0xbd7e32c6	-0.06206014
47	0xbdcd0729	-0.10011131
48	0xbca8c85c	-0.020603351
49	0x3dd516a2	0.104047075
50	0xbdac569d	-0.08414958
51	0xbde5e336	-0.11224978
52	0xbda9bb0d	-0.0828763
53	0xbd4b1610	-0.049581587
54	0x3db99bc6	0.090629146
55	0x3e06b52b	0.13155048
56	0x3df66072	0.12030114
57	0xbe019503	-0.126545
58	0xbdb76cea	-0.089563206
59	0x3dcfdb7e	0.10149287
60	0x3dd28880	0.102799416
61	0x3e02abe7	0.12760888
62	0x3deefcca	0.116693094
63	0xbe0c7359	-0.13715877
64	0xbd4d5bba	-0.050136305
65	0x3cf91bf0	0.03040883
66	0x39f76600	0.00047187507
67	0xbdebc6aa	-0.115125015
68	0x3da45c30	0.08025396
69	0xbd244d74	-0.040112928
70	0xbdd3912a	-0.10330422
71	0x3ddc0094	0.10742298
72	0xbda51d4e	-0.0806223
73	0xbda6e81b	-0.08149739
74	0x3e009409	0.12556471
75	0xbcc4eed0	-0.024039656
76	0xbd037cd0	-0.032101452
77	0xbdb5c3ea	-0.08875258
78	0x3d38c2d0	0.045107663
79	0xbd83d409	-0.06436927
80	0x3e03baa9	0.12864174
81	0xbc83d0e8	-0.016090825
82	0xbce3f814	-0.027828254
83	0xbe054a42	-0.13016608
84	0xbdf379f6	-0.118884966
85	0x3dfa321a	0.12216587
86	0x3ceb02f0	0.028687924
87	0xbd819314	-0.06326881
88	0xbd89f7dd	-0.06736729
89	0x3b871fa0	0.004123643
90	0x3d253e0c	0.040342376
91	0x3df0528a	0.11734493
92	0xbdae7d18	-0.085199535
93	0x3c474280	0.012161851
94	0xbdd08580	-0.10181713
95	0xbcabc5f4	-0.020968415
96	0xbcc67860	-0.024227321
97	0xbc879a00	-0.016552925
98	0x3dbb1426	0.091347024
99	0x3cb9ac28	0.022665098
100	0x3e088b43	0.13334374
101	0xbc8314f8	-0.01600121
102	0xbc361b40	-0.011114895
103	0xbd0e046e	-0.034672193
104	0x3d8ba3c6	0.06818347
105	0x3d121db0	0.035672843
106	0xbdd366c2	-0.10322334
107	0xbdde5df6	-0.108577654
108	0xbd80ae54	-0.062832505
109	0x3c036950	0.008020714
110	0xbd4239dc	-0.04741846
111	0xbd36a614	-0.04459198
112	0xbdb6216c	-0.088930935
113	0xbdfaa132	-0.12237777
114	0x3da7ccd0	0.08193362
115	0xbc8c74b4	-0.017145492
116	0x3dc41440	0.09574175
117	0x3da44e36	0.0802273
118	0xbc0953c0	-0.008381784
119	0x3cf0c2c8	0.029389754
120	0x3dfe6a4a	0.12422617
121	0xbe056b5f	-0.1302924
122	0xbd97f744	-0.07420209
123	0x3d76564c	0.060140893
124	0x3d1d3e5c	0.03838955
125	0x3db558ea	0.0885485
126	0x3d152184	0.036408916
127	0x3df0d1a6	0.11758737
128	0xbda14bfd	-0.07875822
129	0x3d1588b0	0.03650731
130	0xbdb21298	-0.08694953
131	0x3e08ade3	0.13347583
132	0x3e0c0ef1	0.13677575
133	0x3dd39d26	0.10332708
134	0x3d950d22	0.072778955
135	0x3df7a1fe	0.120914444
136	0xbdf01fdf	-0.11724829
137	0xbd83e3be	-0.06439923
138	0x3d998f0a	0.07497986
139	0xbd5615de	-0.052266948
140	0x3e064ba1	0.13114788
141	0xbda62a24	-0.081135064
142	0xbd7fc46a	-0.062443174
143	0xbdbbf780	-0.09178066
144	0xbd1b2b3e	-0.037883036
145	0x3def0c92	0.116723195
146	0xbcab3630	-0.020899862
147	0x3d161708	0.036643058
148	0x3d7c4410	0.061588347
149	0xbda683ac	-0.08130583
150	0xbd9b6903	-0.07588389
151	0x3e081b0f	0.13291572
152	0x3d297fb0	0.041381538
153	0x3d089d1c	0.033352956
154	0xbcadf008	-0.02123262
155	0x3dafc40c	0.08582315
156	0x3dbc2e74	0.09188548
157	0x3e053001	0.13006593
158	0x3d882208	0.06647116
159	0x3e0d2fbf	0.13787745
160	0xbdd137f7	-0.102157526
161	0xbc48b1f0	-0.012249455
162	0x3be42a00	0.0069630146
163	0x3dba0c9a	0.09084435
164	0xbdb32c42	-0.08748676
165	0x3ce7a0f0	0.028274983
166	0xbd5fe7fc	-0.054664597
167	0x3db1c446	0.08680014
168	0x3da4cb18	0.080465496
169	0xbd73b616	-0.059499823
170	0x3c1aefa0	0.009456545
171	0x3da2804a	0.079346254
172	0xbd8c79b2	-0.06859149
173	0xbdd9422d	-0.10608325
174	0xbdbeb830	-0.09312475
175	0xbc163b90	-0.009169474
176	0x3da54c74	0.08071223
177	0x3d84272e	0.064527854
178	0xbdb96dd2	-0.0905415
179	0x3cbe12a0	0.02320224
180	0x3e0b9a31	0.13633038
181	0xbb2450c0	-0.0025072545
182	0x3d17ccf4	0.037060693
183	0x3d13199c	0.035913095
184	0xbdc399aa	-0.095507935
185	0x3d38c26c	0.04510729
186	0x3d24c14c	0.040223405
187	0x3d4fd204	0.050737396
188	0x3dfca5e2	0.12336327
189	0x3ca49220	0.02008921
190	0xbd0d82fa	-0.034548737
191	0xbdc17267	-0.09445649
192	0x3dcee318	0.101019084
193	0x3d2721ac	0.040803596
194	0xbd9840ac	-0.0743421
195	0x3de897d6	0.113570854
196	0x3dc3a540	0.09553003
197	0x3d5d8034	0.054077342
198	0x3dae8db6	0.08523123
199	0xbc9a6f4c	-0.018851899
200	0x3c9b1f78	0.018935904
201	0xbdf2b670	-0.118512034
202	0xbd089baa	-0.033351578
203	0xbb828e40	-0.0039842427
204	0xbdc41e8e	-0.0957614
205	0xbd801834	-0.062546164
206	0x3dcf2048	0.10113579
207	0x3d224a40	0.03962159
208	0x3dc47944	0.09593442
209	0x3dfc8d36	0.12331621
210	0xbcb1fa1c	-0.021725707
211	0x3b58ee40	0.0033100992
212	0x3d97639e	0.07392047
213	0xbcc94524	-0.024569102
214	0xbc734c50	-0.014849737
215	0x3d0005d0	0.031255543
216	0xbb577e80	-0.0032881796
217	0xbd07b580	-0.033132076
218	0x3e045e3b	0.12926571
219	0x3e0fa9cd	0.14029618
220	0x3cec15c0	0.028818965
221	0xbd9ebf62	-0.07751347
222	0xbd38bd96	-0.04510268
223	0x3cf88340	0.030336022
224	0xbdd31262	-0.103062406
225	0x3d073abc	0.033014998
226	0x3c2ee900	0.010675669
227	0xbc5c7360	-0.013455242
228	0x3df674ca	0.120339945
229	0xbe0261b2	-0.1273258
230	0x3bb06660	0.005383298
231	0xbdcc29b6	-0.09968893
232	0x3d5444e4	0.05182351
233	0xbdf86384	-0.12128356
234	0xbdb685d4	-0.089122444
235	0xbdc2a2de	-0.09503721
236	0x3e00fefd	0.1259727
237	0x3dec23e6	0.115302846
238	0xbd509590	-0.050923884
239	0x3deda0a6	0.11602907
240	0xbdcea6e5	-0.10090426
241	0x3d8c44ae	0.06849037
242	0xbdd4657c	-0.10370919
243	0xbd0cfa66	-0.034418486
244	0xbd5391ce	-0.051652722
245	0xbd0d3c7e	-0.034481518
246	0xbdc10f91	-0.09426797
247	0x3db18e78	0.08669752
248	0xbd4b1dce	-0.04958897
249	0xbdfa79e3	-0.12230279
250	0xbddc95d3	-0.10770764
251	0xbc8bc69c	-0.017062478
252	0xbdf92d80	-0.121668816
253	0x3ddfbc22	0.10924555
254	0xbd93088b	-0.07179364
255	0x3db3611c	0.087587565

fc2.bias f4 [10]
0	0xbdb7244e	-0.089424714
1	0x3c99ef90	0.01879099
2	0xbc5cd830	-0.0134792775
3	0xbdb585c5	-0.08863405
4	0xbdbcaa30	-0.09212148
5	0x3dae034e	0.08496724
6	0x3d814f3c	0.06313941
7	0x3e0ce69f	0.1375985
8	0x3c402760	0.011728138
9	0x3dd850ce	0.10562287
