save/models/client/testmodel.pth (torch, 92463 bytes, 8 tensors)

conv1.weight f4 [10, 3, 5, 5]
0	0xbd8e7932	-0.0695671
1	0xbdcca355	-0.099920906
2	0xbdbdde9d	-0.09270976
3	0x3d430aa4	0.04761757
4	0xbdb146dd	-0.08656094
5	0x3d5854e0	0.052815318
6	0xbd856ff6	-0.065154955
7	0xbd8a63bc	-0.06757304
8	0x3cc7a400	0.024370193
9	0xbd8587fe	-0.06520079
10	0x3da3639e	0.07977985
11	0xbcaf6548	-0.0214106
12	0x3b9ead00	0.0048424006
13	0x3d9ac9ea	0.07558043
14	0x3d30a480	0.04312563
15	0x3d81f1ea	0.063449696
16	0x3d886ee0	0.06661773
17	0xbd143fca	-0.036193646
18	0x3b9cc4a0	0.0047841817
19	0x3d1076ac	0.035269424
20	0x3c0b10e8	0.0084879175
21	0x3d65f25c	0.056139335
22	0x3d3b4538	0.04572031
23	0xbd9b0847	-0.07569938
24	0xbdafe4c2	-0.08588554
25	0x3d69f824	0.05712141
26	0x3dc2b874	0.09507838
27	0xbc27c398	-0.010239504
28	0x3d25515c	0.040360793
29	0xbd2a2fbe	-0.041549437
30	0xbd1cdeda	-0.038298465
31	0xbd7dc179	-0.061952088
32	0x3d95b9de	0.07310842
33	0x398cda00	0.00026865304
34	0x3c9efdb8	0.019408092
35	0x3d3b5014	0.045730665
36	0xbdbdc8c1	-0.092668064
37	0xbdaf72f1	-0.08566845
38	0xbd93bf18	-0.072141826
39	0x3dbdde30	0.092708945
40	0x3d9315b4	0.07181874
41	0x3d266678	0.040625066
42	0xbd8028d4	-0.06257787
43	0x3b289cc0	0.0025728196
44	0xbd9b6428	-0.07587463
45	0xbc4c8a98	-0.012484215
46	0x3cbd5818	0.023113295
47	0xbd7f36fa	-0.06230829
48	0xbd9f3c45	-0.077751674
49	0x3ce1e480	0.027574778
50	0x3c769760	0.015050739
51	0xbb472d00	-0.0030391812
52	0xbdc78620	-0.09742379
53	0x3d49f668	0.049307257
54	0x3dcbabe4	0.09944895
55	0x3b0e4300	0.0021707416
56	0x3d1ce558	0.038304657
57	0xbd0ab5ee	-0.033864908
58	0xbddfb745	-0.10923628
59	0xbbc94d20	-0.006143227
60	0xbd75da61	-0.060022715
61	0x3dd3ddc0	0.1034503
62	0xbdaceebc	-0.084439725
63	0xbc96e23c	-0.018418424
64	0xbb874a90	-0.0041287616
65	0x3de19900	0.110155106
66	0xbc35c6c8	-0.011094756
67	0x3dbe0bf4	0.09279624
68	0x3d4f1978	0.0505614
69	0x3ce838e0	0.028347433
70	0x3c836448	0.016039029
71	0xbdaaffff	-0.08349609
72	0xbd586492	-0.052830286
73	0x3d9683e4	0.07349375
74	0xbd7d20ea	-0.061798967
75	0xbd7c4c7e	-0.061596386
76	0x3dd10726	0.102064416
77	0x3d3ca790	0.046058238
78	0xbce8eab0	-0.02843222
79	0xbbd6db00	-0.0065568686
80	0x3dd84122	0.10559298
81	0xbddcd3b3	-0.10782566
82	0xbdbe1d31	-0.092829116
83	0x3de652be	0.112462506
84	0xbdb85483	-0.09000494
85	0xbdd81d4c	-0.10552463
86	0x3dc89978	0.09794897
87	0x3cf69770	0.030101508
88	0x3d580324	0.05273737
89	0x3d913f9c	0.07092211
90	0xbd06ecb8	-0.032940596
91	0xbc09b298	-0.0084043965
92	0x3de035ce	0.109477624
93	0xbcdb6554	-0.026781715
94	0x3d910530	0.070810676
95	0xbd50fbe4	-0.05102147
96	0xbd152ac2	-0.03641773
97	0xbca4b3cc	-0.020105265
98	0xbd496028	-0.049163967
99	0xbd322034	-0.043487743
100	0x3d9fc30e	0.078008756
101	0x3d9978a2	0.07493712
102	0xbd228250	-0.039675057
103	0xbd455982	-0.048181064
104	0xbdd15fca	-0.102233484
105	0x3de36254	0.11102739
106	0x3dd4b3fc	0.10385892
107	0x3d80b31e	0.06284164
108	0x3dc5ab06	0.09651761
109	0x3de1d9f6	0.11027901
110	0x3bff3a80	0.007788956
111	0xbcba141c	-0.022714667
112	0xbd96d3b8	-0.07364601
113	0x3da9c73a	0.082899526
114	0xbddd6bc6	-0.10811572
115	0x3c0a6da8	0.008448996
116	0x3ca63980	0.02029109
117	0xbd50a016	-0.05093392
118	0xbd5d98ca	-0.05410079
119	0xbda40750	-0.08009207
120	0x3c902168	0.017594054
121	0x3d791fc4	0.06082131
122	0xbd030162	-0.03198374
123	0x3bd93a60	0.0066292733
124	0xbcf4350c	-0.029810451
125	0x3ddc8b78	0.10768789
126	0x3cf17090	0.02947262
127	0xbdea69f9	-0.11445994
128	0x3de5bcf4	0.112176806
129	0xbd4e41c8	-0.050355703
130	0xbd8e1cc8	-0.06939083
131	0x3c1bec38	0.009516768
132	0xbda7ad17	-0.08187311
133	0xbdb85882	-0.090012565
134	0x3d46c438	0.048526973
135	0x3c8f5950	0.017498642
136	0x3a8d75c0	0.0010792539
137	0x3de0a99c	0.109698504
138	0x3d39f800	0.045402527
139	0x3cdd8560	0.027041137
140	0x3ca98400	0.020692825
141	0xbd22646c	-0.03964655
142	0xbdc6f1fc	-0.097141236
143	0x3dd50f20	0.104032755
144	0xbdc478e8	-0.095933735
145	0xbd673395	-0.056445677
146	0x3d3bf4f4	0.045887902
147	0x3af57240	0.0018726066
148	0xbd65fbaf	-0.056148227
149	0xbd96b6e9	-0.07359106
150	0x3d7f3a28	0.06231132
151	0xbd9323c4	-0.07184556
152	0x3d17d9e8	0.037073046
153	0xbd8102eb	-0.06299385
154	0x3cbc8fb0	0.023017734
155	0x3bf85f20	0.007579699
156	0x3d47dad8	0.04879269
157	0x3db8412a	0.08996804
158	0xbdc8665b	-0.09785148
159	0xbd918ea8	-0.07107288
160	0xbd714312	-0.058901854
161	0xbc88cdc0	-0.016699672
162	0xbc3f94f0	-0.011693224
163	0x3d9da894	0.07698169
164	0xbc92a970	-0.01790306
165	0x3d5f2bc4	0.054485098
166	0xbbff8f00	-0.0077990294
167	0xbd80e9ed	-0.06294618
168	0x3d6c4d30	0.0576908
169	0xbd8b9080	-0.068146706
170	0x3d492c08	0.049114257
171	0xbda5d3ce	-0.08097039
172	0x3c9282b0	0.017884582
173	0x3d9df152	0.07712044
174	0x3c8b2670	0.016986102
175	0xba457900	-0.0007532984
176	0x3dcf6b34	0.10127869
177	0x3a9bb100	0.0011878312
178	0xbdb0cf35	-0.086332716
179	0x3d740790	0.059577525
180	0xbd090a0a	-0.03345684
181	0x3dbd494c	0.09242496
182	0x3d446df4	0.047956422
183	0x3d469fc0	0.048492193
184	0xbd9f93aa	-0.077918366
185	0x3da2c512	0.079477444
186	0xbdd61ad0	-0.10454333
187	0xbdea7ecd	-0.114499666
188	0xbd659ccf	-0.056057747
189	0x3dacefac	0.08444151
190	0x3d7e5168	0.062089354
191	0x3d8a02ac	0.06738791
192	0xbd82de50	-0.06390059
193	0x3d369368	0.04457417
194	0x3de9c9ba	0.114154294
195	0xbd4401e2	-0.047853358
196	0x3ddf7d56	0.10912578
197	0x3d7d377c	0.061820492
198	0x3bf148e0	0.0073634237
199	0xbdb34d10	-0.08754933
200	0x3dd44c02	0.1036606
201	0x3d2c37d0	0.042045414
202	0x3cf6df20	0.030135691
203	0x3c456b10	0.0120494515
204	0x3dabece2	0.08394791
205	0xbc570570	-0.013123855
206	0x3ca942d0	0.020661741
207	0xbd426890	-0.047463
208	0xbc81f9d4	-0.015866198
209	0x3c26abd0	0.010172799
210	0xbb8b25b0	-0.004246436
211	0x3d022238	0.031770915
212	0x3dc00142	0.0937524
213	0x3dc517a0	0.09623647
214	0xbcd631c0	-0.02614677
215	0x3dc2f280	0.095189095
216	0x3d9f2a2c	0.077717155
217	0x3d83b162	0.064303175
218	0x3c3f0da0	0.011660963
219	0xbde8fcd6	-0.1137635
220	0xbddbe590	-0.10737145
221	0x3b91f160	0.004453823
222	0xbd00e7f0	-0.031471193
223	0xbd002062	-0.031280883
224	0x3caae7f0	0.02086255
225	0x3d1c7a88	0.038202792
226	0x3c9f7f98	0.019470021
227	0x3dbfdacc	0.09367904
228	0xbdd79795	-0.10526959
229	0x3dd9303e	0.106049046
230	0xbdb2a7d3	-0.08723416
231	0x3de925ae	0.1138414
232	0x3d700598	0.058599085
233	0x3bc2e9d0	0.005948283
234	0x3d3da0d0	0.04629594
235	0xbdadefc0	-0.08492994
236	0xbd804f68	-0.062651455
237	0xbdd4a969	-0.10383875
238	0x3dd434b6	0.10361616
239	0x3c71fc70	0.014769658
240	0xbd01fbea	-0.031734385
241	0xbdcdcaa0	-0.10048413
242	0x3de2994e	0.11064397
243	0xbcad2020	-0.021133482
244	0x3bc5a150	0.006031193
245	0x3b5f9b60	0.003411971
246	0xbdd4c6fc	-0.10389516
247	0x3d9373f6	0.07199852
248	0xbd797f2a	-0.06091229
249	0xbd41bc4e	-0.047298722
250	0x3c07d338	0.008290105
251	0xbcfd5558	-0.030924484
252	0x3c80bac8	0.015714064
253	0xbd1a1a60	-0.03762281
254	0xbd258dd6	-0.04041847
255	0x3ca77dc0	0.020445704

conv1.bias f4 [10]
0	0xbca68da8	-0.020331219
1	0x3da29344	0.07938245
2	0xbd09081a	-0.033454992
3	0xbddede83	-0.108822845
4	0x3db9ee0e	0.090786085
5	0x3ac8c2c0	0.0015316829
6	0xbc26b778	-0.010175578
7	0x3cb5dac0	0.022199035
8	0x3dc31118	0.09524745
9	0x3dd9be6e	0.10632025

conv2.weight f4 [20, 10, 5, 5]
0	0xbbed9d60	-0.0072514266
1	0xbd4a36a8	-0.04936853
2	0xbd36cc77	-0.044628587
3	0xbbe869e0	-0.0070926994
4	0x3d604a2c	0.054758236
5	0xbccb98f2	-0.024853203
6	0x3cc82a74	0.024434306
7	0xbb645350	-0.0034839697
8	0xbd457c50	-0.048214257
9	0xbd5adef3	-0.053435277
10	0xb9fa1b00	-0.00047703832
11	0x3d58ef8a	0.052962817
12	0x3d127cce	0.035763554
13	0x3bb200b0	0.005432211
14	0xbd69675c	-0.056983337
15	0x3d73256a	0.059361853
16	0x3b02a880	0.001993686
17	0x3d3538fa	0.04424379
18	0xbd100733	-0.035163116
19	0x3c92b6d4	0.017909445
20	0xbd46ee18	-0.048566908
21	0xbd3b3cf5	-0.04571243
22	0x3d4005e4	0.046880618
23	0x3ccacd0c	0.024755977
24	0xbd42e706	-0.047583602
25	0xbbbd5928	-0.0057784505
26	0xbd31d97c	-0.0434203
27	0x3d153ac8	0.03643301
28	0x3cac26f8	0.021014675
29	0xbccf3cd2	-0.025297556
30	0xbd053f8b	-0.032531302
31	0xbd4008c6	-0.046883367
32	0xbb7f5c40	-0.0038964897
33	0xbd47bcf0	-0.04876417
34	0x3d6691c0	0.05629134
35	0x3a0aca00	0.00052943826
36	0x3cf4a83c	0.029865377
37	0x3b92c730	0.0044793114
38	0x3d12940e	0.035785727
39	0xbab2d0e0	-0.0013642572
40	0xbd092b50	-0.03348857
41	0xbd810a21	-0.0630076
42	0xbd567772	-0.052360006
43	0xbd1d0b22	-0.038340695
44	0x3a965000	0.0011467934
45	0xbd793d0f	-0.060849246
46	0x3c99fc80	0.01879716
47	0xbd7ee323	-0.062228333
48	0x3d6805b6	0.05664607
49	0x3d1d8e12	0.038465567
50	0xbd73047d	-0.059330452
51	0x3d690024	0.0568849
52	0xbd788f90	-0.060683787
53	0xbc691afc	-0.014227625
54	0x3d14b54a	0.036305703
55	0x3c60ff08	0.013732679
56	0x3d3056e4	0.043051615
57	0x3ce8e900	0.028431416
58	0xbd171497	-0.03688487
59	0x3ce3faac	0.02782949
60	0x3bf2def0	0.00741183
61	0xbca9f2e6	-0.020745706
62	0xbc0cf770	-0.008603916
63	0xbd5ebe42	-0.054380663
64	0xbd300e7c	-0.042982563
65	0xbd5baf98	-0.053634256
66	0xbd722b9b	-0.059123617
67	0x3d4011d0	0.046891987
68	0x3d0ede0c	0.03487973
69	0xbd56889e	-0.052376382
70	0x3cbb3fc0	0.022857547
71	0x3c71feb0	0.014770195
72	0xbbddbd88	-0.0067669787
73	0xbd62189a	-0.055199243
74	0x3cbe19f0	0.023205727
75	0x3ceab3e4	0.028650232
76	0x3c9f4e08	0.019446388
77	0x3d3ac144	0.04559447
78	0x3d3318b6	0.043724738
79	0xbb2f32f0	-0.0026733242
80	0xbd2c2ccc	-0.04203491
81	0xbd3f140e	-0.046649985
82	0x3c5cbb20	0.013472348
83	0x3d2dd0ae	0.04243534
84	0x3c294a48	0.010332651
85	0xbc8c6984	-0.017140158
86	0xbd0cf252	-0.034410782
87	0xbd80779a	-0.06272812
88	0xbb1d8d90	-0.0024040677
89	0x3cda5fd4	0.026657023
90	0xbd434f2e	-0.047682934
91	0xbd2edc79	-0.042690728
92	0xbd7de29b	-0.061983686
93	0x3d61acf4	0.05509658
94	0x3c858898	0.016300485
95	0x3d17f5e4	0.037099734
96	0x3d248c18	0.040172666
97	0xbd0deda6	-0.034650467
98	0x3bcf1e20	0.00632073
99	0xbc13e0d4	-0.009025771
100	0xbcc5b7e0	-0.02413553
101	0xbc5e02a4	-0.013550434
102	0xbd7941a3	-0.06085361
103	0x3d1db7aa	0.038505234
104	0xbd3c86d0	-0.046027005
105	0xba11b400	-0.0005558133
106	0x3cda4e08	0.026648536
107	0xbd2728fa	-0.040810563
108	0x3d1f9db0	0.038968742
109	0xbbf07f48	-0.007339392
110	0xbd283eb4	-0.041075423
111	0xbce0828a	-0.027405996
112	0xbbce8df8	-0.006303545
113	0xbbb0b638	-0.005392816
114	0xbc494344	-0.012284104
115	0x3d313890	0.043266833
116	0x3d1c511e	0.038163297
117	0xbd169962	-0.03676737
118	0xbce598f8	-0.028027043
119	0x3d648aaa	0.055796303
120	0xbb307810	-0.0026927032
121	0x3bcf9ed0	0.0063360706
122	0xbce4aba4	-0.027913876
123	0x3d7195fa	0.05898092
124	0x3d7b9b90	0.061427653
125	0xbb408b90	-0.002938006
126	0xbd4b82eb	-0.0496854
127	0x3cf6676c	0.030078612
128	0xbc9a5abe	-0.018842097
129	0xbd166492	-0.036717005
130	0x3ccf4e4c	0.02530589
131	0x3c6dc570	0.014512405
132	0x3c9da668	0.019244388
133	0xbd4b656c	-0.04965727
134	0x3d743ef8	0.059630364
135	0xbcc443fc	-0.023958199
136	0xbce4feee	-0.027953591
137	0x3c718068	0.014740087
138	0x3d1e28ae	0.038613014
139	0x3c2083d0	0.009797052
140	0x3d59e646	0.05319812
141	0xbc8f3b3a	-0.017484296
142	0x3cd1a940	0.0255934
143	0xb9dfa300	-0.0004265532
144	0x3cc3d5b0	0.023905605
145	0xbd1057e8	-0.035240084
146	0xbd28bef4	-0.041197732
147	0xbd223400	-0.039600372
148	0xbc5354f8	-0.012898676
149	0xbd5fc68a	-0.0546327
150	0xbcb635fc	-0.022242539
151	0x3d7cb8b4	0.061699584
152	0x3c9312a8	0.017953232
153	0xbd152076	-0.03640791
154	0xbbd77840	-0.006575614
155	0xbd3cd482	-0.0461011
156	0x3d599b04	0.05312635
157	0xbccb547a	-0.024820555
158	0x3d804608	0.062633574
159	0x3c2f18d8	0.010687076
160	0xbd56cbac	-0.05244033
161	0xbcca4042	-0.024688844
162	0x3ccb58dc	0.024822645
163	0xbd444da0	-0.04792559
164	0xbce7f60a	-0.028315563
165	0x3d71249a	0.058872797
166	0xbd6db228	-0.05803123
167	0x3c107cb8	0.008818798
168	0x3cdb7ac0	0.02679193
169	0x3d8009c4	0.06251863
170	0xbc627754	-0.013822395
171	0x3b944ca0	0.004525736
172	0xbccddcf0	-0.025129765
173	0xbd43407e	-0.047668926
174	0xbd761f7e	-0.060088627
175	0xbc3b2478	-0.011422269
176	0xbcb22906	-0.021748077
177	0xbc884f26	-0.016639303
178	0xbd0930eb	-0.033493917
179	0xbbab1be0	-0.005221829
180	0xbc848408	-0.016176239
181	0x3ce01780	0.027354956
182	0xbc7826bc	-0.015145954
183	0x3d091f14	0.033476904
184	0xbaef3960	-0.0018251352
185	0xbced64a2	-0.02897865
186	0x3cbbace0	0.022909582
187	0x3c4155f8	0.011800282
188	0x3d5a595a	0.05330787
189	0x3d6b01a4	0.05737461
190	0xbc602940	-0.01368171
191	0xbd099694	-0.033590868
192	0xbcc3d662	-0.023905937
193	0x3bb9ea10	0.0056736544
194	0xbd3902b8	-0.04516861
195	0xbd46cee1	-0.04853714
196	0xbc849588	-0.016184583
197	0xbbed68b0	-0.0072451457
198	0xb9a35700	-0.00031154603
199	0xbcb03b58	-0.021512672
200	0x3c0f3198	0.008739851
201	0xbc15e730	-0.009149358
202	0x3ba53040	0.0050411522
203	0x3d61df7a	0.055144764
204	0x3b97ca50	0.004632272
205	0x3cc1c03c	0.023651235
206	0xbcf472d4	-0.02983991
207	0x3aad6100	0.0013227761
208	0xbd37dc6c	-0.044887945
209	0xbd637aec	-0.05553715
210	0xbd0823fc	-0.033237442
211	0xbd791001	-0.06080628
212	0xbb8e5608	-0.004343752
213	0x3ced7550	0.028986603
214	0x3cde8cf8	0.027166829
215	0xbd44d754	-0.048056915
216	0xbcd723ba	-0.026262153
217	0x3d07853a	0.03308604
218	0x3c9039bc	0.017605655
219	0x3d6625da	0.05618844
220	0x3ca61abc	0.02027642
221	0x3d3da76c	0.046302244
222	0x3ce1e308	0.027574077
223	0xbd73e66b	-0.059545916
224	0x3a9ee2c0	0.001212202
225	0x3c8c33d8	0.017114565
226	0xbd6aee9d	-0.057356466
227	0xbc6a4980	-0.01429975
228	0x3d55972a	0.052146114
229	0xbd6c2e86	-0.057661556
230	0xbd3d4b76	-0.046214543
231	0xbccb85f0	-0.02484414
232	0x3a966400	0.0011473894
233	0xbd11e61c	-0.03561984
234	0x3cc61160	0.024178207
235	0xbc881e0a	-0.016615886
236	0x3d1f2c34	0.038860515
237	0xbcdf6ede	-0.027274545
238	0xbd61f9f0	-0.05517
239	0xbd4dc387	-0.050235298
240	0x3cbd884c	0.02313628
241	0xbbec84e0	-0.0072179884
242	0x3d43dea6	0.047819756
243	0xbd3c90bc	-0.046036467
244	0x3d401d04	0.04690267
245	0xbc835022	-0.016029421
246	0x3d7ee1c8	0.06222704
247	0xbc9d3ebc	-0.019194953
248	0x3cea9740	0.028636575
249	0xbcc9a504	-0.024614818
250	0xbc71c5a4	-0.014756594
251	0x3c67f9f8	0.014158718
252	0xbd0efa6e	-0.034906797
253	0x3d660fa2	0.056167252
254	0x3d5b4f08	0.053542167
255	0x3cdc5534	0.026896097

conv2.bias f4 [20]
0	0xbd42d26c	-0.047563955
1	0x3cabf658	0.02099149
2	0xbd57b30e	-0.052660994
3	0xbcb5df6a	-0.022201259
4	0x3d516b54	0.051127747
5	0xbb895ab0	-0.004191719
6	0x3d674032	0.056457706
7	0xbc9aebb0	-0.018911213
8	0x3cb68350	0.022279412
9	0x3d1573d4	0.036487415
10	0x3cd79118	0.026314303
11	0xbbdfea58	-0.006833356
12	0x3d1ed58e	0.03877788
13	0x3cdee190	0.027207166
14	0xbcbd4530	-0.02310428
15	0xbd4efa32	-0.050531574
16	0x3c2d1260	0.010563463
17	0xbafc10e0	-0.0019231103
18	0x3d65fdd4	0.056150272
19	0xbcf4ac26	-0.029867243

fc1.weight f4 [50, 320]
0	0xbd3f7f58	-0.046752304
1	0xbca5edac	-0.020254932
2	0x3cf1a240	0.029496312
3	0x3d4fed24	0.050763264
4	0x3cef7170	0.029228896
5	0x3d078640	0.033087015
6	0x3ac64ac0	0.0015128478
7	0x3b959940	0.004565388
8	0xbd520289	-0.05127195
9	0xbd3a613f	-0.045502897
10	0xbc8b68ea	-0.0170178
11	0xbc10aa34	-0.008829642
12	0xbd418768	-0.047248274
13	0x3c96be44	0.018401273
14	0x3c7d2030	0.015449569
15	0xbd20d69b	-0.039267164
16	0x3c757048	0.014980383
17	0x3d51d8a6	0.051232003
18	0x3cd197ac	0.025585018
19	0x3d52ffbe	0.051513426
20	0xbc0fed48	-0.0087846
21	0xbc012b48	-0.007883854
22	0xbce5ab5a	-0.028035808
23	0xbb3f31c0	-0.002917394
24	0xbd488828	-0.048957974
25	0xbcb0ae8a	-0.021567602
26	0x3d39750e	0.045277648
27	0x3d353e90	0.044249117
28	0xbc62b9d0	-0.013838246
29	0x3c002b78	0.007822864
30	0x3c20ae88	0.0098072365
31	0x3d292e94	0.041304186
32	0x3d38445c	0.044987068
33	0xbccff2fa	-0.025384415
34	0xbca0fd76	-0.01965211
35	0x3ce58aa8	0.028020218
36	0x3d08f4c6	0.03343656
37	0x3b35c370	0.0027734898
38	0x3d606c36	0.054790698
39	0x3ba9d040	0.005182296
40	0xb8cd0c00	-9.777397e-05
41	0x3d3b5222	0.045732625
42	0x3cef5d20	0.02921921
43	0x3ccc1a00	0.024914742
44	0xbc806ba2	-0.015676323
45	0xbd32252c	-0.04349248
46	0x3c6f9230	0.014622256
47	0xbd1fa9d0	-0.038980305
48	0xbceb66b0	-0.028735489
49	0xbd63bcac	-0.055599853
50	0x3cd96b00	0.02654028
51	0x3d324488	0.043522388
52	0xbd4fad85	-0.05070259
53	0x3d630c84	0.055431858
54	0x3d61fd0c	0.055172965
55	0x3d4bc0f0	0.049744546
56	0xbd2d97c6	-0.04238107
57	0xbc313de8	-0.010817982
58	0xbd5efbe7	-0.05443945
59	0xbd52f67e	-0.051504605
60	0xbc1697fc	-0.009191509
61	0xbd501008	-0.05079654
62	0x3a3fcdc0	0.0007316731
63	0x3cf32144	0.029678948
64	0x3ba3a850	0.0049944296
65	0x3d5a9d94	0.053372934
66	0xbce7cfce	-0.028297331
67	0xbc046a24	-0.0080819465
68	0xbd31857f	-0.043340202
69	0xbcf95103	-0.030434137
70	0x3c0921d0	0.008369878
71	0xbd4aa0d9	-0.049469803
72	0xbc891f38	-0.01673852
73	0x3d5b0c90	0.053478777
74	0xbcacc8dc	-0.021091871
75	0xbccbf6d8	-0.024897978
76	0xbc16e708	-0.009210356
77	0xbc84c898	-0.016208932
78	0xbd289ed3	-0.04116709
79	0x3bc88f50	0.0061206
80	0x3cdb5e68	0.026778415
81	0x3b111400	0.0022137165
82	0x3c95a3a0	0.018266499
83	0xbbf42d48	-0.007451687
84	0x3ac84900	0.0015280545
85	0xbcedea94	-0.02904252
86	0x3c2fa210	0.010719791
87	0x3d2a39b0	0.04155892
88	0xbcd6938e	-0.026193406
89	0x3c6bcd70	0.014392242
90	0x3cf3eee0	0.02977699
91	0xbd3bda18	-0.045862287
92	0xbc19b510	-0.009381548
93	0x3ce57bc8	0.028013125
94	0x3beced50	0.0072304383
95	0x3d04a910	0.032387793
96	0x39803400	0.00024452806
97	0x3cedcc6c	0.02902814
98	0xbd5fd0b8	-0.05464241
99	0xbc07cf64	-0.008289192
100	0xbd2d4f0e	-0.04231172
101	0x3d3f328a	0.046679057
102	0x3caa39d0	0.02077952
103	0xbcf43d04	-0.02981425
104	0xbbf8c9f0	-0.007592432
105	0x3d2476c6	0.040152334
106	0x3d58393a	0.05278895
107	0x3d0b4594	0.0340019
108	0x3cffd494	0.031229295
109	0x3be10390	0.0068668798
110	0xbc9d1ff4	-0.019180275
111	0x3d1d14c8	0.038349897
112	0x3d3b6d72	0.045758672
113	0x3c399528	0.0113270655
114	0xbd5be5b7	-0.05368587
115	0xbd254c36	-0.040355884
116	0x3d3358f0	0.04378599
117	0x3c8cce4c	0.017188214
118	0xbd1b4c28	-0.037914425
119	0x3cbd462c	0.02310475
120	0xbb2c9ec0	-0.002633974
121	0x3caa06c4	0.02075518
122	0x3d11e014	0.03561409
123	0x3c1e63a8	0.009667315
124	0x3cf3e530	0.029772371
125	0xba62f440	-0.0008657612
126	0xbd15d273	-0.036577653
127	0x3d46e0c6	0.048554204
128	0xbcd5f186	-0.026116144
129	0x3d628f70	0.055312574
130	0x3ca918e0	0.020641744
131	0xbd321600	-0.043478012
132	0x3c785fc8	0.015159555
133	0xbcc0792e	-0.023495283
134	0xbbdc1bc0	-0.0067171752
135	0xbd0b0f24	-0.033949986
136	0x3c4a0e88	0.012332566
137	0x3cefbe58	0.029265568
138	0xbd4d8970	-0.0501799
139	0x3d254222	0.040346272
140	0xbd129999	-0.035791013
141	0xbcb26e1e	-0.021781024
142	0x3be80750	0.00708095
143	0xb96dd200	-0.00022680312
144	0x3d5f6e6a	0.05454866
145	0x3d354788	0.04425767
146	0x3bd74cb8	0.006570425
147	0x3d46fa08	0.048578292
148	0x3c654640	0.0139938
149	0xbd18d0d6	-0.037308536
150	0xbd318a51	-0.0433448
151	0xbd2ca67f	-0.04215097
152	0x3cd62d34	0.026144601
153	0x3d246c58	0.040142387
154	0x3c164408	0.009171493
155	0x3cc5eaac	0.024159752
156	0xbc78fac0	-0.015196502
157	0xbb811950	-0.003939785
158	0x3c501fd0	0.012702897
159	0x3be83950	0.0070869103
160	0x3d649e02	0.05581475
161	0xbcaeb34a	-0.021325726
162	0xbd1fdd05	-0.03902914
163	0x3d2560ac	0.040375397
164	0x3d29e88a	0.041481532
165	0xbb9d8340	-0.004806906
166	0xbcd95c57	-0.026533289
167	0x3cc2aa14	0.02376274
168	0xbd418f7a	-0.04725597
169	0xbd3fdd7c	-0.046842083
170	0x3ce6ac78	0.028158411
171	0xbca8a530	-0.02058658
172	0x3ce7f7b4	0.028316356
173	0xbd5a914c	-0.053361222
174	0x3b996158	0.0046807937
175	0xbd3c4e00	-0.045972824
176	0x3d62b674	0.055349782
177	0xbb23c420	-0.0024988726
178	0xbd4f8dc8	-0.050672323
179	0x3ce811d4	0.028328814
180	0x3bbfae58	0.005849641
181	0x3d16e3bc	0.03683828
182	0xbaaa1f00	-0.001297921
183	0xbb5f7970	-0.0034099482
184	0x3d449f62	0.04800356
185	0x3d64d0a8	0.055863053
186	0xbd19baea	-0.03753177
187	0x3d621b82	0.055202015
188	0x3d27c32e	0.040957622
189	0xba5b0ec0	-0.0008356385
190	0xbb864078	-0.0040970407
191	0x3ccba670	0.024859637
192	0x3d1ce436	0.038303576
193	0xbc7739c0	-0.015089452
194	0x3d381456	0.04494127
195	0xbc1238c0	-0.008924663
196	0xba8b7220	-0.001063887
197	0x3ba85f38	0.005138304
198	0x3c9dc1c8	0.019257441
199	0x3d1bde70	0.03805393
200	0xbd21e91c	-0.03952895
201	0xbccbc415	-0.024873773
202	0xbd1172ea	-0.03550998
203	0x3d4a40f6	0.049378358
204	0xbd23a7ef	-0.039955076
205	0xbc671690	-0.0141045
206	0xb9cdc480	-0.0003924705
207	0xbd3c4ab8	-0.045969695
208	0xbce12003	-0.027481085
209	0xbc8cc550	-0.01718393
210	0xbc6a954c	-0.014317822
211	0xbb946f90	-0.004529901
212	0x3d00dd06	0.031460784
213	0x3d0481b2	0.03235025
214	0xbd4f5fe3	-0.050628554
215	0xbba5aa18	-0.005055677
216	0xbd4d3b5f	-0.05010545
217	0xbc369afc	-0.01114535
218	0xbce6891a	-0.028141547
219	0xbc486364	-0.012230728
220	0xbd2aa1d2	-0.04165823
221	0xbbd2db90	-0.0064348653
222	0x3c552950	0.013010338
223	0x3c346140	0.011009514
224	0x3d3df34a	0.046374597
225	0xbcf96470	-0.0304434
226	0xbc6658f8	-0.014059298
227	0x3cc03e5c	0.023467235
228	0xbcc5e1a8	-0.024155453
229	0x3c976934	0.018482782
230	0x3b822520	0.003971711
231	0x3d227726	0.03966441
232	0x3d4e965e	0.05043637
233	0xbc9e1efa	-0.01930188
234	0xbd1e9bfa	-0.03872297
235	0xbd4de41d	-0.050266374
236	0xbd030242	-0.031984575
237	0x3bc18210	0.0059053972
238	0xbcfd1e02	-0.030898098
239	0xbcd31dbc	-0.025771014
240	0xbb29aa40	-0.002588883
241	0x3d4b212c	0.049592182
242	0x3c5dde08	0.013541706
243	0x3c21ee38	0.009883456
244	0x3cadbdf0	0.021208733
245	0x3d492b94	0.049113825
246	0xba549580	-0.00081094354
247	0xbd2fbf58	-0.04290709
248	0x3bc09848	0.0058775283
249	0xbc930892	-0.017948423
250	0x3d343b36	0.04400178
251	0x3bfa43d0	0.0076374784
252	0x3d31f6c0	0.04344821
253	0x3cd6cfd0	0.02622214
254	0xbd1e3dfe	-0.03863334
255	0xbbc19110	-0.0059071854

fc1.bias f4 [50]
0	0x3c0955a0	0.008382231
1	0xbcd9139d	-0.02649861
2	0x3d137c8c	0.03600745
3	0x3c12f5e0	0.008969754
4	0x3b4ccc70	0.0031249784
5	0xbc7b5a4c	-0.015341353
6	0xbd528b17	-0.051402178
7	0xbd0efd3c	-0.034909472
8	0xbcba0a26	-0.022709917
9	0x3cd61384	0.026132353
10	0xbccfc2f9	-0.025361525
11	0x3d585fac	0.052825615
12	0x3cc0d3a0	0.02353841
13	0x3c0de538	0.008660607
14	0xb95e0e00	-0.00021176785
15	0xbcac5432	-0.021036241
16	0x3c4ae1b0	0.01238291
17	0x3d08fc2c	0.033443615
18	0x3cc83528	0.02443941
19	0xbc44c4b8	-0.012009792
20	0xbb8b8f60	-0.004259035
21	0x3c469a78	0.012121789
22	0xbbb64020	-0.0055618435
23	0xbd16cfc1	-0.036819223
24	0xbcda0795	-0.026614944
25	0x3d17cb50	0.03705913
26	0x3a8dc820	0.0010817088
27	0xbc96d05a	-0.018409897
28	0xbc01b6fc	-0.007917162
29	0x3d13f74a	0.036124505
30	0xbd3d2c79	-0.04618499
31	0xbd202b9e	-0.039104097
32	0xbd0b99cf	-0.03408223
33	0xbd10c560	-0.03534448
34	0xbc84ab3c	-0.016194932
35	0xbca06998	-0.019581601
36	0xbcdab8fc	-0.026699536
37	0x3ae87e20	0.0017737783
38	0xbae9cae0	-0.0017836951
39	0xbd357126	-0.04429736
40	0x3d526030	0.051361263
41	0xbc555c44	-0.013022486
42	0xbd2d2267	-0.042269137
43	0x3d5a8bc2	0.05335594
44	0xbcc4bd0e	-0.02401593
45	0xbc61af4c	-0.013774704
46	0xbc2c7cf8	-0.010527842
47	0xbc8af198	-0.016960904
48	0x3bebc7e0	0.007195458
49	0x3ad73920	0.0016420223

fc2.weight f4 [10, 50]
0	0xbde49283	-0.111607574
1	0x3e01f085	0.12689407
2	0xbd7c0d64	-0.061536208
3	0x3e08a0cd	0.1334259
4	0x3bca74c0	0.0061784685
5	0x3c423690	0.011853829
6	0x3d8d6450	0.06903899
7	0x3d35a868	0.044350058
8	0x3e07698b	0.13223855
9	0xbda2dbac	-0.07952055
10	0x3cf46518	0.029833362
11	0x3d2e73e4	0.04259099
12	0xbd5d3afe	-0.054011337
13	0x3db584e4	0.088632375
14	0xbe0f97ee	-0.140228
15	0x3d6c8d08	0.057751685
16	0xbd033dc2	-0.03204132
17	0x3d9e3dfe	0.07726668
18	0xbd7133aa	-0.05888716
19	0xbd1ea0ce	-0.038727574
20	0x3e04be45	0.12963207
21	0xbd33c3bc	-0.04388784
22	0x3d822aa6	0.06355791
23	0xbe064096	-0.13110575
24	0xbe0cfdcc	-0.13768691
25	0x3df7b352	0.120947495
26	0x3d8e18c2	0.06938316
27	0x3de3955a	0.11112471
28	0xbd29929c	-0.041399583
29	0x3d0dbe68	0.034605414
30	0xbdbe2a70	-0.09285438
31	0xbe0ea3b2	-0.13929632
32	0x3d00bca4	0.0314299
33	0x3d23543c	0.039875254
34	0x3e0dd6f7	0.13851534
35	0x3d426d90	0.04746777
36	0x3d2eb26c	0.042650625
37	0xbdb5a072	-0.08868493
38	0xbd6a7b06	-0.05724623
39	0xbd10effc	-0.035385117
40	0xbd5057cc	-0.05086498
41	0xbe0d9aa7	-0.13828526
42	0x3d9c8a84	0.07643607
43	0x3ddd0a0e	0.107929334
44	0x3ded1e1a	0.11578007
45	0xbdd42856	-0.10359256
46	0x3d7ff464	0.06248893
47	0xbe07e1fa	-0.13269797
48	0xbd59294e	-0.053017907
49	0x3d98b7d0	0.074569345
50	0xbdb17dfc	-0.08666608
51	0x3ce677f8	0.028133377
52	0x3dcff7f0	0.10154712
53	0xbde71319	-0.112829395
54	0x3dd970ba	0.10617204
55	0x3e019525	0.1265455
56	0xbdf50d7c	-0.119654626
57	0x3d5ab758	0.053397506
58	0x3df7b132	0.12094344
59	0xbdb42cc8	-0.08797604
60	0xbc39afc0	-0.011333406
61	0xbdb87bc0	-0.090079784
62	0x3dded74a	0.10880907
63	0xbdaa204a	-0.0830694
64	0xbd74ff90	-0.059814036
65	0xbdb3ffbd	-0.087890126
66	0xbdd78811	-0.105239995
67	0xbc127ce0	-0.008940905
68	0x3bb429a0	0.005498126
69	0xbe0aafbf	-0.13543604
70	0xbd10fd3e	-0.03539776
71	0xbc2834b0	-0.010266468
72	0xbd6b425c	-0.057436332
73	0x3d36d694	0.04463823
74	0xbde3907b	-0.11111542
75	0xbe087e7f	-0.13329504
76	0x3dde3f6c	0.108519405
77	0x3db2387e	0.08702181
78	0xbe0d77aa	-0.1381518
79	0x3d10081c	0.035163984
80	0x3c9db510	0.019251376
81	0xbcaa8070	-0.020813197
82	0x3d0190a4	0.03163208
83	0xbdbe2128	-0.09283668
84	0xbdbb72ac	-0.09152731
85	0x3c291530	0.010319993
86	0x3d366820	0.044532895
87	0xbdeb16ee	-0.11478983
88	0xbd0b1924	-0.033959523
89	0x3cb48cb8	0.022039756
90	0x3d95022e	0.07275806
91	0x3deec716	0.116590664
92	0x3d5215cc	0.05129032
93	0x3d689330	0.056780994
94	0xbd23ece2	-0.04002083
95	0xbdd6100c	-0.104522794
96	0x3d86a552	0.06574501
97	0x3dace7dc	0.08442661
98	0x3d2a0424	0.041507855
99	0xbdd83813	-0.1055757
100	0xbd5a1b22	-0.053248532
101	0xbd5474ae	-0.051869087
102	0xbddcb80c	-0.10777292
103	0x3dac87e6	0.08424358
104	0xbd7f3e26	-0.06231513
105	0xbc451930	-0.012029931
106	0x3c5d5bd0	0.013510659
107	0x3d743d64	0.05962886
108	0x3cabd3b0	0.020974964
109	0x3df65a96	0.12028997
110	0xbe03447f	-0.12819098
111	0xb9f4d200	-0.0004669577
112	0xb9962600	-0.00028638542
113	0x3e007475	0.12544425
114	0xbd9b5f79	-0.07586569
115	0x3e074b3b	0.13212292
116	0x3cf8a208	0.0303507
117	0xbdb1fbdc	-0.086906165
118	0x3db8859c	0.09009859
119	0x3e0d945b	0.13826124
120	0x3d78495c	0.060616836
121	0xbd388242	-0.0450461
122	0x3d187dc8	0.03722933
123	0x3d532478	0.05154845
124	0x3e0eb277	0.13935266
125	0x3d1c0b28	0.038096577
126	0x3d31e418	0.043430418
127	0x3cc9e358	0.024644539
128	0x3dd76e22	0.10519053
129	0x3d57e4bc	0.052708372
130	0x3d81dd4c	0.06341037
131	0xbd8370cd	-0.064179994
132	0xbcf159cc	-0.029461764
133	0x3d3708e0	0.0446862
134	0xbdc9e4c0	-0.09858084
135	0xbd8bdc1b	-0.06829091
136	0x3d9e67b4	0.077346236
137	0xbde3120f	-0.11087429
138	0x3d87d8de	0.06633161
139	0xbb379540	-0.0028012544
140	0x3e0c8cdd	0.1372561
141	0x3e0f5603	0.13997655
142	0x3de105b2	0.109874144
143	0x3e024abb	0.1272382
144	0x3d55cff8	0.052200288
145	0xbdb0ae8c	-0.08627042
146	0x3d9a09c8	0.07521397
147	0x3dc6b3a2	0.09702231
148	0xbe033c15	-0.12815888
149	0xb8a68000	-7.939339e-05
150	0x3d8a8c22	0.067650095
151	0x3da42f4a	0.08016832
152	0xbdef4eb1	-0.11684931
153	0x3da5682e	0.08076511
154	0x3c6f70c0	0.014614284
155	0x3def3ff2	0.116821185
156	0x3cadfe38	0.021239385
157	0x3e090143	0.13379388
158	0xbd2828ea	-0.041054644
159	0x3dce3994	0.10069576
160	0x3d2665b8	0.04062435
161	0x3da3a68c	0.07990751
162	0x3dc5ffb4	0.09667912
163	0x3cca4f40	0.024695992
164	0xbdfac305	-0.12244228
165	0x3e0bcbcf	0.13651966
166	0xbe07a68f	-0.13247131
167	0x3e075507	0.13216029
168	0xbdab0d76	-0.08352177
169	0x3d430908	0.047616035
170	0x3da893ee	0.0823134
171	0x3da4c084	0.08044532
172	0xbd9e0c43	-0.077171825
173	0xbc6f9720	-0.014623433
174	0xbd488728	-0.04895702
175	0xbd789868	-0.06069222
176	0x3db03a94	0.08604923
177	0xbdc4c65e	-0.09608148
178	0x3d735668	0.059408575
179	0xbe0a07c1	-0.1347952
180	0xbd0c43ca	-0.034244336
181	0xbba7e3e0	-0.0051236004
182	0xbd60eee0	-0.05491531
183	0xbd19812e	-0.03747671
184	0xbc6673d0	-0.014065698
185	0xbdaf906a	-0.08572467
186	0x3dcb3d80	0.099238396
187	0xbcfe6f48	-0.031058922
188	0x3d86f1d0	0.06589091
189	0x3bae9640	0.00532797
190	0xbd73db04	-0.05953504
191	0xbc8b7804	-0.017025001
192	0x3d82b234	0.06381646
193	0x3dbe7c56	0.09301059
194	0x3de863c2	0.11347152
195	0xbdcf4387	-0.10120302
196	0x3cda9718	0.026683375
197	0x3e07c8e5	0.13260229
198	0xbdbb6a3c	-0.09151122
199	0xbd2c0f0c	-0.042006537
200	0x3e0d5afb	0.13804238
201	0xbda567ff	-0.08076476
202	0xbb8b4ea0	-0.004251316
203	0xbcdad250	-0.026711613
204	0x3b01edc0	0.0019825548
205	0xbd405c68	-0.046963125
206	0x3cec70e0	0.028862417
207	0xbb768880	-0.0037617981
208	0xbdde91c8	-0.10867649
209	0xbbb36ea0	-0.005475834
210	0x3dc812fe	0.097692475
211	0x39907000	0.00027549267
212	0x3dbb724e	0.09152661
213	0x3d09e794	0.033668116
214	0x3e07a70b	0.13247316
215	0xbd20ace6	-0.03922739
216	0xbdc789d9	-0.09743089
217	0x3d2ee290	0.042696536
218	0xbcdf37d8	-0.027248308
219	0xbd468408	-0.04846576
220	0x3cfa06c0	0.030520797
221	0x3d37d278	0.044878453
222	0x3d497c98	0.049191087
223	0x3c412770	0.011789188
224	0x3cc7ff08	0.0244136
225	0xbd7256fe	-0.059164993
226	0x3d2f1534	0.04274483
227	0x3d53e198	0.051728815
228	0xbe0a60ff	-0.13513564
229	0xbde65f92	-0.11248697
230	0x3ce02df8	0.02736567
231	0x3c186090	0.009300366
232	0x3ddd3afc	0.10802266
233	0xbcc4799c	-0.02398377
234	0xbc0dbc50	-0.008650854
235	0x3db3c72e	0.08778225
236	0xbbfc41a0	-0.007698253
237	0x3d204744	0.039130464
238	0x3dd4842e	0.10376774
239	0x3e028a45	0.12748058
240	0xbd81ff52	-0.063475266
241	0xbe10167c	-0.14071077
242	0x3c8eeae8	0.017445996
243	0x3dc650da	0.0968339
244	0xbce3cf68	-0.02780886
245	0xbdc63fdc	-0.09680149
246	0xbd3fee80	-0.04685831
247	0xbd9ac4c7	-0.075570635
248	0xbe009bf0	-0.12559485
249	0x3da324ee	0.07966028
250	0xbd0c7402	-0.03429032
251	0x3cad76a8	0.021174744
252	0x3da8618e	0.08221732
253	0x3dfe4cde	0.12417005
254	0xbd626478	-0.055271596
255	0x3dc1cde0	0.09463096

fc2.bias f4 [10]
0	0x3d9c06b6	0.076184675
1	0x3da031d0	0.07822001
2	0x3d948744	0.07252362
3	0xbd8a0501	-0.06739236
4	0xbd9b486a	-0.07582171
5	0xbc58e440	-0.013238013
6	0x3e066777	0.13125406
7	0xbdff438d	-0.12464056
8	0x3d84ca3c	0.06483886
9	0x3bed3ae0	0.0072396845
