save/models/client/testmodel.pth (torch, 92463 bytes, 8 tensors)

conv1.weight f4 [10, 3, 5, 5]
0	0xbda0c6fc	-0.07850453
1	0xbc1195f8	-0.008885853
2	0x3ccd8990	0.025090009
3	0x3d605a5c	0.054773673
4	0x3dd0ef8c	0.1020194
5	0xbd71076e	-0.058844976
6	0xbc330378	-0.01092612
7	0xbde7784d	-0.113022424
8	0xbc20d1e0	-0.009815663
9	0x3ddaf44c	0.10691127
10	0x3dc82e76	0.09774487
11	0x3d8c28f6	0.0684375
12	0xbd11a02c	-0.035553142
13	0xbd8f9977	-0.07011693
14	0x3c054680	0.008134484
15	0x3d819632	0.063274756
16	0xbd07d386	-0.03316071
17	0x3c844880	0.016147852
18	0xbdc5baf4	-0.09654799
19	0x3cfbb9e8	0.030728295
20	0xbcff02ec	-0.031129323
21	0x3c90c460	0.017671764
22	0x3da1a582	0.07892896
23	0xbdc7ace7	-0.097497754
24	0xbdc38127	-0.09546118
25	0xbda12bf2	-0.0786971
26	0xbd8c130c	-0.068395704
27	0xbdb211e2	-0.08694817
28	0xbd828c26	-0.063743874
29	0x3bfdd960	0.0077468604
30	0x3d8deb7c	0.06929681
31	0xbdcc2dad	-0.099696495
32	0x3d328d68	0.043591887
33	0xbddd85a3	-0.10816505
34	0x3ad91f40	0.0016565099
35	0xbdb9a4dc	-0.090646476
36	0xbca6515c	-0.020302467
37	0xbd00746e	-0.031361036
38	0xbcc7e7ec	-0.024402581
39	0xbd486690	-0.048925936
40	0x3cdd48c0	0.027012229
41	0xbdd39aa0	-0.10332227
42	0x3cb1a0b0	0.021683067
43	0xbd43eb42	-0.04783178
44	0x3dbd52a2	0.092442766
45	0xbd245dec	-0.040128633
46	0xbd07baf6	-0.033137284
47	0x3cd44598	0.025912091
48	0x3db924b6	0.09040205
49	0xbd8f31e5	-0.069919385
50	0xbd5583ee	-0.05212777
51	0xbdcd3509	-0.10019881
52	0xbc4d6620	-0.0125365555
53	0xbd6ca366	-0.057773016
54	0x3b634ea0	0.0034684315
55	0xbc81d0a0	-0.01584655
56	0x3da57c62	0.08080365
57	0x3db702c4	0.089360744
58	0xbd8fe7e4	-0.070266515
59	0xbd686383	-0.056735527
60	0xbc1f4c70	-0.009722814
61	0x3ca49738	0.020091638
62	0xbdc31f77	-0.09527486
63	0xbd9b373e	-0.07578896
64	0xbd44b70c	-0.04802613
65	0xbda0a39e	-0.078437075
66	0x3cdd6b10	0.02702859
67	0xbddaf24e	-0.10690747
68	0xbd1cd2dc	-0.03828703
69	0xbd29fc00	-0.04150009
70	0xbbc3b210	-0.0059721544
71	0x3dc8bb60	0.09801364
72	0x3ad8db40	0.0016544834
73	0xbdd97d50	-0.106196046
74	0xbd8ca7e8	-0.06867963
75	0x3d9e9a2e	0.07744251
76	0x3daa9870	0.083298564
77	0x3c127240	0.008938372
78	0x3d8bc9b8	0.06825584
79	0xbdae48b4	-0.08509961
80	0x3cca4600	0.024691582
81	0xbd7f6e2c	-0.062360927
82	0x3d93190c	0.07182512
83	0xbcac2a2c	-0.021016203
84	0xbdd143fc	-0.10218045
85	0xbda3c97e	-0.07997416
86	0xbc6ba6b0	-0.014383003
87	0xbd33f1d0	-0.043931782
88	0xbd1e80d8	-0.038697094
89	0xbc9e5e84	-0.019332178
90	0xbd5198ee	-0.051171236
91	0x3cf19060	0.029487789
92	0x3ca4d2d8	0.02012007
93	0xbdc037c6	-0.09385638
94	0xbdbca114	-0.09210411
95	0x3c5230f0	0.01282905
96	0xbca9a594	-0.020708837
97	0xbddafffb	-0.10693356
98	0xbd919187	-0.07107835
99	0x3dd4c3f2	0.10388936
100	0xbdc78815	-0.097427525
101	0x3dd1daa0	0.102467775
102	0x3d6cfbe0	0.057857394
103	0x3db4edae	0.08834396
104	0xbd887986	-0.06663804
105	0xbdc26700	-0.09492302
106	0x3d8954a0	0.06705594
107	0x3d77a160	0.060456634
108	0xbdc6632e	-0.09686886
109	0x3b072560	0.0020621642
110	0xbbcc9280	-0.00624305
111	0x3d6f6698	0.05844745
112	0xbd500c68	-0.05079308
113	0xbda21ce4	-0.07915667
114	0xbdd9aff1	-0.10629261
115	0xbdd81208	-0.10550314
116	0xbdb94cf8	-0.09047884
117	0x3d6f22bc	0.058382735
118	0xbd86a497	-0.06574362
119	0x3da172c8	0.07883221
120	0x3da5b8e6	0.08091907
121	0xbd562806	-0.052284263
122	0xbc9ab85c	-0.018886738
123	0xbda9d1fe	-0.08292006
124	0xbdb9376e	-0.090437755
125	0x3dd299c6	0.10283236
126	0xbdde5a16	-0.10857026
127	0xbdafff30	-0.08593595
128	0x3cca7230	0.024712652
129	0x3d0d4114	0.03448589
130	0x3cc654c0	0.024210334
131	0x3d5138ec	0.051079676
132	0xbcdfc664	-0.02731628
133	0x3cb8b5d8	0.022547647
134	0x3d9eb2a8	0.0774892
135	0x3d80e450	0.06293547
136	0x3de042cc	0.109502405
137	0x3cd39058	0.025825664
138	0x3d086014	0.033294752
139	0xbdb0bfab	-0.08630308
140	0x3bfabec0	0.0076521337
141	0x3d659f44	0.05606009
142	0x3ca65f30	0.02030906
143	0x3cd00210	0.025391608
144	0xbdc822ee	-0.09772287
145	0xbc9090ac	-0.01764711
146	0xbd2588ea	-0.040413775
147	0x3dc3dffa	0.095642045
148	0x3d9ce68c	0.07661161
149	0xbde78b6f	-0.11305892
150	0xbd37857a	-0.044805028
151	0xbd5e2521	-0.054234628
152	0xbc940c80	-0.018072367
153	0x3dc6be1c	0.09704229
154	0x3d9caf3c	0.07650611
155	0x3ca51340	0.02015078
156	0x3d5ff2fc	0.054675087
157	0xbde619b4	-0.11235371
158	0x3d95448e	0.072884664
159	0xbd4cf50c	-0.050038382
160	0xbc034c68	-0.008013822
161	0xbcd19134	-0.025581934
162	0xbc961f78	-0.018325552
163	0xbade6640	-0.0016967729
164	0xbcc19ec4	-0.023635276
165	0x3d0dfd38	0.034665316
166	0xbc675dc8	-0.01412148
167	0x3d310264	0.04321517
168	0x3d9156a4	0.070966035
169	0xbddd6792	-0.1081077
170	0xbd861cb6	-0.06548445
171	0x3debf076	0.11520474
172	0x3d3dec38	0.046367854
173	0x3de50c12	0.11183943
174	0x3d2c3510	0.04204279
175	0xbd4e9d32	-0.050442882
176	0x3c989970	0.018627852
177	0xbd07d61c	-0.033163175
178	0x3da083f0	0.07837665
179	0xbd9a3a16	-0.0753061
180	0x3cd84be8	0.026403382
181	0xbd66c46d	-0.05633967
182	0x3c6d9c50	0.0145026
183	0xbdc3cfb7	-0.09561103
184	0x3d0916c0	0.03346896
185	0x3c2679a0	0.010160834
186	0x3dc79a8e	0.09746276
187	0xbd04f54c	-0.032460496
188	0xbdcf7aa8	-0.10130817
189	0xbd8c5390	-0.06851876
190	0xbd2b29a6	-0.041787766
191	0xbdea5b60	-0.1144321
192	0x3db058ec	0.086107105
193	0x3dc020cc	0.093812555
194	0xbc919e70	-0.017775744
195	0x3b254ac0	0.0025221556
196	0xbdd73a9b	-0.10509225
197	0xbd944be8	-0.072410405
198	0xbdd73bb2	-0.10509433
199	0x3dda50a4	0.10659912
200	0xbc094800	-0.008378983
201	0x3d0e1220	0.034685254
202	0x3d42ebd0	0.04758817
203	0x3d90e660	0.070751905
204	0x3d73f004	0.05955507
205	0x3ddb7a04	0.10716632
206	0x3de55618	0.11198062
207	0xbdd93ddf	-0.10607504
208	0x3cddf420	0.027093947
209	0x3c9a6a60	0.018849552
210	0xbdc96b30	-0.098348975
211	0xbda48c00	-0.080345154
212	0x3c531710	0.0128839165
213	0x3d9cea3a	0.07661863
214	0x3d9475fe	0.07249068
215	0xbdcef513	-0.10105338
216	0x3d786a80	0.06064844
217	0xbddc736d	-0.10764203
218	0xbc060ee8	-0.008182265
219	0x3da11666	0.078656
220	0x3d93e434	0.07221261
221	0xbdea23e6	-0.11432628
222	0x3d62f8b0	0.055412948
223	0x3d874a72	0.06605996
224	0x3d04b40c	0.03239827
225	0xbd9f3948	-0.077745974
226	0xbd56740c	-0.052356765
227	0x3dc91de8	0.09820157
228	0x3c6b1c70	0.014350042
229	0xbd57f63a	-0.052725054
230	0xbd985902	-0.07438852
231	0xbcdb2c24	-0.026754446
232	0x3deaf7ea	0.11473067
233	0xbd0072a4	-0.03135933
234	0x3d86e35a	0.065863326
235	0x3c31e230	0.01085715
236	0xba1e2580	-0.00060328096
237	0x3dcbb052	0.0994574
238	0x3ccef568	0.025263503
239	0x3da16db8	0.07882255
240	0xbd132984	-0.035928264
241	0x3d43f868	0.04784432
242	0x3ca38550	0.01996103
243	0xbd8eac3b	-0.06966444
244	0xbd9a1e64	-0.07525328
245	0xbce5f774	-0.028072096
246	0xbdbb4304	-0.091436416
247	0x3cb04e68	0.021521762
248	0xbd31a920	-0.04337418
249	0xbdc1adf8	-0.0945701
250	0xb918f000	-0.00014585257
251	0xbddbb1ca	-0.1072727
252	0x3da356de	0.07975553
253	0x3d789a24	0.060693875
254	0x3d4f33a4	0.050586358
255	0x3adb1fc0	0.0016717836

conv1.bias f4 [10]
0	0xbdb96bb8	-0.09053749
1	0x3c865a20	0.016400397
2	0x3d814d20	0.063135386
3	0x3dd2852a	0.10279305
4	0xbdc1af7c	-0.09457299
5	0xba38c080	-0.00070477277
6	0x3cd45688	0.025920168
7	0xbc4c9350	-0.012486294
8	0xbd4b6bb2	-0.049663253
9	0x3de1f1cc	0.11032447

conv2.weight f4 [20, 10, 5, 5]
0	0xbcd6d390	-0.026223928
1	0xbd10c809	-0.03534702
2	0xbca3e2b2	-0.020005558
3	0x3d3ca256	0.046053253
4	0xbaa75600	-0.0012766719
5	0xbd35a940	-0.044350863
6	0xbb761270	-0.003754761
7	0x3d4b39aa	0.04961554
8	0xbcea4364	-0.028596587
9	0x3d74ee14	0.05979736
10	0xbd415184	-0.04719688
11	0x3cb6b6d4	0.022303976
12	0x3d171a40	0.03689027
13	0xbc694294	-0.014237065
14	0x3ae1c600	0.0017225146
15	0xbd21a11a	-0.03946028
16	0xbc6c6314	-0.014427919
17	0xbd2bac22	-0.041912206
18	0xbb8af0c8	-0.004240129
19	0xbcfd76e2	-0.030940477
20	0x3caf43a8	0.021394566
21	0xbc616064	-0.0137558915
22	0x3c964d44	0.01834739
23	0x3c239258	0.009983622
24	0xbd4e4408	-0.05035785
25	0x3ca313c0	0.019906878
26	0xbb735bc0	-0.0037133545
27	0x3cee1068	0.029060557
28	0xbd567fe6	-0.052368067
29	0x3d1458d2	0.03621752
30	0xbbdb8d40	-0.006700188
31	0xbc81dcfe	-0.015852448
32	0x3ceec040	0.029144406
33	0xbd649a18	-0.055811018
34	0xbbf87548	-0.0075823404
35	0xbb42d130	-0.0029726736
36	0x3cee7268	0.029107288
37	0xbd40e020	-0.047088742
38	0x3c8354b4	0.0160316
39	0xbc053650	-0.008130625
40	0x3ca29cfc	0.019850247
41	0x3cf6b4c8	0.0301155
42	0x3d7dee9c	0.061995134
43	0xbc99bee4	-0.018767782
44	0x3ca44fe0	0.020057619
45	0xbca6ac06	-0.020345699
46	0xbd5f3087	-0.05448964
47	0x3d686ca4	0.056744233
48	0xbce538fe	-0.027981278
49	0x3d114226	0.035463475
50	0x3cd4e178	0.025986418
51	0x3d0edd42	0.034878977
52	0xbd3c4a2b	-0.04596917
53	0x3cc84878	0.024448618
54	0xbd2035ec	-0.039113924
55	0x3d6bf150	0.05760318
56	0x3bfe9a90	0.00776989
57	0x3d146986	0.036233447
58	0x3d316f3a	0.043318965
59	0xbd58c78d	-0.05292468
60	0x3d2a183c	0.041527018
61	0xbd5ba598	-0.05362472
62	0xbcdd9cde	-0.02705234
63	0xbbe3c448	-0.006950889
64	0xbd4d047c	-0.050053105
65	0x3c12d558	0.008961998
66	0xbd41ecd9	-0.047345016
67	0xbc46bc0c	-0.012129795
68	0xbcadab3c	-0.021199815
69	0xbba09120	-0.0049001127
70	0x3bd58410	0.006515987
71	0xbd014d12	-0.03156764
72	0x3d233a72	0.03985066
73	0x3d03a092	0.032135554
74	0xbd57d8c0	-0.052696943
75	0xbd420270	-0.047365606
76	0x3cb97278	0.02263759
77	0x3d4d729a	0.05015812
78	0xbd5cd592	-0.053914614
79	0xbd2ea838	-0.042640895
80	0xbc50ba1c	-0.012739684
81	0xbcc64576	-0.024203043
82	0x3cd51bd0	0.026014239
83	0xbd1c8904	-0.038216606
84	0x3d1b29f0	0.03788179
85	0xbd4ca3e1	-0.049960975
86	0xbb038340	-0.0020067245
87	0xbc2b8f18	-0.010471128
88	0x3cdfb7e0	0.027309358
89	0xbd4a3a5b	-0.04937206
90	0xbcfafb50	-0.030637413
91	0x3aa1f640	0.0012356713
92	0xbd816692	-0.06318392
93	0xbd048d88	-0.032361537
94	0x3bcfdfa0	0.006343797
95	0x3be54610	0.0069968775
96	0x3d405370	0.046954572
97	0xbba5d118	-0.0050603263
98	0x3c6f3950	0.014601067
99	0xbc0f2f30	-0.008739278
100	0x3c0293c0	0.007969797
101	0xbce1f59c	-0.027582936
102	0x3d18726e	0.037218504
103	0xbcf92b88	-0.030416265
104	0x3c816e0c	0.015799545
105	0x3d7a07fc	0.06104277
106	0x3d4f026a	0.05053941
107	0x3cebd2b0	0.028786987
108	0xbc82c7a2	-0.015964333
109	0x3c79c170	0.015243873
110	0x3d6f4134	0.058411792
111	0x3d0eb47c	0.034840092
112	0x3bb815a0	0.0056178123
113	0xbb5efdf0	-0.003402587
114	0x3d2c35ec	0.04204361
115	0xbd4b0c98	-0.049572557
116	0xbd557759	-0.052115772
117	0xbd5eb85a	-0.05437503
118	0xbcf17588	-0.029474989
119	0xbcfc5706	-0.030803215
120	0xbb9345b0	-0.0044943914
121	0x3d222d6a	0.03959409
122	0xbca4631a	-0.020066787
123	0x3c82f0d8	0.015983984
124	0x39382200	0.00017560273
125	0x3d00b710	0.031424582
126	0xbd11f366	-0.035632513
127	0xbc6c28f4	-0.014414061
128	0x3c4eeda8	0.012629904
129	0x3d33fa44	0.043939844
130	0x3d57bbc6	0.05266931
131	0x3d8066d4	0.06269613
132	0xbd70d667	-0.05879822
133	0x3d065674	0.032797292
134	0x3b833670	0.004004292
135	0x3d664778	0.0562205
136	0xbd3b1eca	-0.04568366
137	0x3c15ff60	0.009155124
138	0xbd8185e5	-0.063243665
139	0x3c4a8808	0.012361534
140	0x3d53ef02	0.051741607
141	0xbd5ee954	-0.054421738
142	0x3d21a6bc	0.03946565
143	0xbd7ec9a0	-0.062204003
144	0x3cedd248	0.029030934
145	0x3d0cf244	0.03441073
146	0xb9da4c00	-0.00041636825
147	0xbd75d10a	-0.06001381
148	0x3d7fcdbc	0.062452063
149	0xbaa84860	-0.0012838952
150	0xbcdc0e14	-0.026862182
151	0x3d4ffd5e	0.05077874
152	0xbd811c72	-0.06304254
153	0x3d31d1ec	0.043413088
154	0x3d19e806	0.03757479
155	0xbd734bef	-0.059398588
156	0xbb58f3f0	-0.0033104382
157	0xbd807eab	-0.0627416
158	0xbcd6253e	-0.026140805
159	0x3b303580	0.0026887357
160	0x3d5eccf4	0.054394677
161	0x3d36d1c6	0.04463365
162	0xbcd022e0	-0.025407255
163	0xbd43bf00	-0.047789574
164	0x3c91487c	0.017734759
165	0xbcbb391c	-0.02285438
166	0xbd70aac1	-0.058756594
167	0x3cdef9ac	0.027218662
168	0xbc555a6c	-0.013022047
169	0x3ceefa50	0.029172093
170	0xbd478309	-0.04870895
171	0xbc681a90	-0.014166489
172	0x3b45a540	0.003015831
173	0x3c7ca440	0.01542002
174	0xbd1cd4fc	-0.038289055
175	0xbd27aa0f	-0.040933665
176	0x3d7a7048	0.061142236
177	0x3cdee2f0	0.027207822
178	0x3d14e28c	0.036348864
179	0xba71e380	-0.00092273206
180	0x3cc50894	0.024051942
181	0x3d647400	0.05577469
182	0xbca1d1e2	-0.0197534
183	0x3d559e3e	0.052152865
184	0xbd451ce4	-0.048123255
185	0xbd63ba3f	-0.05559754
186	0x3cc059d8	0.02348034
187	0x3d0c16f6	0.034201585
188	0x3d0ff9dc	0.035150394
189	0x3d0080fc	0.03137301
190	0x3b8ac9d0	0.0042354837
191	0x3c8db764	0.017299362
192	0xbbea2fe8	-0.007146824
193	0x3d609426	0.054828785
194	0xbd2a762c	-0.041616604
195	0xbccdb14c	-0.025108956
196	0xbd57b6ba	-0.052664496
197	0x3ca66990	0.020314008
198	0x3cd69514	0.026194133
199	0x3b1fd360	0.0024387464
200	0xbcc95e3a	-0.024581064
201	0x3c835498	0.016031548
202	0xbcfa3198	-0.030541226
203	0xbbfd18a8	-0.0077238865
204	0xbd0c67ee	-0.034278803
205	0x3bbdb340	0.0057891905
206	0xbb8d7148	-0.0043164827
207	0x3d2446aa	0.040106453
208	0x3d4ba114	0.049714163
209	0x3cba5f58	0.022750542
210	0xbd31d95e	-0.043420188
211	0x3cb1c410	0.021699935
212	0xbcd7b87a	-0.026333082
213	0x3d13898e	0.036019854
214	0xbcbfdd00	-0.02342081
215	0xbd245982	-0.040124424
216	0xbb997b80	-0.004683912
217	0xbc52330c	-0.012829553
218	0xbd495d99	-0.049161527
219	0x3d11a566	0.035558127
220	0xbd6a8495	-0.057255346
221	0x3d38dc4e	0.045131974
222	0xbca87624	-0.020564146
223	0xbca8e970	-0.020619124
224	0x3d6fcd6a	0.058545507
225	0x3c3416d0	0.010991767
226	0x3d58a610	0.052892745
227	0xbd5bcb3c	-0.053660616
228	0xbc9ccb54	-0.019139923
229	0xbd45d67c	-0.04830025
230	0x3d132382	0.035922535
231	0x3d4741f4	0.048646882
232	0xbc7f9b64	-0.015601013
233	0xbd037ced	-0.03210156
234	0x3d80edde	0.062953696
235	0xbd35af00	-0.044356346
236	0x3d6d655c	0.057957992
237	0x3d5dc46e	0.054142408
238	0xbcaea5d8	-0.021319315
239	0x3c5253b0	0.0128373355
240	0xbd626b34	-0.055278018
241	0x3b72efa0	0.0037069097
242	0x3c93d808	0.018047348
243	0x3cde8c5c	0.027166538
244	0xbc78d9b8	-0.015188627
245	0xbbea2c80	-0.007146418
246	0xbc83c4b2	-0.016085003
247	0xbcbb8b78	-0.022893652
248	0x3b206820	0.0024476126
249	0x3d707e20	0.058714032
250	0x3cbde568	0.023180678
251	0x3d4d8276	0.050173245
252	0x3a9b9380	0.001186952
253	0xbcb3312a	-0.02187403
254	0x3d42d508	0.047566444
255	0x3c9f98f4	0.019482113

conv2.bias f4 [20]
0	0xbd54b0ce	-0.051926427
1	0xbd7cd400	-0.061725616
2	0x3ce698d0	0.028149039
3	0x3c4c7c90	0.01248087
4	0xbd715f81	-0.05892897
5	0xbcedeace	-0.029042628
6	0x3c052d50	0.008128479
7	0x3c82dcf4	0.0159745
8	0xbd5128be	-0.051064245
9	0xbcef2050	-0.029190212
10	0xbcefb016	-0.029258769
11	0x3c81dab8	0.015851364
12	0x3c965dd4	0.018355288
13	0xbd690641	-0.05689073
14	0x3d5eb4c6	0.054371618
15	0x3d148e70	0.03626865
16	0xbcb9a76a	-0.022662837
17	0x3d248a48	0.040170938
18	0xbccd80f6	-0.025085907
19	0x3d60d8c4	0.054894224

fc1.weight f4 [50, 320]
0	0xbc9d0082	-0.019165281
1	0x3d1d8f08	0.038466483
2	0xbca22a60	-0.019795597
3	0x3b251bc0	0.0025193542
4	0x3d4360c4	0.047699705
5	0x3d259428	0.040424496
6	0xbd573ffb	-0.05255125
7	0xbcb96874	-0.022632815
8	0xbd35157c	-0.044209942
9	0xbd1a2059	-0.037628505
10	0xbd4abcdb	-0.049496513
11	0xbcb6a56c	-0.022295676
12	0x3c98ad08	0.018637195
13	0x3d39264a	0.04520253
14	0xbc027568	-0.007962562
15	0x3d2f9996	0.04287108
16	0x3d055ffc	0.03256224
17	0x3cc6e620	0.024279654
18	0xbcaeba26	-0.021328997
19	0xbd4d6e45	-0.05015399
20	0xbc24d93c	-0.010061558
21	0xbc96db24	-0.018415041
22	0x3beb4880	0.0071802735
23	0xbd330e51	-0.043714825
24	0xbd1cd0f8	-0.038285226
25	0x3ce96b68	0.028493598
26	0x3c4a8f28	0.012363233
27	0x3ce90780	0.02844596
28	0x3d3866be	0.045019858
29	0x3b0425b0	0.0020164065
30	0x3cac5dc0	0.021040797
31	0xbd318fd1	-0.043350045
32	0xbcb622f6	-0.022233468
33	0xbaaf7bc0	-0.0013388321
34	0xbd06d1b9	-0.03291485
35	0x3ce93318	0.028466746
36	0xbd57c727	-0.05268016
37	0x3d3d9d34	0.0462925
38	0x3d15e124	0.036591664
39	0x3d030284	0.03198482
40	0xbc88a260	-0.016678989
41	0x3d09ea52	0.03367073
42	0x3ca93584	0.020655401
43	0xbc5a0958	-0.013307892
44	0x3d282ede	0.04106032
45	0x3c9980e0	0.01873821
46	0xbd1eaf88	-0.03874162
47	0x3cce9284	0.025216348
48	0xbcf5c9ce	-0.030003455
49	0x3d11c9dc	0.0355929
50	0xbd3c727a	-0.04600761
51	0xbd2db9f9	-0.042413685
52	0x3d53ef34	0.051741794
53	0x3c83a1ac	0.016068302
54	0x3d35c2a8	0.04437509
55	0x3c581048	0.0131874755
56	0x3d5ec4fe	0.054387085
57	0xbc047664	-0.008084867
58	0x3d4d3e12	0.050108023
59	0xbd21941e	-0.039447896
60	0xbcda2c65	-0.026632497
61	0x3d5bbfe2	0.05364979
62	0x3ccac078	0.02474998
63	0x3d356612	0.044286795
64	0xbd2745ac	-0.04083793
65	0xbc3877e8	-0.011259057
66	0xbca452d0	-0.02005902
67	0xba1ef380	-0.0006063506
68	0x3d4484c4	0.047978178
69	0xbd51ece9	-0.051251326
70	0x3cd1c850	0.025608212
71	0x3ca6cea8	0.020362213
72	0x3d640112	0.055665083
73	0x3d570cd2	0.05250246
74	0x3c6ec3c8	0.014573045
75	0xbc778554	-0.0151074715
76	0x3c1530b0	0.009105846
77	0x3d0f5906	0.03499701
78	0xbd19d2be	-0.037554495
79	0xbd528ed1	-0.05140573
80	0xbc82bdcc	-0.015959643
81	0x3c788ad0	0.015169814
82	0x3cb0906c	0.02155324
83	0xbc5095b8	-0.012731008
84	0x3cd75a58	0.026288196
85	0x3cd05e0c	0.02543547
86	0xbcce631d	-0.025193745
87	0x3d2504ca	0.04028777
88	0x3d5d07ba	0.053962447
89	0xbbaa9af0	-0.0052064583
90	0xbd468919	-0.04847059
91	0x3d1a4b18	0.03766927
92	0x3c3eced8	0.011645995
93	0x3bc1db20	0.0059160143
94	0x3d35a6dc	0.044348583
95	0xbd1d46ef	-0.038397726
96	0x3d57eba6	0.052714966
97	0xbc9132b4	-0.017724372
98	0xbc31b04c	-0.010845255
99	0x3ceb0558	0.028689072
100	0x3d1ca6d6	0.038245045
101	0x3d45effc	0.04832457
102	0x3d20d5be	0.03926634
103	0xbd046794	-0.032325342
104	0xbd59acfd	-0.05314349
105	0xbcde9c5f	-0.027174173
106	0x3c6e7588	0.014554389
107	0xbcfc4ac1	-0.030797364
108	0xbb616bc0	-0.00343965
109	0xbd2dd050	-0.04243499
110	0xbd573a8d	-0.052546073
111	0x3d3c4d72	0.045972295
112	0xbbaccc58	-0.005273383
113	0xbbfd6568	-0.007733036
114	0xbcc234a4	-0.023706742
115	0x3c73e488	0.014886029
116	0x3cd094f0	0.025461644
117	0x3a0cbe40	0.00053689256
118	0xbcd53cb2	-0.026029918
119	0x3d341864	0.043968573
120	0x3c6d9290	0.014500275
121	0xbd3a1e80	-0.045439243
122	0xbc1fed64	-0.009761188
123	0x3c9a9104	0.018867977
124	0x3d1db154	0.03849919
125	0xbc9f4f08	-0.019446865
126	0xbbe41110	-0.006960042
127	0xbbb38590	-0.0054785684
128	0x3a3548c0	0.00069154426
129	0x3d3fe3cc	0.046848103
130	0xbd5516fb	-0.05202387
131	0x3d4fbd58	0.05071768
132	0xbccf33a8	-0.025293186
133	0xbd27d154	-0.040971115
134	0x3c639bf8	0.013892166
135	0x3d2ecb22	0.04267419
136	0x3cef822c	0.029236875
137	0x3d5c62c2	0.05380512
138	0x3d1eaad4	0.038737133
139	0x3d626224	0.055269375
140	0x3d214a5e	0.039377563
141	0x3cb7ab5c	0.022420578
142	0x3c85aae0	0.016316831
143	0x3ccc55ac	0.024943195
144	0x3c96eb44	0.01842273
145	0xbcd3b680	-0.025843859
146	0xbd5bdcff	-0.053677555
147	0x3d3c3ada	0.045954563
148	0x3d0528c8	0.032509595
149	0x3cefc12c	0.029266916
150	0xbd3a8f5e	-0.04554688
151	0xbd3de59b	-0.046361547
152	0xbc4b1a2c	-0.012396377
153	0xbb322c90	-0.0027187206
154	0x3c48d5d0	0.012258008
155	0xbd5de4b5	-0.05417319
156	0xba80c620	-0.0009824671
157	0xbcb2cc68	-0.021825984
158	0x3bed24b0	0.0072370395
159	0x3c3c49c8	0.0114922
160	0xbc0bd25c	-0.00853404
161	0x3cb23e40	0.021758199
162	0xbc2313d4	-0.009953458
163	0x3ccad438	0.024759397
164	0xbc9922de	-0.018693384
165	0x37e01000	2.6710331e-05
166	0xbad09760	-0.0015914254
167	0xbbe7b490	-0.0070710853
168	0xbb977280	-0.0046218038
169	0x3c429ae8	0.011877753
170	0xba403c40	-0.00073331967
171	0xbc56e574	-0.013116229
172	0xbd421874	-0.0473866
173	0x3d3a16a8	0.045431763
174	0xbd2a63b4	-0.04159899
175	0xbd50752c	-0.050892994
176	0xbc8e8702	-0.017398361
177	0xbd0fcdfe	-0.03510856
178	0xbcb62c42	-0.0222379
179	0xbc012bfc	-0.007884022
180	0xbd4b316d	-0.049607683
181	0x3cea4698	0.028598115
182	0xbd3fb6c2	-0.04680515
183	0x3d50ee50	0.051008523
184	0x3d478bca	0.048717298
185	0x3bc90220	0.0061342865
186	0xbc18c49c	-0.009324219
187	0xbc8ec048	-0.017425671
188	0x3c6cce08	0.014453419
189	0x3be315e0	0.006930098
190	0x3d5d0c78	0.05396697
191	0x3a51ac00	0.0007998347
192	0xbc1f1d00	-0.009711504
193	0xbd54d773	-0.05196328
194	0xbb557af0	-0.0032574497
195	0xbc91b7f2	-0.017787907
196	0x3d6380ec	0.05554287
197	0x3cb7595c	0.022381477
198	0xbd2a689e	-0.041603677
199	0xbca12326	-0.01967008
200	0x3d365f82	0.044524677
201	0x3d204200	0.039125443
202	0xbcf7b35a	-0.030236889
203	0x3c38cd78	0.011279456
204	0x3c5d5958	0.013510071
205	0x3c2455a8	0.010030188
206	0x3c598668	0.013276674
207	0x3ba69370	0.005083494
208	0x3d0e8b88	0.034801036
209	0xbc55fbb4	-0.013060499
210	0x3cb72e80	0.02236104
211	0xbd45905d	-0.04823338
212	0x3d5e8102	0.05432225
213	0xbca62cbe	-0.020285007
214	0xbbdc2d30	-0.006719254
215	0xbcfad1a1	-0.030617537
216	0x3b1bb290	0.0023757555
217	0xbd5490d8	-0.051895946
218	0xbd5d352f	-0.054005798
219	0xbc11520c	-0.008869659
220	0x3c3e03b0	0.011597559
221	0xbd3918df	-0.045189735
222	0x3cf15440	0.029459119
223	0xbc9e420c	-0.019318603
224	0xbd4406d1	-0.047858063
225	0x3c55f9d0	0.013060048
226	0x3cda5634	0.026652433
227	0x3d4ce8a6	0.05002656
228	0x3a863820	0.0010240115
229	0xbd623d67	-0.05523434
230	0xbd1bf9d6	-0.03808006
231	0x3c785700	0.015157461
232	0x3c032918	0.008005403
233	0x3c1a8b28	0.0094325915
234	0x3d0d7bcc	0.03454189
235	0x3afaf7e0	0.0019147359
236	0xbcf6762a	-0.030085642
237	0xbd142ecc	-0.03617744
238	0xbd1eb63c	-0.03874801
239	0xbd26a8a3	-0.04068817
240	0xbd610969	-0.054940615
241	0x3c8db368	0.017297462
242	0xbb4bc690	-0.0031093694
243	0xbd6390ba	-0.055557944
244	0xbd515a2d	-0.05111139
245	0xba47d780	-0.00076233596
246	0xbd3818c8	-0.04494551
247	0x3cb65cc8	0.022261038
248	0xbd1d3e16	-0.038389288
249	0xbd3aac30	-0.045574367
250	0xbd47de17	-0.048795786
251	0xbcdfc886	-0.027317297
252	0x3cf21e24	0.029555388
253	0x3c90d964	0.017681785
254	0xbd31d656	-0.043417297
255	0xbd149b9a	-0.036281206

fc1.bias f4 [50]
0	0xbc08ae20	-0.008342296
1	0xbd2e47ea	-0.04254905
2	0xbca7520c	-0.020424865
3	0xbcebd159	-0.028786348
4	0xbc9d3488	-0.019190088
5	0x3d56413c	0.052308306
6	0xbcf11bf5	-0.029432276
7	0x3cc69ee8	0.024245694
8	0x3bad4590	0.0052878335
9	0xbcd6e907	-0.026234163
10	0x3c070110	0.008239999
11	0xbc22b798	-0.0099314675
12	0x3d365158	0.04451117
13	0x3d21ce22	0.039503224
14	0xbc1ebff8	-0.009689324
15	0xbb425100	-0.002965033
16	0xbc230624	-0.0099501945
17	0x3d299b2e	0.041407757
18	0xbc9383ce	-0.018007185
19	0x3c9cdcd8	0.019148275
20	0xbd1faf40	-0.03898549
21	0xbd23f2ae	-0.04002636
22	0xbc9a9620	-0.018870413
23	0xbc9ef746	-0.019405019
24	0xbc343c48	-0.0110007
25	0x3cccc07c	0.024994127
26	0xbc2d8d70	-0.010592803
27	0xbd4f2050	-0.050567925
28	0x3c8de560	0.017321289
29	0x3d241230	0.040056407
30	0x3c1804d0	0.009278491
31	0xbd16d52a	-0.036824383
32	0x3d5c197c	0.05373524
33	0x3d178042	0.03698755
34	0x3d168406	0.036747
35	0x3d39743a	0.045276858
36	0xbd0c15fb	-0.03420065
37	0xbce3cbe9	-0.027807193
38	0x3c62c608	0.01384116
39	0x3cab4954	0.020908989
40	0xbc9851c4	-0.018593676
41	0x3d0b2254	0.033968285
42	0xbc37063c	-0.01117092
43	0x3cc4ae00	0.02400875
44	0x3c8c1e80	0.017104387
45	0x3d4f5e38	0.050626963
46	0x3ccaa0e8	0.02473493
47	0x3d4398ce	0.047753148
48	0xbbce9118	-0.0063039176
49	0x3cdfc0ec	0.027313672

fc2.weight f4 [10, 50]
0	0x3dd89cae	0.10576759
1	0x3c98b4a0	0.018640816
2	0xbdf1ceb2	-0.11807002
3	0x3d76cf24	0.06025614
4	0x3dfdd1fe	0.123935685
5	0xbdcbb35a	-0.09946318
6	0x3e0d0f77	0.1377543
7	0x3d74514c	0.059647843
8	0xbc3a7980	-0.011381507
9	0xbde0aa3b	-0.10969969
10	0xbe007b66	-0.12547073
11	0xbc32cd60	-0.010913223
12	0x3e0af831	0.1357124
13	0x3df5ada6	0.119960114
14	0xbcf22f94	-0.029563703
15	0x3d563514	0.052296713
16	0xbc79dd20	-0.015250474
17	0x3d26fe34	0.04076977
18	0xbdb05a5e	-0.08610986
19	0xbde24d7e	-0.11049937
20	0x3cc264a0	0.023729622
21	0x3ddff452	0.10935272
22	0xbdac7e4f	-0.08422529
23	0x3e0fc34d	0.14039345
24	0xbdc922f0	-0.09821117
25	0xbdaba511	-0.08381093
26	0x3d7224d0	0.05911714
27	0xbe0b9f5e	-0.13635013
28	0xbdabed38	-0.08394855
29	0x3ddbbbfc	0.107292145
30	0xbcd755a0	-0.026285946
31	0xbdf19778	-0.117964685
32	0x3c9ed8b8	0.019390449
33	0x3c41d1e0	0.011829823
34	0x3daafdfe	0.083492264
35	0x3bb9a040	0.0056648552
36	0x3a76ee00	0.000941962
37	0x3dc04ee6	0.09390049
38	0x3c4fd7e0	0.012685746
39	0x3db31ce4	0.08745745
40	0xbd55b21e	-0.05217182
41	0xbddc7304	-0.10764125
42	0xbbd92640	-0.006626874
43	0x3dc07fae	0.09399353
44	0x3d442ff0	0.04789728
45	0x3d2715ec	0.04079239
46	0xbe0bfedc	-0.1367144
47	0xbcc3dca0	-0.023908913
48	0x3aea5c80	0.001788035
49	0xbcd1f28c	-0.02562835
50	0xbddb3e80	-0.1070528
51	0x3d8ff4be	0.07029103
52	0x3b771600	0.0037702322
53	0x3d62c168	0.055360228
54	0xbd10196e	-0.0351805
55	0xbd2fb200	-0.042894363
56	0x3e0d5e15	0.1380542
57	0x3de0fe4a	0.10986002
58	0xbcd6dd74	-0.026228644
59	0x3de8e7fe	0.11372374
60	0xbc965d60	-0.018355072
61	0x3d581bdc	0.052760944
62	0x392a5000	0.00016242266
63	0x3df31842	0.11869861
64	0x3cc671c8	0.024224177
65	0xbdd2ccd2	-0.102929726
66	0xbe057f03	-0.13036732
67	0xbce8312c	-0.02834376
68	0x3bc3a9e0	0.0059711784
69	0x3cea99a8	0.028637722
70	0x3db836e8	0.089948475
71	0x3bb32520	0.005467072
72	0xbd3b26c0	-0.04569125
73	0xbd61733a	-0.05504153
74	0xbdc4461e	-0.09583686
75	0xbdb73cf6	-0.08947174
76	0xbdf04e8c	-0.117337316
77	0xbda0bb92	-0.07848276
78	0xbe043a37	-0.12912832
79	0xbd2d28f4	-0.042275384
80	0xbe0be11d	-0.13660093
81	0x3dc37568	0.09543878
82	0x3d9195f0	0.071086764
83	0xbd5bd7d6	-0.053672634
84	0xbd935af5	-0.07195083
85	0xbd15c21c	-0.03656207
86	0xbe0feae5	-0.14054449
87	0xbd4a6daa	-0.04942099
88	0x3db8ea44	0.090290576
89	0x3ddeebf6	0.1088485
90	0xbde649d0	-0.11244547
91	0xbd5b28ce	-0.05350571
92	0xbdc66994	-0.09688106
93	0xbdd3adce	-0.10335885
94	0x3d424840	0.047432184
95	0x3c8a49f0	0.01688096
96	0x3d8bc980	0.068255424
97	0xbd285f8e	-0.041106753
98	0xbdc1dcc0	-0.09465933
99	0xbc488d80	-0.0122407675
100	0xbd389fba	-0.045074202
101	0x3dbd3b88	0.0923987
102	0xbe0ce56c	-0.13759392
103	0x3d32c51c	0.04364501
104	0x3cb97070	0.022636622
105	0x3d5a0ca8	0.053234726
106	0xbd92484a	-0.07142694
107	0x3cfcbb00	0.030850887
108	0xbc18d680	-0.009328485
109	0x3d8cc534	0.06873551
110	0x3ddeca36	0.108784124
111	0x3dc1b866	0.09458999
112	0xbc414200	-0.011795521
113	0xbdd38c13	-0.103294514
114	0x3dcced28	0.100061715
115	0xbd3acb1c	-0.045603856
116	0xbe108af4	-0.14115506
117	0xbdbe318c	-0.09286794
118	0x3df8ae86	0.12142663
119	0x3daa3bac	0.08312163
120	0x3da3c690	0.07996857
121	0x3cd154d8	0.025553152
122	0xbdaa2afa	-0.083089784
123	0x3d6f699c	0.058450326
124	0x3d5d6bbc	0.05405782
125	0xbcd7fe34	-0.02636633
126	0xbd96fac0	-0.073720455
127	0x3cdfbb20	0.027310908
128	0x3dee420e	0.11633693
129	0x3d987ca0	0.07445645
130	0xbe060d09	-0.1309091
131	0x3d5bf180	0.05369711
132	0xbd48a60a	-0.048986472
133	0x3e00cf27	0.12579022
134	0x3e06fb9b	0.13181917
135	0x3d156b24	0.03647913
136	0xbdac13ec	-0.08402237
137	0x3dd7609c	0.10516474
138	0xbd0e5916	-0.034752928
139	0x3dd767fc	0.1051788
140	0xbe038710	-0.12844491
141	0xbdc8ebf8	-0.098106325
142	0x3d754d78	0.059888333
143	0x3dfed982	0.1244383
144	0x3db7a1a2	0.08966376
145	0x3dc2324c	0.094822496
146	0x3d833538	0.06406635
147	0xbcac21a0	-0.021012127
148	0x3cd7b238	0.026330099
149	0x3d2ebc14	0.042659834
150	0xbba0d780	-0.004908502
151	0xbd405002	-0.0469513
152	0xbceadce0	-0.028669775
153	0x3d6656ec	0.05623524
154	0xbe0e083e	-0.13870332
155	0xbdce4bc2	-0.100730434
156	0xbccac780	-0.024753332
157	0x3c49cbb0	0.012316629
158	0x3bb16dc0	0.0054146945
159	0x3da56c30	0.08077276
160	0x3da7bbe0	0.08190131
161	0xbb7be340	-0.0038435012
162	0x3ddd061a	0.107921794
163	0xbd47d826	-0.04879012
164	0x3def897e	0.116961464
165	0xbd99d815	-0.075119175
166	0xbdfb1f7c	-0.122618645
167	0xbc27a690	-0.010232583
168	0x3d549754	0.05190213
169	0xbcdb313c	-0.026756875
170	0xbd82e7ca	-0.063918665
171	0xbd0721bc	-0.032991156
172	0xbd80c9ab	-0.06288465
173	0x3e03740d	0.12837239
174	0x3d9b9a00	0.075977325
175	0x3de7d392	0.11319651
176	0x3d80f2ac	0.06296286
177	0x3ce68f38	0.028144464
178	0x3ae0a880	0.0017140061
179	0x3e0c3ba7	0.1369463
180	0x3e0cfc3f	0.13768099
181	0x3e02ebdd	0.12785287
182	0xbdc08544	-0.094004184
183	0x3c3e8480	0.01162827
184	0xbd4072c0	-0.046984434
185	0x3d2a1c7c	0.04153107
186	0xbbf99b20	-0.0076173693
187	0x3daec89c	0.08534357
188	0x3cc6cfd0	0.024269015
189	0xbd5fa8b4	-0.054604247
190	0x3dbaa822	0.091141
191	0xbdf027df	-0.11726355
192	0x3bdc46e0	0.006722316
193	0xbb995fc0	-0.0046806037
194	0xbdb67c50	-0.089104295
195	0xbcc22818	-0.023700759
196	0x3d53e5b4	0.051732734
197	0xbdc78020	-0.09741235
198	0x3d9ab900	0.07554817
199	0xbcc0eed8	-0.02355139
200	0x3e033267	0.12812196
201	0x3e0ff053	0.1405652
202	0x3d08f784	0.033439174
203	0xbde59cb4	-0.112115294
204	0xbdefbb42	-0.117056385
205	0x3dfa08f6	0.122087404
206	0x3de7d932	0.113207236
207	0x3d88fce8	0.06688863
208	0x3e0aadcd	0.13542862
209	0x3d10f208	0.03538707
210	0xbddd85f3	-0.108165644
211	0xbd4c80f4	-0.049927667
212	0x3da3514c	0.079744905
213	0x3d3bde3c	0.045866236
214	0x3d07ebfc	0.033184037
215	0x3b6bec00	0.0035998821
216	0x3d8d58c0	0.06901693
217	0x3d8a5c7c	0.06755921
218	0x3d71e0fc	0.059052452
219	0xbc54f530	-0.01299791
220	0x3e00f26f	0.12592481
221	0x3cca85f8	0.024722084
222	0x3dfaade2	0.12240197
223	0xbd34c46a	-0.044132628
224	0x3d266d14	0.04063137
225	0xbbf9f4a0	-0.0076280385
226	0xbdbafaa8	-0.0912984
227	0xbc855098	-0.016273782
228	0x3dcb45c8	0.09925419
229	0xbd5fd7b4	-0.05464907
230	0x3c85a7c8	0.016315356
231	0x3d975462	0.073891416
232	0x3d3bec0c	0.04587941
233	0xbdab6c32	-0.08370246
234	0x3daef1dc	0.08542225
235	0x3c64add0	0.013957456
236	0x3d506500	0.05087757
237	0x3df27d3a	0.11840291
238	0xbdc8f892	-0.09813036
239	0x3dad0bb4	0.08449498
240	0xbde41879	-0.1113748
241	0xbe0a4931	-0.13504483
242	0x3c6ef4e0	0.01458475
243	0xbd87f041	-0.06637622
244	0x3e094a75	0.1340731
245	0x3c89b498	0.016809747
246	0xbde5ed4e	-0.11226903
247	0x3dfead2a	0.12435372
248	0xbcc4adc8	-0.024008647
249	0xbd77ec5e	-0.06052815
250	0xbc5bffb0	-0.01342766
251	0xbce7f67c	-0.028315775
252	0xbdb78b07	-0.08962064
253	0xbd15d9c0	-0.036584616
254	0x3dc1ba1c	0.09459326
255	0x3d7786a4	0.060431138

fc2.bias f4 [10]
0	0xbd8b9e62	-0.068173185
1	0x3e0e907b	0.13922302
2	0xbca34940	-0.01993239
3	0xbdca6f9e	-0.098845705
4	0xbde22e3d	-0.110439755
5	0xbe0e7a61	-0.13913871
6	0xbdef1e97	-0.116757564
7	0xbdb24e54	-0.08706346
8	0x3bc99e40	0.006152898
9	0xbd9316da	-0.07182093
